checkpoint/vox_cp598.pth (torch, 602778 bytes, 15 tensors)

conv.0.bias f4 [1, 256]
-0.07808827 -0.06350956 -0.1340032 -0.2539811 -0.10463128 0.034600265 -0.14129938 -0.14692116
-0.3237757 -0.27986267 -0.061350923 -0.09115815 -0.09046324 -0.05932337 0.06560501 -0.09795072
-0.08324852 -0.07650581 -0.095906064 -0.10295821 -0.11649877 -0.06860757 -0.28731054 -0.07384714
-0.23266865 -0.6418862 -0.14223668 -0.06608727 -0.076651655 -0.14079778 -0.068866245 -0.11869023
-0.06862504 -0.11075336 -0.058455255 -0.07637682 -0.11884482 -0.11809714 -0.18421501 -0.13454735
-0.04087075 -0.2631582 -0.23493288 -0.07849925 -0.376035 -0.11357204 -0.38111928 -0.7162786
-0.08541587 -0.08824723 -0.12633713 -0.088763475 -0.057599705 -0.09781376 -0.17463712 -0.11383153
-0.07331479 -0.10196703 -0.080571465 -0.08481951 -0.09808315 -0.1576214 -0.41862744 -0.08369151
-0.08426665 0.4166801 -0.33094078 -0.058059666 -0.11700821 -0.3403881 0.0020339934 -0.052979432
-0.043911528 -0.072242476 -0.1133659 -0.27190584 0.04352878 -0.124910824 -0.10418862 -0.084729694
-0.1297167 -0.033875227 -0.07473677 -0.3521796 -0.08462757 -0.09303336 0.37859553 -0.08942802
-0.051794607 -0.018354854 -0.098769315 -0.13879217 -0.07248377 -0.023157284 -0.31453407 0.0058542048
-0.09034288 -0.07627293 -0.26627004 -0.078852765 -0.16075152 -0.12996356 -0.06749617 -0.10681119
-0.06521884 -0.08296452 -0.0892901 -0.10616785 -0.08000308 -0.06801157 -0.07872763 -0.13798732
-0.42618912 -0.061184194 -0.10442119 -0.017422307 -0.06655339 -0.079372205 -0.15061861 -0.17117633
-0.06571568 -0.07209306 -0.09429633 -0.2636909 -0.4011371 -0.3126905 0.43789655 -0.08627542
-0.2643373 -0.15816426 -0.05425579 -0.08414851 -0.13511577 -0.15834719 -0.07871837 -0.07909542
-0.12589195 -0.24454491 -0.120669976 -0.17088959 -0.16549264 -0.05862085 -0.1730532 -0.08995374
-0.29707807 -0.08962097 -0.080483906 -0.115274295 -0.093510404 -0.083442196 0.13488643 -0.1381603
-0.12411733 -0.14103599 -0.3383973 -0.31190217 -0.16696408 -0.103087686 -0.075024314 -0.06862653
-0.0882982 -0.07092904 -0.10205813 -0.033248495 -0.071879975 0.009508507 -0.0044822963 -0.11204595
-0.05579368 -0.13215329 -0.20448935 -0.06722138 -0.07570383 -0.07200608 -0.49547222 -0.113207065
-0.09088525 -0.14029065 -0.11500194 -0.12759778 -0.12627436 -0.11386734 -0.06359433 -0.057534076
-0.07627856 -0.15273823 -0.043685224 -0.054408185 -0.099577464 -0.08807878 -0.15484922 -0.11906288
-0.079818085 -0.040452316 -0.09931176 -0.24851239 -0.06709793 -0.13701329 -0.11628794 -0.07828223
-0.05617046 -0.071562976 -0.12721837 -0.038211025 -0.23298864 -0.0046488806 -0.058051016 -0.33055827
-0.06270121 -0.10440115 -0.06474513 -0.09238171 -0.18687296 -0.103417136 -0.15023056 -0.14610057
-0.07284865 -0.09268656 -0.14167145 -0.070258155 -0.06415685 -0.5448661 -0.15367627 -0.13941355
-0.1610384 -0.1039536 0.0026715144 -0.09066355 -0.009942228 0.00532414 -0.13180394 -0.15065879
-0.088665806 -0.02263106 -0.022627817 -0.059037168 -0.08054685 -0.10239447 -0.17241645 -0.10103538
-0.06762542 -0.06671512 -0.09655738 -0.1809552 -0.12287614 -0.25631598 0.0051379944 -0.12142254
-0.012316037 -0.120955326 -0.0802225 -0.05981555 -0.34186432 -0.100370675 0.016943393 -0.14626487
00000000: beec 9fbd 4d11 82bd 2338 09be d009 82be
00000010: ed48 d6bd 02b9 0d3d c9b0 10be 8072 16be
00000020: eec5 a5be 294a 8fbe 1b4b 7bbd 20b1 babd
00000030: cb44 b9bd 10fd 72bd eb5b 863d 639a c8bd
00000040: 337e aabd 14af 9cbd 666a c4bd c1db d2bd
00000050: e896 eebd 2082 8cbd 5e1a 93be 2b3d 97bd
00000060: b140 6ebe a752 24bf 7ea6 11be c358 87bd
00000070: 8bfb 9cbd 4b2d 10be bf09 8dbd dd13 f3bd
00000080: 498b 8cbd a8d2 e2bd c76e 6fbd 736b 9cbd
00000090: ea64 f3bd eadc f1bd dca2 3cbe c8c6 09be
000000a0: 1668 27bd acbc 86be 3f92 70be 37c4 a0bd
000000b0: a987 c0be 7598 e8bd 1122 c3be 095e 37bf
000000c0: 84ee aebd f7ba b4bd 855e 01be a0c9 b5bd
000000d0: abed 6bbd 9552 c8bd 13d4 32be 8120 e9bd
000000e0: 1126 96bd 17d4 d0bd a702 a5bd dab5 adbd
000000f0: d2df c8bd 8167 21be 5656 d6be 7466 abbd
00000100: fe93 acbd 1857 d53e 1271 a9be f9cf 6dbd
00000110: 00a2 efbd 5947 aebe bf4c 053b f600 59bd
00000120: 93dc 33bd ddf3 93bd 622c e8bd 3e37 8bbe
00000130: 3c4b 323d 3fd1 ffbd d860 d5bd c386 adbd
00000140: 74d4 04be c0c0 0abd 970f 99bd e250 b4be
00000150: 3851 adbd 4688 bebd 46d7 c13e 0a26 b7bd
00000160: 9526 54bd eb5c 96bc 9147 cabd 891f 0ebe
00000170: 5f72 94bd 58b4 bdbc 9c0a a1be a1d4 bf3b
00000180: b005 b9bd fb34 9cbd 8c54 88be 8f7d a1bd
00000190: 0c9c 24be 2b15 05be 6f3b 8abd d3bf dabd
000001a0: 7591 85bd 4de9 a9bd badd b6bd 886e d9bd
000001b0: a8d8 a3bd a649 8bbd f43b a1bd 8c4c 0dbe
000001c0: 7635 dabe 479c 7abd c7da d5bd 3ab9 8ebc
000001d0: 254d 88bd e58d a2bd c43b 1abe d948 2fbe
000001e0: f195 86bd 87a5 93bd 6f1e c1bd 7e02 87be
000001f0: d861 cdbe f818 a0be fa33 e03e 2bb1 b0bd
00000200: 3857 87be d0f5 21be 523b 5ebd 0e56 acbd
00000210: ca5b 0abe c425 22be 1937 a1bd c8fc a1bd
00000220: d2e9 00be fb69 7abe d221 f7bd aefd 2ebe
00000230: e776 29be 6b1c 70bd dc34 31be ab39 b8bd
00000240: 9e1a 98be 338b b7bd bfd4 a4bd ee14 ecbd
00000250: 6282 bfbd bee3 aabd ab1f 0a3e e579 0dbe
00000260: 3a31 febd bd6b 10be 6942 adbe a4b1 9fbe
00000270: a2f8 2abe a31f d3bd 59a6 99bd 118c 8cbd
00000280: b0d5 b4bd 3f43 91bd da03 d1bd 932f 08bd
00000290: cf35 93bd 92c9 1b3c 3ae0 92bb 5978 e5bd
000002a0: ea87 64bd 3153 07be a865 51be 5dab 89bd
000002b0: 9c0a 9bbd ec77 93bd 89ae fdbe 1bd9 e7bd
000002c0: 0c22 babd 5aa8 0fbe 2386 ebbd fea8 02be
000002d0: 114e 01be 4833 e9bd be3d 82bd daa8 6bbd
000002e0: ef37 9cbd 6967 1cbe 47ef 32bd 1edb 5ebd
000002f0: 45ef cbbd a662 b4bd cb90 1ebe 3dd7 f3bd
00000300: aa77 a3bd 54b1 25bd f763 cbbd 087a 7ebe
00000310: a46a 89bd 364d 0cbe 5f28 eebd 6f52 a0bd
00000320: ff12 66bd 9c8f 92bd 8845 02be 2a83 1cbd
00000330: 9394 6ebe a355 98bb e7c6 6dbd ef3e a9be
00000340: 7e69 80bd 45d0 d5bd 1899 84bd 9f32 bdbd
00000350: a05b 3fbe 5dcc d3bd 0ad6 19be 639b 15be
00000360: ac31 95bd 73d2 bdbd 5212 11be 82e3 8fbd
00000370: ab64 83bd 587c 0bbf 505d 1dbe 6dc2 0ebe
00000380: 40e7 24be a0e5 d4bd 9314 2f3b d0ad b9bd
00000390: bae4 22bc 2076 ae3b 9df7 06be 4c46 1abe
000003a0: 6b96 b5bd c664 b9bc f95d b9bc f5d0 71bd
000003b0: bff5 a4bd 31b4 d1bd f08d 30be a3eb cebd
000003c0: 327f 8abd f0a1 88bd e0bf c5bd 524c 39be
000003d0: 7ca6 fbbd d93b 83be 9f5c a83b 61ac f8bd
000003e0: 34c9 49bc 6db7 f7bd b24b a4bd 2601 75bd
000003f0: d708 afbe 248f cdbd dfcc 8a3c 75c6 15be

conv.0.gcn_layer.attn_l f4 [1, 1, 256]
0.14203729 -0.14879097 0.02324672 0.07058948 -0.22132626 -0.14542964 -0.039333638 -0.045844328
-0.17306331 -0.22803117 0.0037838987 -0.09829395 -0.020689992 0.18179508 0.23248367 0.11197851
0.2170336 -0.08924662 -0.20080815 0.08923588 -0.07101645 0.012738495 0.1366843 -0.06457034
0.17735393 0.5663791 0.015702875 -0.06412762 0.06929022 0.056032013 0.14032193 -0.07727792
0.14464875 0.025533773 -0.362311 -0.054418407 0.04813268 -0.16728513 -0.037349746 0.019934755
-0.047797598 0.34992126 -0.0027839025 -0.05409145 0.14897282 -0.0647799 -0.14245541 0.24537477
-0.1699204 0.012621208 0.09062114 -0.021805847 0.0931212 -0.016254704 0.049336858 -0.05685909
0.054738324 0.089596435 0.1455425 -0.060829565 -0.036397923 -0.07653388 0.064621165 -0.068085484
-0.024842221 -0.3073856 0.11571374 -0.15076019 0.28741276 0.13716915 -0.1189626 0.0211569
0.15020755 0.1407569 -0.060965374 -0.13129786 -0.26239774 -0.06519998 0.048834458 -0.1231518
0.18076502 -0.21728586 -0.01552136 0.05537734 0.101605 -0.18752536 0.979925 -0.21985036
0.15253006 -0.04712084 0.17484187 0.1289081 0.22508511 -0.09435646 -0.29717964 -0.14380763
-0.003749427 -0.053516418 0.17006472 0.07700935 -0.11118042 -0.107170716 0.04987732 -0.21330455
-0.14297609 -0.06232506 -0.09689429 -0.10261785 0.016987288 -0.05364614 -0.13857569 -0.2182866
-0.20307498 0.13507168 -0.09560428 0.089447215 -0.027098035 0.070768215 -0.045912787 -0.2215586
-0.07572153 0.13439944 -0.08271962 -0.22347249 -0.17995238 0.70279217 -0.53318995 -0.10090444
-0.06898156 0.16849697 -0.052597944 -0.057970334 0.24282189 0.2052712 -0.19244379 0.01680172
-0.13890189 0.121544026 0.01080573 -0.29141697 0.2685786 0.07107999 0.1340275 -0.109578766
0.026485844 0.010104322 -0.00039845728 0.13825044 0.20846105 -0.003833249 0.15992396 -0.025037883
0.17732133 0.2624275 0.102736644 0.76456213 -0.1485059 0.050857175 -0.00890138 0.09861329
0.037147198 0.005375427 -0.28926578 0.0104247425 -0.07892896 0.17795157 0.06801569 -0.115142465
-0.18834458 0.11682542 -0.7156091 -0.048249334 0.03232467 0.13308884 0.47127703 -0.16040783
-0.024937985 0.14554802 0.1367228 -0.014796621 -0.13249868 -0.00050225557 0.04165127 0.11498887
-0.008123036 -0.24276246 0.052663073 -0.118949205 0.21640952 0.111289114 0.035732582 -0.12647498
0.033983894 -0.04926438 0.111492306 -0.23312894 0.061459064 0.0016008461 -0.29490948 -0.11400936
-0.12955247 0.06648036 -0.11641769 0.035252653 -0.0044070734 -0.0048560402 -0.014265545 -0.4256995
0.009124736 0.38254786 -0.084816046 -0.0430823 0.20500529 0.07436586 -0.05567776 -0.27178523
0.002114607 -0.088987365 -0.018200295 -0.18455173 -0.07343835 0.19337763 0.18358158 -0.25046605
-0.14843449 -0.027898354 -0.052743174 0.029142778 0.004255322 0.088625014 0.22445804 0.22680731
-0.22391908 -0.09503333 0.42952535 -0.017227143 0.006667105 -0.04024779 -0.10900718 0.12661117
-0.03731482 -0.14272968 -0.03744942 0.15011595 0.07748524 -0.19481061 -0.06087057 0.043990687
-0.055584896 -0.014134488 0.09043481 -0.15951964 -0.08788566 0.011663914 -0.2331073 -0.043749705
00000000: 3972 113e a95c 18be e86f be3c 3891 903d
00000010: 5aa3 62be 82eb 14be 4f1c 21bd 43c7 3bbd
00000020: 8237 31be 0181 69be 49fb 773b 574e c9bd
00000030: 0f7e a9bc 7d28 3a3e 3310 6e3e fd54 e53d
00000040: 0e3e 5e3e efc6 b6bd a7a0 4dbe 4dc1 b63d
00000050: 1371 91bd 1fb5 503c f8f6 0b3e 743d 84bd
00000060: 459c 353e 38fe 103f 51a3 803c 5755 83bd
00000070: 08e8 8d3d d381 653d 8db0 0f3e e343 9ebd
00000080: cd1e 143e 342c d13c d480 b9be d6e5 5ebd
00000090: c626 453d cb4c 2bbe 0cfc 18bd 364e a33c
000000a0: 6ac7 43bd e128 b33e 2272 36bb ff8e 5dbd
000000b0: 558c 183e 53ab 84bd d5df 11be 8643 7b3e
000000c0: 9dff 2dbe 2fc9 4e3c 9497 b93d 2da2 b2bc
000000d0: 54b6 be3d 9628 85bc 7215 4a3d 14e5 68bd
000000e0: 4b35 603d 567e b73d 1809 153e 6c28 79bd
000000f0: fd15 15bd cbbd 9cbd 1a58 843d 6770 8bbd
00000100: ea81 cbbc a561 9dbe 53fb ec3d e160 1abe
00000110: c427 933e 1276 0c3e aaa2 f3bd 3c51 ad3c
00000120: 02d0 193e 9422 103e d4b6 79bd f272 06be
00000130: ff58 86be 9187 85bd a406 483d 0337 fcbd
00000140: 771a 393e 2f80 5ebe 4d4d 7ebc 5ad3 623d
00000150: 4816 d03d a606 40be 5ddc 7a3f 7420 61be
00000160: d730 1c3e c801 41bd bf09 333e 7c00 043e
00000170: b67c 663e f63d c1bd ee27 98be 4f42 13be
00000180: f2b8 75bb 0834 5bbd 7225 2e3e 14b7 9d3d
00000190: 8fb2 e3bd 527c dbbd 294c 4c3d 826c 5abe
000001a0: 5368 12be 9048 7fbd 8370 c6bd 4f29 d2bd
000001b0: ed28 8b3c 0ebc 5bbd c9e6 0dbe 8686 5fbe
000001c0: e3f2 4fbe 3b50 0a3e 2dcc c3bd 1a30 b73d
000001d0: b3fc ddbc edee 903d 0c0f 3cbd 42e0 62be
000001e0: e413 9bbd 02a0 093e e768 a9bd f9d5 64be
000001f0: 7045 38be 30ea 333f 237f 08bf fda6 cebd
00000200: 3446 8dbd 788a 2c3e f170 57bd 4d72 6dbd
00000210: 4da6 783e 9d32 523e fc0f 45be c3a3 893c
00000220: 4c3c 0ebe 13ec f83d 840a 313c 9b34 95be
00000230: 2283 893e 6392 913d 813e 093e d56a e0bd
00000240: d7f8 d83c 998c 253c 08e8 d0b9 8691 0d3e
00000250: d076 553e 3f37 7bbb 1bc3 233e 3f1c cdbc
00000260: b993 353e e65c 863e 9767 d23d 58ba 433f
00000270: ee11 18be 9d4f 503d 18d7 11bc c4f5 c93d
00000280: a927 183d 5a24 b03b a51a 94be 8acc 2a3c
00000290: 82a5 a1bd f038 363e cf4b 8b3d d0cf ebbd
000002a0: 67dd 40be 2a42 ef3d 2832 37bf 18a1 45bd
000002b0: e066 043d 7148 083e 394b f13e f341 24be
000002c0: bf4a ccbc 8a0a 153e 1001 0c3e 876d 72bc
000002d0: bcad 07be cda9 03ba 869a 2a3d 497f eb3d
000002e0: 7b16 05bc b996 78be 3cb5 573d a49b f3bd
000002f0: 759a 5d3e 8ceb e33d 545c 123d a882 01be
00000300: b232 0b3d 72c9 49bd 1456 e43d 5ab9 6ebe
00000310: 80bc 7b3d 7bd3 d13a 60fe 96be bd7d e9bd
00000320: 67a9 04be db26 883d 666c eebd 1665 103d
00000330: 3669 90bb 6b1f 9fbb 08ba 69bc 49f5 d9be
00000340: eb7f 153c 50dd c33e 09b4 adbd 1177 30bd
00000350: e8ec 513e 214d 983d 5d0e 64bd 6f27 8bbe
00000360: 3895 0a3b 023f b6bd c918 95bc 21fb 3cbe
00000370: d866 96bd c904 463e cffc 3b3e 163d 80be
00000380: 36ff 17be 178b e4bc 3a09 58bd d6bc ee3c
00000390: 3a70 8b3b 0881 b53d 54d8 653e 2d40 683e
000003a0: 0b4b 65be d6a0 c2bd bfea db3e f01f 8dbc
000003b0: bb77 da3b deda 24bd 283f dfbd 5ca6 013e
000003c0: 6dd7 18bd bb27 12be 9064 19bd ffb7 193e
000003d0: 95b0 9e3d 6f7c 47be 6b53 79bd 942f 343d
000003e0: fdac 63bd 5794 67bc e335 b93d 1e59 23be
000003f0: 66fd b3bd 001a 3f3c aeb3 6ebe e432 33bd

conv.0.gcn_layer.attn_r f4 [1, 1, 256]
0.16689518 -0.09025091 0.15630172 0.12103439 0.2832633 0.28409776 -0.42582783 -0.22597395
0.57977563 0.5458741 -0.038188186 -0.13566603 -0.011514 0.2773127 -0.15981346 0.0056638094
0.15376891 -0.21472059 0.3649657 0.18335149 0.1664829 -0.009672806 0.49250454 -0.003939628
-0.17512068 -0.07814084 -0.20177597 -0.08387891 -0.24457027 -0.21984568 0.12941048 0.035064228
0.28383136 0.0052550267 -0.26138642 0.2511206 0.19963464 -0.54788333 0.5643741 -0.053363275
0.09133954 -0.061167646 -0.2001606 0.22356883 -0.074183464 0.055349205 -0.124554716 -0.087347664
0.11404602 0.30592015 0.16994122 0.24611793 -0.06633768 -0.31026432 -0.21181837 0.059399977
0.0685903 0.13845481 -0.049437366 -0.28873724 -0.27931547 -0.07274809 0.17972709 -0.1581831
0.03700712 0.7266118 0.10883677 -0.015618413 0.09241726 0.46741214 0.15772338 0.20691957
-0.11522296 -0.016008828 -0.07148429 -0.28088608 -0.44128805 0.326222 -0.31817934 0.11321306
0.06088433 0.08297646 -0.1349392 0.07170148 -0.16906443 -0.11057604 0.3257535 0.08092728
-0.03709831 0.06588481 0.34167606 0.39567026 0.35258088 0.43008167 0.31508276 -0.18454759
0.021538895 -0.37414625 0.37731805 0.16635154 -0.4671964 0.0012843225 0.09628145 0.05129256
-0.027124887 -0.0008776613 -0.3901043 -0.37475625 0.19733095 0.18884565 -0.15345697 0.18074535
0.11004248 0.058985963 0.4573241 -0.38527212 0.3237042 -0.1379516 0.2877918 0.0030476998
-0.18067534 0.2287881 -0.039513018 -0.63094455 0.30261797 -0.07946096 0.9925706 0.2846865
0.4109406 -0.23478046 0.15031815 0.12518068 -0.05521836 -0.036528114 -0.26940754 0.28430277
-0.3571337 0.089955844 -0.21944562 -0.022054859 0.038978335 -0.124337636 -0.34535113 0.0052476535
0.33561525 0.19263 0.10190681 -0.28930825 0.021521186 -0.115353204 0.307034 0.19061746
0.42267838 0.06276757 0.27625707 0.06448267 0.022279698 0.35759485 -0.2365181 0.009267336
0.025624229 -0.007363171 -0.08669499 -0.0136673935 0.022830743 0.19351432 -0.23997642 0.23722194
-0.19605605 -0.37716013 0.104058996 -0.01016361 -0.059975576 -0.10274387 -0.2567567 0.2124065
-0.2230418 0.26104417 -0.016380591 -0.12029722 0.11960192 0.25046563 0.19990067 -0.09547194
0.125729 0.055220023 -0.017491207 0.18265776 -0.071495034 0.3854144 0.30234456 -0.2116512
-0.020676235 -0.09317007 -0.07315275 0.18040924 0.33403224 -0.19393508 0.17046545 0.031173216
-0.01759454 0.22428228 -0.31854975 0.048103895 -0.15715168 -0.07482988 0.15689677 -0.30228683
-0.18684801 -0.1781628 0.028508365 -0.13111499 0.67152023 0.020921154 0.0885552 0.037414614
0.22920094 0.2763778 -0.19992879 0.066454336 0.14624241 0.24276073 0.012353869 0.17241463
-0.16262415 0.13075806 -0.074867986 -0.12622638 -0.16119379 0.16340396 0.24438386 0.30300415
-0.02190215 0.20681189 0.27117053 -0.026249027 -0.25622013 -0.27955693 0.04793447 -0.24381296
-0.17084478 0.29738998 0.15856035 0.40073112 -0.07237188 -0.17243628 0.11964417 0.15837188
0.021377128 -0.3067147 0.01030962 0.19864453 -0.29362017 0.21370187 0.11708155 0.23252936
00000000: 92e6 2a3e 78d5 b8bd 8f0d 203e e1e0 f73d
00000010: e307 913e 4375 913e 1b06 dabe b765 67be
00000020: 2d6c 143f 68be 0b3f 376b 1cbd 09ec 0abe
00000030: 37a5 3cbc eefb 8d3e 24a6 23be 7a97 b93b
00000040: 9975 1d3e b7df 5bbe c9dc ba3e 7ec0 3b3e
00000050: 7e7a 2a3e b07a 1ebc 8e29 fc3e ff17 81bb
00000060: d652 33be 4e08 a0bd 5c9e 4ebe b5c8 abbd
00000070: a170 7abe 3a1f 61be 2e84 043e 829f 0f3d
00000080: 5852 913e 5c32 ac3b 71d4 85be e192 803e
00000090: 066d 4c3e 1542 0cbf d27a 103f 7393 5abd
000000a0: 3a10 bb3d ed8a 7abd e6f6 4cbe 3aef 643e
000000b0: 80ed 97bd d9b5 623d 8b16 ffbd 55e3 b2bd
000000c0: f690 e93d 91a1 9c3e 1205 2e3e 5706 7c3e
000000d0: 0ddc 87bd f7da 9ebe eae6 58be 644d 733d
000000e0: 1279 8c3d 19c7 0d3e d67e 4abd 5ed5 93be
000000f0: 7002 8fbe f3fc 94bd 610a 383e c0fa 21be
00000100: c794 173d 3b03 3a3f d0e5 de3d 5fe4 7fbc
00000110: 4345 bd3d a550 ef3e 3d82 213e b9e2 533e
00000120: 04fa ebbd f224 83bc 5b66 92bd 4dd0 8fbe
00000130: 82f0 e1be 9206 a73e 67e8 a2be 40dc e73d
00000140: d961 793d 90ef a93d 802d 0abe 3ad8 923d
00000150: 3a1f 2dbe b175 e2bd 2ac9 a63e 34bd a53d
00000160: 66f4 17bd 9eee 863d 2af0 ae3e 4b95 ca3e
00000170: 7b85 b43e aa33 dc3e 8752 a13e 0bfa 3cbe
00000180: 5672 b03c 1990 bfbe d52f c13e 0f58 2a3e
00000190: 5e34 efbe b656 a83a 352f c53d 2618 523d
000001a0: 0335 debc da12 66ba c0bb c7be 0de0 bfbe
000001b0: 2011 4a3e c160 413e d323 1dbe 4f15 393e
000001c0: f45d e13d 449b 713d 6226 ea3e 6342 c5be
000001d0: 8fbc a53e 2f43 0dbe 7259 933e ebbb 473b
000001e0: f502 39be 6d47 6a3e 67d8 21bd 9585 21bf
000001f0: bef0 9a3e 6ebc a2bd 1b19 7e3f 6ec2 913e
00000200: ce66 d23e 4a6a 70be 00ed 193e 5d2f 003e
00000210: a62c 62bd 819e 15bd c9ef 89be 2290 913e
00000220: 3ada b6be c53a b83d 5ab6 60be 64ac b4bc
00000230: bfa7 1f3d bba4 febd ddd1 b0be 82f4 ab3b
00000240: c3d5 ab3e cc40 453e 85b4 d03d 3620 94be
00000250: 334d b03c 4d3e ecbd 8f33 9d3e 3931 433e
00000260: 4d69 d83e 498c 803d 9171 8d3e 7d0f 843d
00000270: ea83 b63c ac16 b73e cd31 72be 06d6 173c
00000280: e7e9 d13c c146 f1bb 258d b1bd 34ed 5fbc
00000290: 8a07 bb3c 9e28 463e 61bc 75be 4fea 723e
000002a0: ebc2 48be 221b c1be e21c d53d 4585 26bc
000002b0: f3a8 75bd 616b d2bd 9d75 83be 1781 593e
000002c0: 1265 64be 95a7 853e 9730 86bc 645e f6bd
000002d0: daf1 f43d 083d 803e c3b2 4c3e cb86 c3bd
000002e0: 1abf 003e 642e 623d b849 8fbc a30a 3b3e
000002f0: fd6b 92bd 0955 c53e e8cc 9a3e 18bb 58be
00000300: 3561 a9bc f3cf bebd 1cd1 95bd 33bd 383e
00000310: 4606 ab3e eb96 46be 7f8e 2e3e f95e ff3c
00000320: 6d22 90bc 41aa 653e f418 a3be 9708 453d
00000330: 5fec 20be 6840 99bd 8ca9 203e 57c5 9abe
00000340: 1655 3fbe 4f70 36be 608a e93c 0243 06be
00000350: c0e8 2b3f d762 ab3c 6e5c b53d 1140 193d
00000360: a7b3 6a3e 6481 8d3e 22ba 4cbe 3619 883d
00000370: 92c0 153e 4596 783e e267 4a3c 768d 303e
00000380: f286 26be 71e5 053e 6354 99bd 7d41 01be
00000390: fc0f 25be 5e53 273e c33f 7a3e 5c23 9b3e
000003a0: 236c b3bc 7fc6 533e ddd6 8a3e 3308 d7bc
000003b0: 492f 83be 1622 8fbe ef56 443d 1baa 79be
000003c0: eff1 2ebe 8043 983e a55d 223e a12c cd3e
000003d0: b537 94bd 2393 30be 0108 f53d 3d2c 223e
000003e0: 161f af3c b609 9dbe aee9 283c 7969 4b3e
000003f0: 6255 96be aad4 5a3e 74c8 ef3d 2d1c 6e3e

conv.0.gcn_layer.bias f4 [256]
-0.07808827 -0.06350956 -0.1340032 -0.2539811 -0.10463128 0.034600265 -0.14129938 -0.14692116
-0.3237757 -0.27986267 -0.061350923 -0.09115815 -0.09046324 -0.05932337 0.06560501 -0.09795072
-0.08324852 -0.07650581 -0.095906064 -0.10295821 -0.11649877 -0.06860757 -0.28731054 -0.07384714
-0.23266865 -0.6418862 -0.14223668 -0.06608727 -0.076651655 -0.14079778 -0.068866245 -0.11869023
-0.06862504 -0.11075336 -0.058455255 -0.07637682 -0.11884482 -0.11809714 -0.18421501 -0.13454735
-0.04087075 -0.2631582 -0.23493288 -0.07849925 -0.376035 -0.11357204 -0.38111928 -0.7162786
-0.08541587 -0.08824723 -0.12633713 -0.088763475 -0.057599705 -0.09781376 -0.17463712 -0.11383153
-0.07331479 -0.10196703 -0.080571465 -0.08481951 -0.09808315 -0.1576214 -0.41862744 -0.08369151
-0.08426665 0.4166801 -0.33094078 -0.058059666 -0.11700821 -0.3403881 0.0020339934 -0.052979432
-0.043911528 -0.072242476 -0.1133659 -0.27190584 0.04352878 -0.124910824 -0.10418862 -0.084729694
-0.1297167 -0.033875227 -0.07473677 -0.3521796 -0.08462757 -0.09303336 0.37859553 -0.08942802
-0.051794607 -0.018354854 -0.098769315 -0.13879217 -0.07248377 -0.023157284 -0.31453407 0.0058542048
-0.09034288 -0.07627293 -0.26627004 -0.078852765 -0.16075152 -0.12996356 -0.06749617 -0.10681119
-0.06521884 -0.08296452 -0.0892901 -0.10616785 -0.08000308 -0.06801157 -0.07872763 -0.13798732
-0.42618912 -0.061184194 -0.10442119 -0.017422307 -0.06655339 -0.079372205 -0.15061861 -0.17117633
-0.06571568 -0.07209306 -0.09429633 -0.2636909 -0.4011371 -0.3126905 0.43789655 -0.08627542
-0.2643373 -0.15816426 -0.05425579 -0.08414851 -0.13511577 -0.15834719 -0.07871837 -0.07909542
-0.12589195 -0.24454491 -0.120669976 -0.17088959 -0.16549264 -0.05862085 -0.1730532 -0.08995374
-0.29707807 -0.08962097 -0.080483906 -0.115274295 -0.093510404 -0.083442196 0.13488643 -0.1381603
-0.12411733 -0.14103599 -0.3383973 -0.31190217 -0.16696408 -0.103087686 -0.075024314 -0.06862653
-0.0882982 -0.07092904 -0.10205813 -0.033248495 -0.071879975 0.009508507 -0.0044822963 -0.11204595
-0.05579368 -0.13215329 -0.20448935 -0.06722138 -0.07570383 -0.07200608 -0.49547222 -0.113207065
-0.09088525 -0.14029065 -0.11500194 -0.12759778 -0.12627436 -0.11386734 -0.06359433 -0.057534076
-0.07627856 -0.15273823 -0.043685224 -0.054408185 -0.099577464 -0.08807878 -0.15484922 -0.11906288
-0.079818085 -0.040452316 -0.09931176 -0.24851239 -0.06709793 -0.13701329 -0.11628794 -0.07828223
-0.05617046 -0.071562976 -0.12721837 -0.038211025 -0.23298864 -0.0046488806 -0.058051016 -0.33055827
-0.06270121 -0.10440115 -0.06474513 -0.09238171 -0.18687296 -0.103417136 -0.15023056 -0.14610057
-0.07284865 -0.09268656 -0.14167145 -0.070258155 -0.06415685 -0.5448661 -0.15367627 -0.13941355
-0.1610384 -0.1039536 0.0026715144 -0.09066355 -0.009942228 0.00532414 -0.13180394 -0.15065879
-0.088665806 -0.02263106 -0.022627817 -0.059037168 -0.08054685 -0.10239447 -0.17241645 -0.10103538
-0.06762542 -0.06671512 -0.09655738 -0.1809552 -0.12287614 -0.25631598 0.0051379944 -0.12142254
-0.012316037 -0.120955326 -0.0802225 -0.05981555 -0.34186432 -0.100370675 0.016943393 -0.14626487
00000000: beec 9fbd 4d11 82bd 2338 09be d009 82be
00000010: ed48 d6bd 02b9 0d3d c9b0 10be 8072 16be
00000020: eec5 a5be 294a 8fbe 1b4b 7bbd 20b1 babd
00000030: cb44 b9bd 10fd 72bd eb5b 863d 639a c8bd
00000040: 337e aabd 14af 9cbd 666a c4bd c1db d2bd
00000050: e896 eebd 2082 8cbd 5e1a 93be 2b3d 97bd
00000060: b140 6ebe a752 24bf 7ea6 11be c358 87bd
00000070: 8bfb 9cbd 4b2d 10be bf09 8dbd dd13 f3bd
00000080: 498b 8cbd a8d2 e2bd c76e 6fbd 736b 9cbd
00000090: ea64 f3bd eadc f1bd dca2 3cbe c8c6 09be
000000a0: 1668 27bd acbc 86be 3f92 70be 37c4 a0bd
000000b0: a987 c0be 7598 e8bd 1122 c3be 095e 37bf
000000c0: 84ee aebd f7ba b4bd 855e 01be a0c9 b5bd
000000d0: abed 6bbd 9552 c8bd 13d4 32be 8120 e9bd
000000e0: 1126 96bd 17d4 d0bd a702 a5bd dab5 adbd
000000f0: d2df c8bd 8167 21be 5656 d6be 7466 abbd
00000100: fe93 acbd 1857 d53e 1271 a9be f9cf 6dbd
00000110: 00a2 efbd 5947 aebe bf4c 053b f600 59bd
00000120: 93dc 33bd ddf3 93bd 622c e8bd 3e37 8bbe
00000130: 3c4b 323d 3fd1 ffbd d860 d5bd c386 adbd
00000140: 74d4 04be c0c0 0abd 970f 99bd e250 b4be
00000150: 3851 adbd 4688 bebd 46d7 c13e 0a26 b7bd
00000160: 9526 54bd eb5c 96bc 9147 cabd 891f 0ebe
00000170: 5f72 94bd 58b4 bdbc 9c0a a1be a1d4 bf3b
00000180: b005 b9bd fb34 9cbd 8c54 88be 8f7d a1bd
00000190: 0c9c 24be 2b15 05be 6f3b 8abd d3bf dabd
000001a0: 7591 85bd 4de9 a9bd badd b6bd 886e d9bd
000001b0: a8d8 a3bd a649 8bbd f43b a1bd 8c4c 0dbe
000001c0: 7635 dabe 479c 7abd c7da d5bd 3ab9 8ebc
000001d0: 254d 88bd e58d a2bd c43b 1abe d948 2fbe
000001e0: f195 86bd 87a5 93bd 6f1e c1bd 7e02 87be
000001f0: d861 cdbe f818 a0be fa33 e03e 2bb1 b0bd
00000200: 3857 87be d0f5 21be 523b 5ebd 0e56 acbd
00000210: ca5b 0abe c425 22be 1937 a1bd c8fc a1bd
00000220: d2e9 00be fb69 7abe d221 f7bd aefd 2ebe
00000230: e776 29be 6b1c 70bd dc34 31be ab39 b8bd
00000240: 9e1a 98be 338b b7bd bfd4 a4bd ee14 ecbd
00000250: 6282 bfbd bee3 aabd ab1f 0a3e e579 0dbe
00000260: 3a31 febd bd6b 10be 6942 adbe a4b1 9fbe
00000270: a2f8 2abe a31f d3bd 59a6 99bd 118c 8cbd
00000280: b0d5 b4bd 3f43 91bd da03 d1bd 932f 08bd
00000290: cf35 93bd 92c9 1b3c 3ae0 92bb 5978 e5bd
000002a0: ea87 64bd 3153 07be a865 51be 5dab 89bd
000002b0: 9c0a 9bbd ec77 93bd 89ae fdbe 1bd9 e7bd
000002c0: 0c22 babd 5aa8 0fbe 2386 ebbd fea8 02be
000002d0: 114e 01be 4833 e9bd be3d 82bd daa8 6bbd
000002e0: ef37 9cbd 6967 1cbe 47ef 32bd 1edb 5ebd
000002f0: 45ef cbbd a662 b4bd cb90 1ebe 3dd7 f3bd
00000300: aa77 a3bd 54b1 25bd f763 cbbd 087a 7ebe
00000310: a46a 89bd 364d 0cbe 5f28 eebd 6f52 a0bd
00000320: ff12 66bd 9c8f 92bd 8845 02be 2a83 1cbd
00000330: 9394 6ebe a355 98bb e7c6 6dbd ef3e a9be
00000340: 7e69 80bd 45d0 d5bd 1899 84bd 9f32 bdbd
00000350: a05b 3fbe 5dcc d3bd 0ad6 19be 639b 15be
00000360: ac31 95bd 73d2 bdbd 5212 11be 82e3 8fbd
00000370: ab64 83bd 587c 0bbf 505d 1dbe 6dc2 0ebe
00000380: 40e7 24be a0e5 d4bd 9314 2f3b d0ad b9bd
00000390: bae4 22bc 2076 ae3b 9df7 06be 4c46 1abe
000003a0: 6b96 b5bd c664 b9bc f95d b9bc f5d0 71bd
000003b0: bff5 a4bd 31b4 d1bd f08d 30be a3eb cebd
000003c0: 327f 8abd f0a1 88bd e0bf c5bd 524c 39be
000003d0: 7ca6 fbbd d93b 83be 9f5c a83b 61ac f8bd
000003e0: 34c9 49bc 6db7 f7bd b24b a4bd 2601 75bd
000003f0: d708 afbe 248f cdbd dfcc 8a3c 75c6 15be

conv.0.gcn_layer.fc.weight f4 [256, 256]
-0.049950056 0.04229691 -0.01931487 -0.022886723 -0.034300376 -0.021507608 -0.07575719 -0.026949987
0.006991175 0.019615818 -0.03324212 0.017279707 -0.025031878 -0.015221055 0.057350814 -0.023021594
-0.023663897 0.0040659416 0.079299 0.018339649 0.049075875 -0.07680621 -0.011269355 -0.025254779
-0.032496113 -0.07020791 -0.010116876 -0.14324112 -0.06515601 0.0058939396 0.042836115 -0.022145446
0.019783666 0.017667796 -0.041509353 -0.048711415 0.025471833 0.08301418 -0.05712741 0.015212791
0.061906435 -0.013733197 0.0029894223 -0.05259118 -0.13442771 0.03441614 0.097569615 -0.029522052
0.12318837 0.0065709846 0.006925296 0.0015651208 -0.06297473 -0.022635771 -0.01709645 -0.02564069
-0.009980409 -0.023489306 -0.063766345 -0.051409557 -0.14486155 -0.08004948 0.03377225 0.04900835
0.08716864 -0.028995246 0.005089779 0.2131172 0.045119256 0.013884441 -0.03047469 0.022645647
-0.021310387 0.046207204 0.019889098 -0.056879263 0.0332205 0.050248686 -0.028278505 -0.09182326
0.046115093 -0.068913944 -0.07223158 0.04416794 -0.08328057 -0.0062084626 -0.071136 -0.02814527
-0.059840124 0.06258813 0.0059060124 -0.09437918 0.081810884 0.045890003 0.078096665 0.10123087
-0.0043877657 -0.05657148 0.019582603 0.008313752 0.016815566 -0.014457218 0.004033046 0.051720485
-0.00729331 -0.07758791 0.0077551403 -0.010039879 -0.057240475 0.03965782 0.06714511 -0.013547319
0.007956241 -0.05094435 0.016649209 0.08097304 0.11407459 0.026886169 -0.007480515 -0.07992694
-0.00943456 0.014453851 0.084810995 -0.030139549 0.023814356 -0.032555617 0.0012268678 -0.02636461
-0.0019060733 -0.053913265 0.036041092 -0.041029472 -0.021355849 -0.02245547 0.11199003 0.011765396
-0.0519789 -0.16712818 -0.022287859 -0.018383812 0.025190555 0.014846029 0.01351107 -0.089161135
-0.003467749 -0.04013838 0.070486575 -0.05653103 0.05046827 0.021222174 -0.006882886 -0.101599045
-0.036866914 -0.022436628 -0.06982485 0.06471546 0.022307895 0.046224255 0.005841851 -0.018471487
-0.04821201 -0.020982431 -0.021253383 -0.03493616 0.081040815 0.01594287 -0.07400551 0.017070113
-0.04962166 0.02813972 -0.0053395936 -0.034078084 -0.026773551 0.011915497 0.0738128 -0.046877872
0.014199708 -0.09363049 -0.03291644 0.09346652 -0.07072766 -0.015492615 -0.00025172622 -0.0031143262
-0.08810624 -0.043181155 0.0011364085 0.017537994 -0.13265495 -0.041590843 0.08914226 0.11191863
0.010411241 -0.028207287 -0.17348288 0.027625207 -0.013409457 0.06284382 0.011542123 -0.038917128
-0.022585118 -0.0113725625 -0.04001068 0.015180122 0.046367213 -0.058768053 -0.002958919 0.06854297
-0.033576522 0.05070952 -0.024815032 0.0028705262 -0.05646351 -0.016816812 -0.024442269 0.012933253
-0.032643344 0.054376487 -0.10761739 0.024494365 0.036374763 -0.10802238 0.014279706 0.0025632747
0.03244737 -0.028323721 0.023938185 -0.013538942 0.123506255 -0.10735254 -0.08514019 0.0053840475
0.027535224 -0.012315904 0.03141785 -0.06344273 0.05361139 -0.004176419 0.07700223 -0.030894155
0.038211457 -0.016272198 0.027417587 -0.0047041993 0.04373809 -0.054323293 0.052733306 -0.032053743
-0.061316825 -0.026712405 -0.07962226 0.07772643 -0.043633275 -0.05848591 -0.06404973 -0.017117608
00000000: 6e98 4cbd 863f 2d3d 383a 9ebc f07c bbbc
00000010: 8d7e 0cbd b930 b0bc 9626 9bbd 38c6 dcbc
00000020: 3a16 e53b 5ab1 a03c e428 08bd 2c8e 8d3c
00000030: a70f cdbc bb61 79bc b0e8 6a3d c897 bcbc
00000040: cada c1bc 973b 853b 8467 a23d 083d 963c
00000050: c903 493d 934c 9dbd 1aa3 38bc 1ce3 cebc
00000060: a51a 05bd 2ac9 8fbd 41c1 25bc cdad 12be
00000070: 8470 85bd f321 c13b ec74 2f3d 5e6a b5bc
00000080: 5b11 a23c 0ebc 903c b605 2abd 9f85 47bd
00000090: 4eaa d03c 5703 aa3d 6efe 69bd 123f 793c
000000a0: 9a91 7d3d 3401 61bc 2fea 433b d969 57bd
000000b0: 6ba7 09be f0f7 0c3d 94d2 c73d 3bd8 f1bc
000000c0: 2f4a fc3d 6a51 d73b 98ed e23b bd24 cd3a
000000d0: e5f8 80bd a76e b9bc db0d 8cbc 6d0c d2bc
000000e0: df84 23bc a56c c0bc ee97 82bd d492 52bd
000000f0: 9656 14be fbf0 a3bd c554 0a3d fbbc 483d
00000100: 7985 b23d 7087 edbc 29c8 a63b 653b 5a3e
00000110: f8ce 383d 917b 633c 0fa6 f9bc 5d83 b93c
00000120: 1f93 aebc c443 3d3d 76ee a23c 3bfa 68bd
00000130: 3812 083d 91d1 4d3d 53a8 e7bc d50d bcbd
00000140: 2ee3 3c3d c122 8dbd 27ee 93bd 71e9 343d
00000150: 018f aabd 5c70 cbbb c0af 91bd e990 e6bc
00000160: eb1a 75bd 352e 803d 3987 c13b df49 c1bd
00000170: 778c a73d 28f7 3b3d 25f1 9f3d 2152 cf3d
00000180: 3fc7 8fbb 7fb7 67bd b26b a03c 6736 083c
00000190: ccc0 893c f8dd 6cbc a427 843b dcd8 533d
000001a0: b8fc eebb 69e6 9ebd d51e fe3b 4e7e 24bc
000001b0: fd74 6abd 3d70 223d 6083 893d 93f5 5dbc
000001c0: e55a 023c 06ab 50bd ec63 883c 31d5 a53d
000001d0: f09f e93d 6240 dc3c 1c1f f5bb bcb0 a3bd
000001e0: 6a93 1abc d8cf 6c3c 63b1 ad3d 37e7 f6bc
000001f0: 5316 c33c 0a59 05bd dace a03a 98fa d7bc
00000200: 35d5 f9ba 28d4 5cbd d39f 133d 850e 28bd
00000210: 76f2 aebc 89f4 b7bc 075b e53d a6c3 403c
00000220: d4e7 54bd a623 2bbe 0795 b6bc a699 96bc
00000230: 6c5c ce3c c23c 733c 895d 5d3c 1d9a b6bd
00000240: 2d43 63bb 2468 24bd 445b 903d 158d 67bd
00000250: d1b7 4e3d 20da ad3c d589 e1bb 2913 d0bd
00000260: c301 17bd 05cd b7bc 5500 8fbd 8a89 843d
00000270: 0cbf b63c a555 3d3d ff6c bf3b 8451 97bc
00000280: f579 45bd 59e3 abbc 931b aebc 3819 0fbd
00000290: baf8 a53d 9f9a 823c 3390 97bd 9fd6 8b3c
000002a0: 1540 4bbd 4585 e63c c2f7 aebb 7695 0bbd
000002b0: 3554 dbbc 3739 433c 2a2b 973d 0303 40bd
000002c0: e4a5 683c 58c1 bfbd 64d3 06bd 606b bf3d
000002d0: aad9 90bd bdd4 7dbc 1ffa 83b9 b919 4cbb
000002e0: 0b71 b4bd b9de 30bd 8bf3 943a d7ab 8f3c
000002f0: b3d6 07be 295b 2abd 3890 b63d 9835 e53d
00000300: e993 2a3c f812 e7bc 7fa5 31be 424e e23c
00000310: 57b3 5bbc 43b4 803d 2c1b 3d3c 9167 1fbd
00000320: 6d04 b9bc fc53 3abc 3de2 23bd 0cb6 783c
00000330: 8ceb 3d3d c5b6 70bd 6cea 41bb 4260 8c3d
00000340: 8987 09bd c9b4 4f3d e548 cbbc 701f 3c3b
00000350: 4846 67bd 69c3 89bc 273b c8bc ffe5 533c
00000360: 07b5 05bd e1b9 5e3d 8266 dcbd 68a8 c83c
00000370: b4fd 143d d63a ddbd 6ef5 693c 9dfc 273b
00000380: 89e7 043d 2607 e8bc 031a c43c 70d2 5dbc
00000390: d9f0 fc3d a6db dbbd fb5d aebd aa6c b03b
000003a0: 8d91 e13c a5c8 49bc 01b0 003d 43ee 81bd
000003b0: 9e97 5b3d 58da 88bb 58b3 9d3d bd15 fdbc
000003c0: 9e83 1c3d 464d 85bc d99a e03c af25 9abb
000003d0: b626 333d 1a82 5ebd e1fe 573d c94a 03bd
000003e0: 5a27 7bbd f9d3 dabc ff10 a3bd 092f 9f3d
000003f0: ceb8 32bd ec8e 6fbd 812c 83bd 3a3a 8cbc

src_mlp.weight f4 [128, 256]
-0.009514446 0.011620285 0.009691147 -0.054686952 -0.0050481795 -0.1129996 0.0047645424 0.0039837807
0.01418499 -0.038052026 0.012750241 0.0107572405 -0.016256053 -0.018427936 -0.008582695 -0.021199547
-0.023462974 -0.03382679 0.0023853555 0.010030068 -0.017575433 -0.018209497 -0.019733952 0.015715286
0.035121966 -0.056187227 -0.025693113 -0.007622879 0.009930511 0.0028792531 -0.009808136 0.005912552
0.0012053103 -0.03886739 -0.014378448 -0.03334527 -0.036878478 -0.032414284 -0.016559951 -0.07299916
0.0025370882 -0.07772025 0.07422653 0.0039486825 -0.044886477 -0.018763337 0.09238775 -0.26013356
-0.006679667 -0.009964803 -0.016176827 0.0141441105 0.00032874622 0.012824365 -0.011709455 0.07356528
-0.0042887344 0.008068655 -0.023296408 -0.026051506 0.021479849 0.010660875 0.010093572 -0.007870387
0.004007989 0.06523129 0.09552884 -0.006994074 0.010244954 -0.05204709 0.009600911 -0.018716034
0.016587535 0.0001695139 -0.022671374 -0.00018914211 -0.028971843 -0.03156731 0.01538541 -0.009953202
-0.07939555 -0.015530001 0.011717139 -0.075805396 0.031329833 -0.008036721 -0.1676226 0.014968964
-0.0016386929 -0.036056563 0.025067065 -0.0047094766 7.762135e-05 0.030245777 -0.016255995 -0.0038270142
-0.012839757 -0.029773388 0.0050025666 0.018892203 -0.03189239 0.048254758 0.006518577 -0.02442343
-0.007943975 0.010635377 -0.02005063 -0.0026464162 -0.017597178 -0.021503983 -0.010534829 -0.010728324
0.109934025 -0.0151130315 -0.025262633 0.02169672 -0.013154976 -0.02926692 -0.023063501 -0.017958716
0.017887626 0.0038652304 -0.005904258 -0.05059181 -0.13114335 -0.10639129 -1.0866452 0.002018842
-0.03009409 -0.09078768 0.016715236 0.009703409 -0.010443 -0.038963884 -0.030100157 -0.0043969937
-0.025107441 -0.07422862 -0.0032820904 0.065940216 -0.077956475 0.013856853 -0.015088257 -0.0003598263
-0.09502325 0.015267926 -0.026053946 0.011897625 0.00823463 -0.019997058 0.001588061 0.007464117
-0.0011485165 0.03238259 -0.042515263 -0.05322708 0.03837544 -0.054618392 0.01364307 0.012227221
-0.00933366 -0.03133967 -0.016983718 -0.06926436 -0.020773081 0.0039421422 0.023193805 0.010566564
0.028557187 -0.0139063345 -0.025076382 -0.022139236 0.009527849 -0.0031194228 -0.10897591 -0.019288544
-0.02887096 -0.01707907 -0.024584612 -0.030420423 0.008656679 0.0003936992 -0.029039834 0.027748313
-0.003798805 -0.039185982 -0.009928289 -0.009301982 -0.010861417 -0.018771172 -0.0062779877 0.0153134875
-0.030663611 0.010242221 0.011057665 -0.006656076 -0.009833541 -0.10627873 -0.0023596694 0.0073933657
-0.010074064 -0.0047101458 -0.010047251 -0.012660838 0.0028251705 0.011964795 0.006105671 -0.0049431203
0.016479984 -0.0013317219 0.011653444 -0.028840002 -0.026803743 0.0146034695 0.019011626 -0.041315097
0.018148087 -0.03569033 -0.02939345 -0.021678451 0.013604462 -0.14176689 -0.010855322 0.017212404
-0.034823578 -0.040575337 -0.018596658 -0.0319727 -0.03797517 -0.012267109 -0.018757699 -0.024051098
0.028663682 -0.04634921 -0.18682772 0.02039301 -0.0018141373 0.017789103 -0.009721156 -0.033516347
-0.01849039 -0.007958493 -0.011688026 -0.028240547 0.0020615726 -0.044338845 0.01877452 -0.002817851
-0.056506645 -0.0007220262 0.01513241 -0.0136686405 0.020878734 -0.013578659 -0.022759387 -0.035568543
00000000: 7be2 1bbc 0263 3e3c 9ec7 1e3c 6dff 5fbd
00000010: 336b a5bb 566c e7bd e11f 9c3b 608a 823b
00000020: 2968 683c 71dc 1bbd 63e6 503c 233f 303c
00000030: 6a2b 85bc 2ff6 96bc 6f9e 0cbc acaa adbc
00000040: 6c35 c0bc f68d 0abd a053 1c3b 2855 243c
00000050: 5bfa 8fbc 152c 95bc 19a9 a1bc 58bd 803c
00000060: 0ddc 0f3d 9424 66bd 5d7a d2bc 58c9 f9bb
00000070: 95b3 223c dab1 3c3b 4eb2 20bc 15be c13b
00000080: 81fb 9d3a 6a33 1fbd 9593 6bbc 0d95 08bd
00000090: e30d 17bd d7c4 04bd bca8 87bc 9580 95bd
000000a0: 4745 263b cb2b 9fbd 1404 983d f363 813b
000000b0: e2da 37bd 92b5 99bc ca35 bd3d 3a30 85be
000000c0: 1ce1 dabb 6a43 23bc 4485 84bc b3bc 673c
000000d0: 925b ac39 491d 523c 04d9 3fbc 65a9 963d
000000e0: 8388 8cbb 6432 043c 1cd8 bebc f869 d5bc
000000f0: 82f6 af3c f3aa 2e3c 825f 253c ccf2 00bc
00000100: 7355 833b fc97 853d a0a4 c33d 8c2e e5bb
00000110: 74da 273c 542f 55bd 244d 1d3c 5e52 99bc
00000120: 95e2 873c 8bbf 3139 51b9 b9bc 7354 46b9
00000130: 5c56 edbc b94c 01bd 1613 7c3c c112 23bc
00000140: 229a a2bd 8c71 7ebc 3ef9 3f3c dc3f 9bbd
00000150: b653 003d 73ac 03bc 42a5 2bbe 6340 753c
00000160: 69c9 d6ba 0cb0 13bd 7259 cd3c f451 9abb
00000170: a5c8 a238 fec5 f73c 4b2b 85bc a5ce 7abb
00000180: d85d 52bc 52e7 f3bc 92ec a33b d2c3 9a3c
00000190: 98a1 02bd c8a6 453d ca99 d53b a513 c8bc
000001a0: 7227 02bc 0140 2e3c 3841 a4bc 7f6f 2dbb
000001b0: f527 90bc 1f29 b0bc 479a 2cbc dac5 2fbc
000001c0: 1725 e13d a69c 77bc 95f3 cebc 52bd b13c
000001d0: f887 57bc 2ec1 efbc abef bcbc 281e 93bc
000001e0: 1289 923c ce4f 7d3b 8278 c1bb 5c39 4fbd
000001f0: 714a 06be ade3 d9bd 3117 8bbf 8c4e 043b
00000200: e287 f6bc e4ee b9bd 64ee 883c 0cfb 1e3c
00000210: 1e19 2bbc 9898 1fbd 9b94 f6bc a814 90bb
00000220: 1fae cdbc 2d05 98bd 5718 57bb aa0b 873d
00000230: a5a7 9fbd db07 633c bd34 77bc 12a7 bcb9
00000240: 8d9b c2bd 5326 7a3c 166f d5bc 42ee 423c
00000250: 8bea 063c dfd0 a3bc 7c26 d03a 8d95 f43b
00000260: d289 96ba 9ba3 043d 7c24 2ebd a304 5abd
00000270: 912f 1d3d 89b7 5fbd 2f87 5f3c af54 483c
00000280: 35ec 18bc 075e 00bd 7021 8bbc 79da 8dbd
00000290: 4f2c aabc 162d 813b ef00 be3c 621f 2d3c
000002a0: c3f0 e93c 65d7 63bc fc6c cdbc 585d b5bc
000002b0: b21a 1c3c 3b6f 4cbb c32e dfbd 0203 9ebc
000002c0: cb82 ecbc 68e9 8bbc ab65 c9bc 4034 f9bc
000002d0: bed4 0d3c 6a69 ce39 f2e4 edbc 6e50 e33c
000002e0: 5ff5 78bb 7b81 20bd 43aa 22bc 5767 18bc
000002f0: 16f4 31bc 00c6 99bc 94b7 cdbb 6ce5 7a3c
00000300: 4132 fbbc fdce 273c 352b 353c 361b dabb
00000310: dc1c 21bc aaa8 d9bd afa4 1abb 0c44 f23b
00000320: b00d 25bc 9157 9abb 3a9d 24bc 676f 4fbc
00000330: 7f26 393b fd07 443c 1512 c83b e6f9 a1bb
00000340: 0801 873c 2c8d aeba 16ee 3e3c de41 ecbc
00000350: 8693 dbbc 6443 6f3c 45be 9b3c 053a 29bd
00000360: 4cab 943c 0630 12bd 88ca f0bc 0297 b1bc
00000370: 40e5 5e3c 572b 11be 85da 31bc 0701 8d3c
00000380: 2ba3 0ebd 5332 26bd 0558 98bc cef5 02bd
00000390: da8b 1bbd fcfb 48bc bfa9 99bc cf06 c5bc
000003a0: 19d0 ea3c abd8 3dbd c44f 3fbe 3e0f a73c
000003b0: 59c8 edba 74ba 913c 7c45 1fbc 7048 09bd
000003c0: 2979 97bc 5764 02bc 227f 3fbc b858 e7bc
000003d0: 731b 073b a69c 35bd 06cd 993c b2ab 38bb
000003e0: 8373 67bd 5c46 3dba eeed 773c 6ff2 5fbc
000003f0: e109 ab3c 0679 5ebc e571 babc 52b0 11bd

src_mlp.bias f4 [128]
0.02417173 -0.028104302 -0.26507065 -0.10751592 0.015230246 0.31364757 -0.028962838 -0.15748021
-0.0113558015 -0.18739465 0.015937 -0.007770254 -0.0053162333 0.03443395 0.14641403 -0.4470475
-0.00945373 -0.09204133 -0.32262874 -0.018366495 -0.021236725 -0.20173071 -0.059162326 0.103681035
0.010040846 -0.07811166 0.12883566 -0.35130224 -0.029971313 -0.03270469 0.4518504 -0.025107345
-0.1574105 0.40928078 0.018418564 -0.2610229 -0.04436709 0.23588857 -0.017278066 -0.009433256
-0.08348094 -0.02383937 -0.008244184 0.618552 -0.06668024 -0.042809494 0.047092967 -0.033034846
0.024631092 -0.027573029 0.27984264 -0.1842117 0.039424066 -0.33897826 0.002644218 -0.15395722
-0.09883828 -0.05598909 -0.25582916 0.32547778 0.009065664 -0.1759637 -0.05073209 -0.13874356
-0.09903664 -0.014271718 0.5190724 0.0058277217 0.029665576 -0.16440646 0.15463194 -0.11449175
-0.02216942 -0.04824477 -0.044573084 -0.015234031 -0.05119457 -0.00043175966 -0.13616483 -0.08601231
-0.15834291 -0.18824382 -0.02971578 -0.10185758 -0.2979062 -0.004936951 -0.06452738 -0.19163775
0.05466245 0.11277035 -0.025100762 -0.15440129 -0.056756053 0.5047669 -0.0060546636 -0.20049305
0.17770404 -0.07112561 -0.01527244 0.75129396 -0.24400002 -0.13195819 -0.43148327 -0.13342042
-0.49049008 -0.020449482 -0.1555055 0.12836635 0.094018884 0.11643908 -0.024503607 -0.04593514
0.06924313 -0.27530754 -0.097405374 1.013145 -0.14538744 0.010197246 -0.06570772 0.41149232
0.1396262 -0.105688915 0.004751484 -0.08199362 -0.3375627 -0.1945267 0.059900004 -0.022987127
00000000: cb03 c63c fe3a e6bc 57b7 87be 4f31 dcbd
00000010: 4888 793c 6a96 a03e 7943 edbc 7e42 21be
00000020: af0d 3abc 62e4 3fbe 508e 823c 9d9d febb
00000030: cc33 aebb 9d0a 0d3d 8fed 153e 69e3 e4be
00000040: d1e3 1abc 2a80 bcbd 982f a5be 5575 96bc
00000050: a4f8 adbc 7f92 4ebe 3254 72bd b956 d43d
00000060: 5c82 243c 02f9 9fbd 7fed 033e e3dd b3be
00000070: 6686 f5bc 5af5 05bd f058 e73e ebad cdbc
00000080: 3830 21be 408d d13e 87e2 963c cba4 85be
00000090: 44ba 35bd c68c 713e bb8a 8dbc f28d 1abc
000000a0: 0ef8 aabd c84a c3bc 9d12 07bc 6d59 1e3f
000000b0: a68f 88bd 0259 2fbd 8ee4 403d 8c4f 07bd
000000c0: 25c7 c93c d5e0 e1bc 8947 8f3e fea1 3cbe
000000d0: 217b 213d 8f8e adbe 9e4a 2d3b f6a6 1dbe
000000e0: b96b cabd d154 65bd 0afc 82be 06a5 a63e
000000f0: 2788 143c d42f 34be 74cc 4fbd cb12 0ebe
00000100: b9d3 cabd edd3 69bc eee1 043f 79f6 be3b
00000110: 3905 f33c 2b5a 28be d657 1e3e a77a eabd
00000120: a59c b5bc 4f9c 45bd 4492 36bd 2898 79bc
00000130: 66b1 51bd cd5d e2b9 cb6e 0bbe 3927 b0bd
00000140: a524 22be fdc2 40be 826e f3bc b59a d0bd
00000150: 2987 98be 26c6 a1bb ee26 84bd b03c 44be
00000160: bce5 5f3d 24f4 e63d 1da0 cdbc 5f1b 1ebe
00000170: 0979 68bd 6738 013f 3366 c6bb 0d4e 4dbe
00000180: 0cf8 353e 4eaa 91bd 4239 7abc cd54 403f
00000190: 24db 79be 0c20 07be 60eb dcbe 5d9f 08be
000001a0: 8421 fbbe ac85 a7bc d53c 1fbe 7872 033e
000001b0: f98c c03d 9d77 ee3d cabb c8bc 7c26 3cbd
000001c0: 58cf 8d3d 1cf5 8cbe 787c c7bd bcae 813f
000001d0: 72e0 14be 5a12 273c c591 86bd 1faf d23e
000001e0: 2cfa 0e3e 6e73 d8bd 56b2 9b3b 45ec a7bd
000001f0: 05d5 acbe 0232 47be b559 753d 804f bcbc

dst_mlp.weight f4 [128, 256]
-0.00040170611 -0.013329541 -0.020349337 0.008670702 0.009163037 0.061193764 0.07354832 0.019578276
-0.17019904 0.016390799 -0.02100657 -0.0033064017 0.005802333 -0.0032225274 -0.020342952 -0.007354142
0.00792995 -0.01728172 0.002899375 0.021413311 0.0011449641 -0.011649805 0.021249201 -0.0012829379
-0.027914295 -0.009450492 0.024001662 0.025601642 -0.009491671 -0.0074368212 0.0015098853 -0.0076376293
0.00989408 0.015609926 0.03584458 0.036904596 -0.0024236927 0.010734813 0.005822746 0.01469809
0.009225657 0.026426217 -0.02006792 -0.020014679 0.15573792 0.0025437826 0.010382041 0.2549087
0.00536753 0.013807273 0.08122121 0.0091267815 0.00451015 -0.00045176633 0.012188943 0.0809679
0.00021015527 0.03308674 -0.009852292 -0.01728702 0.007198605 0.049663685 -0.03413038 0.022367917
0.0039080502 0.19823073 0.004407837 -0.0070139314 -0.03605533 0.029783038 0.010741846 0.0066938037
0.02372139 0.024935756 0.007483815 -0.15423718 0.017014647 0.009452485 0.008974611 -0.0013891651
-0.081462175 -0.012437761 0.0065699224 0.032431763 0.03846395 0.019346016 0.14302883 0.021615367
-0.00708451 0.0015426475 -0.0023991864 -0.0040505608 0.013384535 0.010031503 0.010785397 -0.0031179872
0.0063202456 0.023410933 -0.11552598 0.016571358 0.02491683 -0.005356503 -0.011672221 0.03240136
0.006069687 0.0147553235 -0.0067833606 -0.016230932 0.024662735 -0.004514607 -0.0072238934 -0.03967366
-0.15608834 0.018205015 -0.013174137 0.032576874 0.049048983 0.013440683 0.023704128 -0.011611163
-0.018080564 0.017074851 -0.026895532 0.047396276 0.103059776 0.056795362 0.47478595 0.016641103
0.03265906 0.008978482 0.0073967767 -0.013416872 0.027870348 0.0023046476 -0.0011868796 0.0026493699
-0.019761207 -0.017042162 -0.009056605 0.15587991 -0.025393698 -0.0046762726 -0.0018358255 0.006946087
0.017375058 0.0073150364 0.020362392 0.027606133 0.009488234 -0.002460716 0.08505003 0.003661366
-0.009591697 -0.0053796554 0.033606246 0.02810045 0.040337566 -0.020230897 0.012533357 0.0022512209
0.018937143 0.014470433 0.019110532 0.008071462 0.0005535472 0.027191166 0.02291913 -0.029820923
0.021411702 -0.02166407 0.062347062 -0.0051883203 -0.013010942 -0.010530024 -0.05157222 0.017658649
0.0031318194 -0.0020514699 0.0016401953 0.004882484 0.0036363618 0.019787475 0.0014360267 -0.012958034
0.03003748 0.0321527 0.016423842 0.015004323 0.0008782417 0.017153023 0.029763041 0.048555274
-0.02598795 0.0046157707 0.028035507 0.002917237 0.007985067 -0.08606811 -0.00981231 0.0014531333
-0.0028822103 -0.014804395 0.022485234 0.0035297535 -0.0037030627 -0.014996767 -0.01798748 -0.08925985
-0.01071333 0.0077364338 -0.013551256 0.020228583 0.017206088 0.010752681 -0.0010095428 0.094914414
0.0431814 -0.0042209905 0.016779393 0.0023931828 0.021352489 0.09805314 0.058889426 -0.057928562
-0.021431386 0.021834292 -0.010278221 0.011475128 -0.0021549908 0.015245082 0.029430298 0.037267145
-0.00024620665 -0.012567302 -0.18597072 -0.004645717 0.0046759807 -0.017894737 -0.012969957 -0.0030691929
-0.026073067 -0.0020124025 -0.0049239234 0.038665086 0.00748377 -0.016453953 0.016861415 0.005559633
-0.008183558 0.024438305 0.014549431 0.027476268 0.07442318 0.041279815 0.021611296 0.0041179433
00000000: 159c d2b9 2664 5abc a7b3 a6bc 8f0f 0e3c
00000010: 9020 163c 50a6 7a3d 80a0 963d 9f62 a03c
00000020: a848 2ebe ff45 863c f815 acbc 37b0 58bb
00000030: 7f21 be3b 0a31 53bb 43a6 a6bc 04fb f0bb
00000040: 9fec 013c 6592 8dbc 7103 3e3b f86a af3c
00000050: 9f12 963a d3de 3ebc ce12 ae3c 4128 a8ba
00000060: 85ac e4bc 3dd6 1abc 229f c43c 89ba d13c
00000070: f482 1bbc 94b0 f3bb 58e7 c53a 1445 fabb
00000080: c81a 223c c6c0 7f3c c4d1 123d 4629 173d
00000090: d1d6 1ebb 12e1 2f3c bccc be3b 42d0 703c
000000a0: 3627 173c cb7b d83c 7b65 a4bc d3f5 a3bc
000000b0: c379 1f3e 97b5 263b 7019 2a3c 6583 823e
000000c0: 1be2 af3b e637 623c 4e57 a63d 7f88 153c
000000d0: e1c9 933b 0ddb ecb9 22b4 473c 80d2 a53d
000000e0: 205d 5c39 f685 073d 826b 21bc 829d 8dbc
000000f0: 47e2 eb3b 266c 4b3d 4ccc 0bbd ec3c b73c
00000100: 1a0f 803b fffc 4a3e 9e6f 903b 1fd5 e5bb
00000110: c1ae 13bd 8ffb f33c 91fe 2f3c b257 db3b
00000120: 5c53 c23c 1246 cc3c ca3a f53b 5af0 1dbe
00000130: 4d62 8b3c 98de 1a3c 3f0a 133c a514 b6ba
00000140: a4d5 a6bd c0c7 4bbc 8148 d73b 2bd7 043d
00000150: 608c 1d3d 897b 9e3c 2676 123e b612 b13c
00000160: 2d25 e8bb a932 ca3a ab3b 1dbb 91ba 84bb
00000170: cf4a 5b3c 2c5b 243c 3cb5 303c 2557 4cbb
00000180: 101a cf3b 49c8 bf3c e398 ecbd a8c0 873c
00000190: 611e cc3c 9b85 afbb d83c 3fbc 4ab7 043d
000001a0: 3ae4 c63b 50c0 713c f446 debb bbf6 84bc
000001b0: 8109 ca3c 45ef 93bb 69b6 ecbb d980 22bd
000001c0: 9fd5 1fbe af22 953c 56d8 57bc 546f 053d
000001d0: 96e7 483d 4f36 5c3c 292f c23c bf3c 3ebc
000001e0: b11d 94bc 8fe0 8b3c 0554 dcbc 9922 423d
000001f0: 0111 d33d 41a2 683d 2517 f33e ec52 883c
00000200: 82c5 053d 7c1a 133c a960 f23b 71d2 5bbc
00000210: 5b50 e43c 9209 173b 1291 9bba 0da1 2d3b
00000220: 41e2 a1bc 019c 8bbc 2862 14bc fc9e 1f3e
00000230: 7206 d0bc 6b3b 99bb 15a0 f0ba 009c e33b
00000240: 2356 8e3c f9b2 ef3b 08cf a63c 4226 e23c
00000250: 8a74 1b3c f743 21bb b62e ae3d 87f3 6f3b
00000260: 7e26 1dbc d247 b0bb b4a6 093d ea32 e63c
00000270: 0139 253d 44bb a5bc b658 4d3c 3889 133b
00000280: 1122 9b3c 6515 6d3c b18d 9c3c 2a3e 043c
00000290: ec1b 113a 02c0 de3c e6c0 bb3c 024b f4bc
000002a0: 9867 af3c d978 b1bc a25f 7f3d c902 aabb
000002b0: d92b 55bc 1f86 2cbc 643d 53bd dfa8 903c
000002c0: 363f 4d3b f471 06bb d2fb d63a 3ffd 9f3b
000002d0: 0750 6e3b 5819 a23c 0f39 bc3a ef4d 54bc
000002e0: 2911 f63c 8db2 033d 4b8b 863c b1d4 753c
000002f0: ce39 663a 7f84 8c3c 9fd1 f33c e5e1 463d
00000300: aee4 d4bc e43f 973b b8aa e53c 1e2f 3f3b
00000310: ccd3 023c 7a44 b0bd d0c3 20bc 1077 be3a
00000320: 77e3 3cbb 228e 72bc f432 b83c 7053 673b
00000330: 15af 72bb 00b5 75bc 7b5a 93bc decd b6bd
00000340: f686 2fbc e981 fd3b 1606 5ebc 6ab6 a53c
00000350: c8f3 8c3c 032c 303c a352 84ba 7d62 c23d
00000360: fbde 303d 3c50 8abb f074 893c f2d6 1c3b
00000370: 6aeb ae3c 16d0 c83d 0a36 713d 8046 6dbd
00000380: e090 afbc d4dd b23c fc65 28bc 2d02 3c3c
00000390: bf3a 0dbb 82c6 793c cf17 f13c 6fa5 183d
000003a0: 4c15 81b9 16e7 4dbc 1c6f 3ebe 193b 98bb
000003b0: f838 993b fc97 92bc f17f 54bc 8324 49bb
000003c0: 2f97 d5bc 83e2 03bb dd58 a1bb 485f 1e3d
000003d0: 6a3a f53b 71ca 86bc f320 8a3c 952d b63b
000003e0: 5414 06bc d732 c83c bd60 6e3c e915 e13c
000003f0: 2e6b 983d 0615 293d 2c0a b13c d0ef 863b
