checkpoint/vox_cp20_epoch250.pth (torch, 602761 bytes, 15 tensors)

conv.0.bias f4 [1, 256]
-0.37597936 -0.4922202 -0.18588953 -0.37277678 -0.40477028 -0.43025962 -0.18399937 -0.1534179
-0.2338817 -0.4194343 -0.26884353 -0.09533279 -0.30879793 -0.30263117 -0.23429741 -0.5877728
-0.19552837 -0.3170395 -0.32321206 -0.53059787 -0.48210463 -0.24748944 -0.42763868 -0.3607739
-0.7544771 -0.44594795 -0.34619874 -0.15906554 -0.3257494 -0.33116832 -0.041275945 -0.17835917
-0.3648758 -0.48135018 -0.23929556 -0.2430054 -0.46993285 -0.14099033 -0.3984727 -0.30332682
-0.35610795 -0.08764595 -0.45638037 -0.1398491 -0.29356977 -0.15284126 -0.25421345 -0.20586272
-0.11700764 -0.20759264 -0.28649437 -0.34492895 -0.28189895 -0.4988097 -0.21519685 -0.37016502
-0.23991087 -0.29950002 -0.1337957 -0.3874837 -0.21590418 -0.19263603 -0.13959159 -0.4596765
-0.19079125 -0.5791503 -0.27712485 -0.38995132 -0.53789145 -0.110006 -0.34172314 -0.3643546
-0.51352465 -0.1453155 -0.54494387 -0.25837368 -0.17233904 -0.27968717 -0.19782439 -0.2072275
-0.4944387 -0.40417716 -0.18204841 -0.23651522 -0.30776662 -0.26218554 -0.2552046 -0.36422312
-0.20310318 -0.11335854 -0.24081227 -0.29899496 -0.21155216 -0.21772863 -0.3704452 -0.36280495
-0.47247413 -0.6172066 -0.6540906 -0.16397332 -0.18213572 -0.21912625 -0.36720738 -0.17852508
-0.32977876 -0.123883106 -0.13521905 -0.3777718 -0.33055744 -0.42409647 -0.3598669 -0.30082244
-0.35416877 -0.33266795 -0.35716397 -0.2751051 -0.36928323 -0.37805894 -0.21617465 -0.36174592
-0.19829552 -0.48362938 -0.35463154 -0.2786281 -0.14178538 -0.18219198 -0.14240278 -0.18401463
-0.26583016 -0.3430376 -0.46603072 -0.1661021 -0.21481061 -0.6232854 -0.30696172 -0.34916502
-0.2274788 -0.1780589 -0.44785282 -0.13735805 -0.1843601 -0.5014396 -0.23014838 -0.18520677
-0.24447033 -0.4915883 -0.255426 -0.5571152 -0.4922173 -0.4897154 -0.5779994 -0.14552224
-0.25699654 -0.35769442 -0.24819234 -0.2250444 -0.53630245 -0.24946299 -0.20019047 -0.18781453
-0.21208787 -0.22026806 -0.28081688 -0.29402122 -0.38978305 -0.12860844 -0.6078241 -0.29507238
-0.24670655 -0.1473555 -0.20337982 -0.1745997 -0.4406347 -0.25134546 -0.42817745 -0.40268356
-0.0560228 -0.23948894 -0.1306227 -0.31468758 -0.6597122 -0.16160272 -0.19298793 -0.20731413
-0.31143355 -0.27019066 -0.31564873 -0.18348289 -0.15832059 -0.11628949 -0.24465553 -0.14969803
-0.2289603 -0.39933696 -0.14068806 -0.25020114 -0.37079972 -0.1882242 -0.44218212 -0.1779572
-0.3761843 -0.2647824 -0.4673719 -0.22116132 -0.60433626 -0.10550009 -0.15335743 -0.1829476
-0.18652275 -0.007890296 -0.36499238 -0.30190113 -0.24755715 -0.3003443 -0.15493111 -0.34566608
-0.82062435 -0.17021723 -0.5165403 -0.90917546 -0.4952235 -0.07377765 -0.44466472 -0.59084654
-0.13363181 -0.21014982 -0.37934944 -0.32692093 -0.2101195 -0.4498075 -0.20412801 -0.26956466
-0.31906372 -0.12840413 -0.3897669 -0.24167204 -0.20010038 -0.26729435 -0.6390136 -0.41427192
-0.5172251 -0.17333095 -0.12019932 -0.093358815 -0.050398566 -0.10546737 -0.062542364 -0.14834176
-0.23130463 -0.2982192 -0.31064025 -0.267264 -0.29323825 -0.30676627 -0.18656173 -0.2992196
00000000: 5e80 c0be 4904 fcbe d359 3ebe 99dc bebe
00000010: 0d3e cfbe fd4a dcbe 556a 3cbe 9519 1dbe
00000020: af7e 6fbe 18c0 d6be dca5 89be d63d c3bd
00000030: c31a 9ebe 79f2 9abe a9eb 6fbe 4778 16bf
00000040: 9738 48be 0053 a2be 0d7c a5be 43d5 07bf
00000050: 6bd6 f6be df6d 7dbe 75f3 dabe 5bb7 b8be
00000060: 6925 41bf 4a53 e4be f640 b1be 14e2 22be
00000070: a0c8 a6be e58e a9be f710 29bd c9a3 36be
00000080: 00d1 babe 8873 f6be e509 75be 68d6 78be
00000090: 0a9b f0be c55f 10be 9d04 ccbe a74d 9bbe
000000a0: c853 b6be b87f b3bd b0aa e9be 9a34 0fbe
000000b0: c74e 96be 6b82 1cbe 4428 82be adcd 52be
000000c0: b4a1 efbd 2a93 54be 64af 92be 879a b0be
000000d0: 0f55 90be fc63 ffbe 905c 5cbe 4586 bdbe
000000e0: 32ab 75be 1158 99be bd01 09be 4364 c6be
000000f0: fc15 5dbe 6142 45be 19f1 0ebe b85a ebbe
00000100: c85e 43be 3243 14bf 4fe3 8dbe b3a7 c7be
00000110: 41b3 09bf d34a e1bd 56f6 aebe b08c babe
00000120: 5a76 03bf 96cd 14be 7181 0bbf 8e49 84be
00000130: a579 30be 2833 8fbe 7a92 4abe 7233 54be
00000140: 1227 fdbe 4ff0 cebe e66a 3abe 0c31 72be
00000150: 9693 9dbe 2f3d 86be 2daa 82be 747b babe
00000160: 48fa 4fbe 8628 e8bd 7e97 76be de15 99be
00000170: 21a1 58be 41f4 5ebe feaa bdbe 92c1 b9be
00000180: 21e8 f1be 4001 1ebf 7b72 27bf 9fe8 27be
00000190: c981 3abe a262 60be 9b02 bcbe 47cf 36be
000001a0: c3d8 a8be 6db6 fdbd dd76 0abe 4e6b c1be
000001b0: d33e a9be 2c23 d9be 7940 b8be 6605 9abe
000001c0: 9c55 b5be 7453 aabe 32de b6be 93da 8cbe
000001d0: b112 bdbe f190 c1be e35c 5dbe c336 b9be
000001e0: fb0d 4bbe 459e f7be 4492 b5be 58a8 8ebe
000001f0: 3030 11be 8990 3abe 09d2 11be 556e 3cbe
00000200: e41a 88be a0a2 afbe 949b eebe ab16 2abe
00000210: 50f7 5bbe a28f 1fbf 162a 9dbe c2c5 b2be
00000220: 34f0 68be 1355 36be f74c e5be 97a7 0cbe
00000230: e5c8 3cbe 585e 00bf 04ac 6bbe d8a6 3dbe
00000240: 6e56 7abe 76b1 fbbe 32c7 82be 1a9f 0ebf
00000250: e803 fcbe fabb fabe c5f7 13bf c803 15be
00000260: 0d95 83be b923 b7be 2226 7ebe 0a72 66be
00000270: 1e4b 09bf 3a73 7fbe bbfe 4cbe 7452 40be
00000280: 902d 59be f38d 61be 3bc7 8fbe f389 96be
00000290: a591 c7be eeb1 03be 5c9a 1bbf ba13 97be
000002a0: a4a0 7cbe 5ce4 16be cd42 50be 44ca 32be
000002b0: df9a e1be 5ab0 80be 133a dbbe 8a2c cebe
000002c0: 2a78 65bd 973c 75be f5c1 05be bb1e a1be
000002d0: e6e2 28bf 2f7b 25be a19e 45be 284a 54be
000002e0: 3874 9fbe 6e56 8abe b69c a1be f0e2 3bbe
000002f0: cb1e 22be 2f29 eebd fb86 7abe 714a 19be
00000300: 9274 6abe e575 ccbe 8810 10be 5d1a 80be
00000310: 76d9 bdbe d8bd 40be b265 e2be 6a3a 36be
00000320: 3b9b c0be 8f91 87be 5f4b efbe 1d78 62be
00000330: c8b5 1abf 6e10 d8bd bb09 1dbe 9e56 3bbe
00000340: d2ff 3ebe 4d46 01bc 48e0 babe c992 9abe
00000350: 9f7f 7dbe bac6 99be 43a6 1ebe 25fb b0be
00000360: 7014 52bf 6d4d 2ebe fc3b 04bf b9bf 68bf
00000370: ef8d fdbe bd18 97bd 18ab e3be b841 17bf
00000380: c7d6 08be 8431 57be 173a c2be 2e62 a7be
00000390: 9129 57be 2b4d e6be ef06 51be 6104 8abe
000003a0: 525c a3be 5f7c 03be 878f c7be e078 77be
000003b0: 1de7 4cbe ceda 88be 6596 23bf 731b d4be
000003c0: dd68 04bf ab7d 31be 102b f6bd e832 bfbd
000003d0: ba6e 4ebd 47ff d7bd 3616 80bd e7e6 17be
000003e0: 1fdb 6cbe 30b0 98be 3d0c 9fbe d4d6 88be
000003f0: 5323 96be 7810 9dbe 0a0a 3fbe 5033 99be

conv.0.gcn_layer.attn_l f4 [1, 1, 256]
0.1224267 -0.3136827 0.7225247 -0.107477546 0.229799 0.32124677 0.15630545 -0.026519615
-0.039274216 0.42510915 -0.09257094 0.101233706 0.044297993 0.16533455 -0.0038835085 0.07894517
-0.19919002 -0.04202845 -0.25858742 0.007111964 0.052313577 -0.09149067 -0.30676672 0.2065998
0.42721242 -0.38738668 0.14747113 0.038076237 0.38112655 0.077570364 -0.17298685 0.042519137
-0.29484951 -0.17229457 0.023084229 -0.07236455 -0.1730524 0.26071998 -0.16627173 0.46956575
0.18113796 -0.20909634 -0.16152465 0.08389916 0.5560476 0.051017202 0.15728346 0.07781105
-0.423672 0.2770487 0.052025523 -0.110547826 0.45509577 -0.1785583 -0.19343689 0.23817405
0.10953508 -0.34812096 -0.0047652624 -0.2775397 -0.20408516 -0.07859806 0.031286594 0.13837813
0.08868595 0.21735387 -0.02365664 -0.13867909 -0.33538756 -0.11221525 0.0006927089 0.25492752
0.042978194 -0.25282213 0.040151257 0.10524987 0.40278968 0.16770014 -0.013550292 -0.015979216
0.023578063 -0.29250622 0.065406814 -0.14388789 0.02515233 0.06975449 0.10361626 -0.36176422
-0.20774001 -0.5955501 0.23419464 0.12068969 0.2524063 0.26063624 0.14287508 0.42649096
-0.38472363 0.06489878 -0.4145305 0.28201127 0.32712033 -0.19354708 -0.19282064 0.034630407
-0.4751716 -0.6834726 -0.14383312 -0.014110316 -0.16365424 0.088821396 -0.31226438 -0.37475687
0.11086674 0.15324713 -0.113926776 -0.086352944 0.17567496 -0.39781812 -0.51053894 -0.064545885
-0.25493616 0.14423685 -0.10030216 0.27077094 -0.022974053 0.09140342 -0.06473084 0.12301042
0.4111802 -0.018969864 0.13576616 -0.31638756 -0.034224425 0.028805088 0.22213879 -0.107116655
-0.11400064 0.085936934 -0.051656246 0.1978833 -0.20853062 -0.29585338 0.30699924 0.20631011
0.5667217 -0.13359793 -0.21145347 -0.08054858 -0.17601626 0.20161967 0.42957708 -0.24075058
-0.04486515 -0.022157438 -0.25626218 0.22206397 -0.2687821 0.26365224 -0.20174655 -0.042553835
0.26249385 -0.2400768 0.04520032 -0.29007253 -0.33431983 0.36113298 -0.16374305 0.2757068
0.29577222 0.09167429 -0.18708293 0.1073452 -0.36573312 0.094113186 -0.062302835 -0.004510648
-0.11755753 -0.18691397 -0.3590767 -0.1307489 -0.17547117 -0.031321336 0.008931798 -0.007208415
0.0046675606 -0.03183907 0.24436182 -0.017103782 0.09803033 -0.14333725 -0.0329208 0.03937462
0.101130426 0.34028235 0.21511154 -0.1548278 -0.3019538 0.15361302 0.19018756 0.18220524
-0.044547547 0.2982642 -0.20695217 0.10848879 0.09252596 0.2288589 0.2111122 -0.00891734
0.224967 0.13794729 -0.18546495 -0.21066183 -0.27334037 0.13654152 0.21495089 0.3864581
-0.22124559 0.064758025 0.5210989 0.13644838 -0.44342083 0.06527506 -0.13210188 -0.23518166
0.25322363 0.06883844 -0.008503347 0.085551724 0.03863459 -0.17279387 0.041150257 0.112569965
-0.2512771 0.046338182 -0.3522704 0.010168556 -0.0011896725 -0.046004195 0.0258258 0.26713204
-0.13762105 0.26193607 0.30052572 -0.06992353 0.10965101 -0.18749845 -0.18566331 -0.016207283
-0.3175536 -0.081364416 -0.08025936 0.1495304 -0.29245368 0.18923995 0.22884482 0.2223504
00000000: daba fa3d 059b a0be 61f7 383f 301d dcbd
00000010: 6e50 6b3e 757a a43e 890e 203e aa3f d9bc
00000020: 00de 20bd e8a7 d93e d595 bdbd 9e53 cf3d
00000030: d071 353d 764d 293e 7682 7ebb 01ae a13d
00000040: 78f8 4bbe 0626 2cbd 9265 84be 7a0b e93b
00000050: c346 563d 765f bbbd 8710 9dbe e68e 533e
00000060: 96bb da3e 8c57 c6be ac02 173e d4f5 1b3d
00000070: 0523 c33e 36dd 9e3d 7723 31be 8c28 2e3d
00000080: 84f6 96be fd6d 30be 231b bd3c dd33 94bd
00000090: a634 31be 177d 853e 2343 2abe ec6a f03e
000000a0: 3b7c 393e 5a1d 56be b866 25be 53d3 ab3d
000000b0: 2359 0e3f 6af7 503d ea0e 213e 665b 9f3d
000000c0: 89eb d8be 54d9 8d3e b718 553d e666 e2bd
000000d0: 5002 e93e fdd7 36be 5214 46be e6e3 733e
000000e0: ee53 e03d e93c b2be eb25 9cbb af19 8ebe
000000f0: b3fb 50be 05f8 a0bd 5f26 003d ffb2 0d3e
00000100: fba0 b53d 0392 5e3e 92cb c1bc e401 0ebe
00000110: ebb7 abbe 1cd1 e5bd e896 353a dc85 823e
00000120: e709 303d e771 81be a575 243d 3e8d d73d
00000130: 733a ce3e 96b9 2b3e 0b02 5ebc d8e6 82bc
00000140: c826 c13c 60c3 95be 02f4 853d 5957 13be
00000150: 420c ce3c 71db 8e3d c334 d43d 2939 b9be
00000160: ccb9 54be f975 18bf b8d0 6f3e 282c f73d
00000170: 663b 813e 1d72 853e d84d 123e 065d da3e
00000180: 7ffa c4be a7e9 843d 573d d4be c863 903e
00000190: 517c a73e 3531 46be c672 45be 9dd8 0d3d
000001a0: b149 f3be 0ff8 2ebf fd48 13be f42e 67bc
000001b0: fa94 27be fee7 b53d 1ee1 9fbe 22e0 bfbe
000001c0: 1a0e e33d d1ec 1c3e 7152 e9bd d0d9 b0bd
000001d0: 23e4 333e d1ae cbbe aeb2 02bf a230 84bd
000001e0: fe86 82be d3b2 133e 386b cdbd 7da2 8a3e
000001f0: 1534 bcbc b731 bb3d 9a91 84bd e3ec fb3d
00000200: 3686 d23e b066 9bbc 4906 0b3e 8dfd a1be
00000210: e92e 0cbd a6f8 eb3c 5a78 633e fa5f dbbd
00000220: 2b79 e9bd b4ff af3d 8095 53bd eba1 4a3e
00000230: 0d89 55be 187a 97be 012f 9d3e f542 533e
00000240: ac14 113f e5cd 08be 4287 58be a7f6 a4bd
00000250: 9b3d 34be 6375 4e3e 87f1 db3e 5287 76be
00000260: 85c4 37bd 8483 b5bc cc34 83be bd64 633e
00000270: cf9d 89be 6dfd 863e a696 4ebe ee4c 2ebd
00000280: 9865 863e b1d6 75be f923 393d 6384 94be
00000290: f82b abbe 6ce6 b83e 42ac 27be 7129 8d3e
000002a0: 756f 973e bbbf bb3d ab92 3fbe cdd7 db3d
000002b0: 5f41 bbbe 6abe c03d 4231 7fbd 0fce 93bb
000002c0: 01c2 f0bd 6066 3fbe e7d8 b7be 0ae3 05be
000002d0: b7ae 33be cd4a 00bd ad56 123c 9134 ecbb
000002e0: 56f2 983b af69 02bd fc39 7a3e 3b1d 8cbc
000002f0: 20c4 c83d 00c7 12be f6d7 06bd 4847 213d
00000300: 781d cf3d 7d39 ae3e 3346 5c3e 2e8b 1ebe
00000310: b099 9abe bb4c 1d3e 87c0 423e 0394 3a3e
00000320: 7d77 36bd 16b6 983e 45eb 53be 5f2f de3d
00000330: 407e bd3d fd59 6a3e cc2d 583e 091a 12bc
00000340: c05d 663e 0e42 0d3e 86ea 3dbe bcb7 57be
00000350: 45f3 8bbe 8ad1 0b3e 161c 5c3e d6dd c53e
00000360: 348e 62be db9f 843d bd66 053f 20b9 0b3e
00000370: 0e08 e3be eeae 853d b745 07be 76d3 70be
00000380: 87a6 813e 2bfb 8c3d 9f51 0bbc be35 af3d
00000390: 4e3f 1e3d e0f0 30be 2c8d 283d 158b e63d
000003a0: 64a7 80be 1bcd 3d3d c95c b4be 049a 263c
000003b0: c9ee 9bba e56e 3cbd a190 d33c 88c5 883e
000003c0: 88ec 0cbe 7c1c 863e 82de 993e 1134 8fbd
000003d0: b590 e03d 98ff 3fbe 861e 3ebe 23c5 84bc
000003e0: 6396 a2be 63a2 a6bd 055f a4bd 7f1e 193e
000003f0: 7dbc 95be 1ec8 413e 4c56 6a3e d3af 633e

conv.0.gcn_layer.attn_r f4 [1, 1, 256]
0.6731838 0.33738574 -0.1764444 1.0439793 0.5042977 -0.7919869 0.6015765 0.23218377
0.018745935 0.23245393 -0.12111325 -0.42218083 0.63204753 -0.3250151 -0.1071671 0.60366935
-1.192708 0.07653287 -0.13246241 0.33670276 0.47378498 -0.39783317 0.019744402 0.5842707
0.2335469 0.7771209 -0.018535607 0.13760288 0.16889186 -0.18312241 -0.16732065 -0.11217306
-0.4109461 0.97664577 -0.3390708 0.09872267 0.2885083 -0.28832775 -0.1516612 -0.06456325
0.014081604 -0.32617307 0.1434547 0.27539137 -0.53375 -0.21722995 -0.12686516 0.84624773
-0.16218847 0.3288431 -0.08861244 0.45839706 0.14492252 -0.25215426 -0.549301 0.041680507
-0.281077 0.21915223 0.80237174 -0.113387406 -0.54893905 0.21405108 0.21927048 0.17081891
0.012137629 -0.1108985 0.45014742 0.29849866 0.1549073 -0.3562612 -0.47080833 -0.07251308
0.13866723 -0.22027656 -0.8463243 0.3703495 0.49926412 -0.26919845 -0.24144064 0.17860726
0.7872773 0.19035749 -0.52574635 -0.21966116 0.112077385 0.33882278 -0.11003739 -0.29060957
0.28722584 -0.07896955 -0.74664575 -0.09260873 -0.15365143 0.018218787 0.447019 0.3974963
-0.42859945 0.044791017 -0.061026804 -0.034190025 0.2794714 -0.011686204 0.20966856 0.02026356
-0.045457322 0.8425529 -0.3364781 0.2299145 0.08024677 0.49271086 -0.7794546 0.736231
-0.3902224 0.248035 0.05915495 -0.09692671 -0.39964986 0.061801467 -0.38087463 -0.35098377
0.18067136 0.18326958 0.48066443 -0.12451961 0.8773456 -0.20831367 0.0152978515 0.008812347
-0.3072392 -0.30443048 -0.40249714 0.24601364 0.42728147 -0.48887745 0.106262974 -0.25192964
-0.35060346 -0.09894896 -0.5316763 -0.06996466 -0.19017947 -0.32094035 0.6438818 0.053756032
-0.076423526 -0.046726104 -0.5921302 0.40018538 0.8677556 -0.36865413 -0.10128995 -0.12227872
-0.4921845 -0.11325586 0.027182376 -0.4016787 0.020598037 -0.034303315 -0.0043083522 0.18905255
0.03714016 0.17208633 0.4991062 0.100337826 0.08497838 0.052529622 0.47377962 0.327399
0.74790746 0.41072112 0.14580487 0.013681292 0.5330446 -0.02897664 0.543274 0.40931556
0.12085135 0.12640636 -0.25469425 0.036352977 0.65099424 0.26683813 0.40541166 -0.17431861
0.1699708 -0.07086182 -0.3301451 0.30924207 -0.19841862 0.317538 -0.060355626 -0.763728
-0.15469877 0.17407832 -0.01828129 -0.29791304 0.7104088 0.13883787 -0.86063695 -0.10522447
0.9794355 0.26867923 0.4179692 -0.11494855 -0.23634753 -0.49404934 -0.43057072 0.16230097
-0.12538742 0.22850098 0.47542858 0.33603904 -0.22623977 0.12340139 0.20244928 0.05838837
0.16615549 0.30783293 -0.18257345 -0.46932712 0.015917981 -0.19133593 -0.45012674 0.106559314
0.04817997 0.5175532 -0.74505204 -0.023391612 0.44110316 0.10927599 0.46359548 0.0064270673
0.0055670347 0.015639924 -0.009642257 -0.20346758 0.19874026 0.034841012 0.4820566 0.27428806
-0.31487122 -0.110990256 0.21176487 -0.14426704 0.44037735 -0.114313826 -0.31523222 0.0082428185
-0.12767169 0.21588907 0.26366177 -0.10087818 -0.39548007 -0.43417865 0.17069429 0.27142134
00000000: c655 2c3f d3bd ac3e d7ad 34be 1da1 853f
00000010: a719 013f a7bf 4abf eb00 1a3f 95c1 6d3e
00000020: 1391 993c 6708 6e3e 390a f8bd 1628 d8be
00000030: decd 213f 6168 a6be 6d7a dbbd 138a 1a3f
00000040: a8aa 98bf 44bd 9c3d 3aa4 07be 4e64 ac3e
00000050: f293 f23e cab0 cbbe 03bf a13c c492 153f
00000060: eb26 6f3e 65f1 463f fcd7 97bc c5e7 0c3e
00000070: fdf1 2c3e 7184 3bbe 1b56 2bbe fdba e5bd
00000080: 8767 d2be 7505 7a3f b09a adbe 1c2f ca3d
00000090: 5cb7 933e b29f 93be 134d 1bbe bd39 84bd
000000a0: 87b6 663c 2800 a7be cae5 123e 1900 8d3e
000000b0: d7a3 08bf 8771 5ebe f1e8 01be b1a3 583f
000000c0: bc14 26be 1f5e a83e 707a b5bd 05b3 ea3e
000000d0: 9266 143e 5d1a 81be fe9e 0cbf 2eb9 2a3d
000000e0: 53e9 8fbe 7169 603e 3c68 4d3f a837 e8bd
000000f0: 4587 0cbf 3530 5b3e 7188 603e 27eb 2e3e
00000100: e8dc 463c c11e e3bd b979 e63e d1d4 983e
00000110: 05a0 1e3e de67 b6be ca0d f1be bd81 94bd
00000120: c8fe 0d3e 2e90 61be b6a8 58bf 739e bd3e
00000130: 8c9f ff3e 61d4 89be 373c 77be d2e4 363e
00000140: 018b 493f 13ed 423e 5097 06bf dbee 60be
00000150: d488 e53d 2e7a ad3e 485b e1bd c7ca 94be
00000160: 440f 933e caba a1bd 2d24 3fbf a5a9 bdbd
00000170: cd56 1dbe 913f 953c addf e43e a384 cb3e
00000180: 6371 dbbe c976 373d 3ef7 79bd d70a 0cbd
00000190: e016 8f3e 7e77 3fbc 5bb3 563e c4ff a53c
000001a0: 7531 3abd 8cb1 573f dc46 acbe b56e 6b3e
000001b0: 6b58 a43d 9944 fc3e 568a 47bf a379 3c3f
000001c0: 3bcb c7be e3fc 7d3e 764c 723d 8381 c6bd
000001d0: e89e ccbe 8923 7d3d 0002 c3be 25b4 b3be
000001e0: ea01 393e 05ab 3b3e a619 f63e 2304 ffbd
000001f0: b999 603f 2e50 55be d7a3 7a3c aa61 103c
00000200: 754e 9dbe 50de 9bbe 1b14 cebe 00eb 7b3e
00000210: a3c4 da3e 254e fabe 67a0 d93d ecfc 80be
00000220: 4c82 b3be c1a5 cabd f01b 08bf a249 8fbd
00000230: 68be 42be 4b52 a4be 70d5 243f 492f 5c3d
00000240: f083 9cbd df63 3fbd d895 17bf 19e5 cc3e
00000250: 3b25 5e3f 3cc0 bcbe 1b71 cfbd 446d fabd
00000260: 9bff fbbe b0f2 e7bd 93ad de3c d5a8 cdbe
00000270: 37bd a83c a281 0cbd 142d 8dbb fe96 413e
00000280: 4820 183d 6637 303e d98a ff3e eb7d cd3d
00000290: 2509 ae3d 4d29 573d 3e93 f23e d7a0 a73e
000002a0: dd76 3f3f 0a4a d23e df4d 153e 7f27 603c
000002b0: 9c75 083f 6b60 edbc 0114 0b3f cf91 d13e
000002c0: ea80 f73d ab70 013e 4967 82be dce6 143d
000002d0: 8fa7 263f 029f 883e 1e92 cf3e 9480 32be
000002e0: d30c 2e3e 0020 91bd c708 a9be fa54 9e3e
000002f0: 402e 4bbe 5794 a23e 7637 77bd ae83 43bf
00000300: 5b69 1ebe 9641 323e a5c2 95bc 0f88 98be
00000310: 5add 353f 842b 0e3e b452 5cbf ed7f d7bd
00000320: 49bc 7a3f 5390 893e 0f00 d63e 256a ebbd
00000330: 1605 72be 09f4 fcbe c473 dcbe 3a32 263e
00000340: 8f65 00be 29fc 693e 606b f33e 4f0d ac3e
00000350: 66ab 67be deb9 fc3d dd4e 4f3e a528 6f3d
00000360: aa24 2a3e 479c 9d3e 89f4 3abe a54b f0be
00000370: 6d66 823c 91ed 43be 0377 e6be c53b da3d
00000380: 5c58 453d 5e7e 043f bbbb 3ebf c49f bfbc
00000390: 46d8 e13e 17cc df3d 635c ed3e 269a d23b
000003a0: ac6b b63b 4c1f 803c 8ffa 1dbc ce59 50be
000003b0: 9182 4b3e 73b5 0e3d 1fd0 f63e 7c6f 8c3e
000003c0: cd36 a1be dc4e e3bd e4d8 583e bdba 13be
000003d0: 2479 e13e 5e1d eabd 1e66 a1be e30c 073c
000003e0: 5ebc 02be 0612 5d3e adfe 863e 3899 cebd
000003f0: 5d7c cabe aa4c debe 7cca 2e3e bdf7 8a3e

conv.0.gcn_layer.bias f4 [256]
-0.37597936 -0.4922202 -0.18588953 -0.37277678 -0.40477028 -0.43025962 -0.18399937 -0.1534179
-0.2338817 -0.4194343 -0.26884353 -0.09533279 -0.30879793 -0.30263117 -0.23429741 -0.5877728
-0.19552837 -0.3170395 -0.32321206 -0.53059787 -0.48210463 -0.24748944 -0.42763868 -0.3607739
-0.7544771 -0.44594795 -0.34619874 -0.15906554 -0.3257494 -0.33116832 -0.041275945 -0.17835917
-0.3648758 -0.48135018 -0.23929556 -0.2430054 -0.46993285 -0.14099033 -0.3984727 -0.30332682
-0.35610795 -0.08764595 -0.45638037 -0.1398491 -0.29356977 -0.15284126 -0.25421345 -0.20586272
-0.11700764 -0.20759264 -0.28649437 -0.34492895 -0.28189895 -0.4988097 -0.21519685 -0.37016502
-0.23991087 -0.29950002 -0.1337957 -0.3874837 -0.21590418 -0.19263603 -0.13959159 -0.4596765
-0.19079125 -0.5791503 -0.27712485 -0.38995132 -0.53789145 -0.110006 -0.34172314 -0.3643546
-0.51352465 -0.1453155 -0.54494387 -0.25837368 -0.17233904 -0.27968717 -0.19782439 -0.2072275
-0.4944387 -0.40417716 -0.18204841 -0.23651522 -0.30776662 -0.26218554 -0.2552046 -0.36422312
-0.20310318 -0.11335854 -0.24081227 -0.29899496 -0.21155216 -0.21772863 -0.3704452 -0.36280495
-0.47247413 -0.6172066 -0.6540906 -0.16397332 -0.18213572 -0.21912625 -0.36720738 -0.17852508
-0.32977876 -0.123883106 -0.13521905 -0.3777718 -0.33055744 -0.42409647 -0.3598669 -0.30082244
-0.35416877 -0.33266795 -0.35716397 -0.2751051 -0.36928323 -0.37805894 -0.21617465 -0.36174592
-0.19829552 -0.48362938 -0.35463154 -0.2786281 -0.14178538 -0.18219198 -0.14240278 -0.18401463
-0.26583016 -0.3430376 -0.46603072 -0.1661021 -0.21481061 -0.6232854 -0.30696172 -0.34916502
-0.2274788 -0.1780589 -0.44785282 -0.13735805 -0.1843601 -0.5014396 -0.23014838 -0.18520677
-0.24447033 -0.4915883 -0.255426 -0.5571152 -0.4922173 -0.4897154 -0.5779994 -0.14552224
-0.25699654 -0.35769442 -0.24819234 -0.2250444 -0.53630245 -0.24946299 -0.20019047 -0.18781453
-0.21208787 -0.22026806 -0.28081688 -0.29402122 -0.38978305 -0.12860844 -0.6078241 -0.29507238
-0.24670655 -0.1473555 -0.20337982 -0.1745997 -0.4406347 -0.25134546 -0.42817745 -0.40268356
-0.0560228 -0.23948894 -0.1306227 -0.31468758 -0.6597122 -0.16160272 -0.19298793 -0.20731413
-0.31143355 -0.27019066 -0.31564873 -0.18348289 -0.15832059 -0.11628949 -0.24465553 -0.14969803
-0.2289603 -0.39933696 -0.14068806 -0.25020114 -0.37079972 -0.1882242 -0.44218212 -0.1779572
-0.3761843 -0.2647824 -0.4673719 -0.22116132 -0.60433626 -0.10550009 -0.15335743 -0.1829476
-0.18652275 -0.007890296 -0.36499238 -0.30190113 -0.24755715 -0.3003443 -0.15493111 -0.34566608
-0.82062435 -0.17021723 -0.5165403 -0.90917546 -0.4952235 -0.07377765 -0.44466472 -0.59084654
-0.13363181 -0.21014982 -0.37934944 -0.32692093 -0.2101195 -0.4498075 -0.20412801 -0.26956466
-0.31906372 -0.12840413 -0.3897669 -0.24167204 -0.20010038 -0.26729435 -0.6390136 -0.41427192
-0.5172251 -0.17333095 -0.12019932 -0.093358815 -0.050398566 -0.10546737 -0.062542364 -0.14834176
-0.23130463 -0.2982192 -0.31064025 -0.267264 -0.29323825 -0.30676627 -0.18656173 -0.2992196
00000000: 5e80 c0be 4904 fcbe d359 3ebe 99dc bebe
00000010: 0d3e cfbe fd4a dcbe 556a 3cbe 9519 1dbe
00000020: af7e 6fbe 18c0 d6be dca5 89be d63d c3bd
00000030: c31a 9ebe 79f2 9abe a9eb 6fbe 4778 16bf
00000040: 9738 48be 0053 a2be 0d7c a5be 43d5 07bf
00000050: 6bd6 f6be df6d 7dbe 75f3 dabe 5bb7 b8be
00000060: 6925 41bf 4a53 e4be f640 b1be 14e2 22be
00000070: a0c8 a6be e58e a9be f710 29bd c9a3 36be
00000080: 00d1 babe 8873 f6be e509 75be 68d6 78be
00000090: 0a9b f0be c55f 10be 9d04 ccbe a74d 9bbe
000000a0: c853 b6be b87f b3bd b0aa e9be 9a34 0fbe
000000b0: c74e 96be 6b82 1cbe 4428 82be adcd 52be
000000c0: b4a1 efbd 2a93 54be 64af 92be 879a b0be
000000d0: 0f55 90be fc63 ffbe 905c 5cbe 4586 bdbe
000000e0: 32ab 75be 1158 99be bd01 09be 4364 c6be
000000f0: fc15 5dbe 6142 45be 19f1 0ebe b85a ebbe
00000100: c85e 43be 3243 14bf 4fe3 8dbe b3a7 c7be
00000110: 41b3 09bf d34a e1bd 56f6 aebe b08c babe
00000120: 5a76 03bf 96cd 14be 7181 0bbf 8e49 84be
00000130: a579 30be 2833 8fbe 7a92 4abe 7233 54be
00000140: 1227 fdbe 4ff0 cebe e66a 3abe 0c31 72be
00000150: 9693 9dbe 2f3d 86be 2daa 82be 747b babe
00000160: 48fa 4fbe 8628 e8bd 7e97 76be de15 99be
00000170: 21a1 58be 41f4 5ebe feaa bdbe 92c1 b9be
00000180: 21e8 f1be 4001 1ebf 7b72 27bf 9fe8 27be
00000190: c981 3abe a262 60be 9b02 bcbe 47cf 36be
000001a0: c3d8 a8be 6db6 fdbd dd76 0abe 4e6b c1be
000001b0: d33e a9be 2c23 d9be 7940 b8be 6605 9abe
000001c0: 9c55 b5be 7453 aabe 32de b6be 93da 8cbe
000001d0: b112 bdbe f190 c1be e35c 5dbe c336 b9be
000001e0: fb0d 4bbe 459e f7be 4492 b5be 58a8 8ebe
000001f0: 3030 11be 8990 3abe 09d2 11be 556e 3cbe
00000200: e41a 88be a0a2 afbe 949b eebe ab16 2abe
00000210: 50f7 5bbe a28f 1fbf 162a 9dbe c2c5 b2be
00000220: 34f0 68be 1355 36be f74c e5be 97a7 0cbe
00000230: e5c8 3cbe 585e 00bf 04ac 6bbe d8a6 3dbe
00000240: 6e56 7abe 76b1 fbbe 32c7 82be 1a9f 0ebf
00000250: e803 fcbe fabb fabe c5f7 13bf c803 15be
00000260: 0d95 83be b923 b7be 2226 7ebe 0a72 66be
00000270: 1e4b 09bf 3a73 7fbe bbfe 4cbe 7452 40be
00000280: 902d 59be f38d 61be 3bc7 8fbe f389 96be
00000290: a591 c7be eeb1 03be 5c9a 1bbf ba13 97be
000002a0: a4a0 7cbe 5ce4 16be cd42 50be 44ca 32be
000002b0: df9a e1be 5ab0 80be 133a dbbe 8a2c cebe
000002c0: 2a78 65bd 973c 75be f5c1 05be bb1e a1be
000002d0: e6e2 28bf 2f7b 25be a19e 45be 284a 54be
000002e0: 3874 9fbe 6e56 8abe b69c a1be f0e2 3bbe
000002f0: cb1e 22be 2f29 eebd fb86 7abe 714a 19be
00000300: 9274 6abe e575 ccbe 8810 10be 5d1a 80be
00000310: 76d9 bdbe d8bd 40be b265 e2be 6a3a 36be
00000320: 3b9b c0be 8f91 87be 5f4b efbe 1d78 62be
00000330: c8b5 1abf 6e10 d8bd bb09 1dbe 9e56 3bbe
00000340: d2ff 3ebe 4d46 01bc 48e0 babe c992 9abe
00000350: 9f7f 7dbe bac6 99be 43a6 1ebe 25fb b0be
00000360: 7014 52bf 6d4d 2ebe fc3b 04bf b9bf 68bf
00000370: ef8d fdbe bd18 97bd 18ab e3be b841 17bf
00000380: c7d6 08be 8431 57be 173a c2be 2e62 a7be
00000390: 9129 57be 2b4d e6be ef06 51be 6104 8abe
000003a0: 525c a3be 5f7c 03be 878f c7be e078 77be
000003b0: 1de7 4cbe ceda 88be 6596 23bf 731b d4be
000003c0: dd68 04bf ab7d 31be 102b f6bd e832 bfbd
000003d0: ba6e 4ebd 47ff d7bd 3616 80bd e7e6 17be
000003e0: 1fdb 6cbe 30b0 98be 3d0c 9fbe d4d6 88be
000003f0: 5323 96be 7810 9dbe 0a0a 3fbe 5033 99be

conv.0.gcn_layer.fc.weight f4 [256, 256]
-0.2993245 -0.077772655 0.2945834 0.21690279 -0.11179611 0.03432358 0.20421074 -0.09349905
-0.19383697 0.15720737 -0.06672891 0.24475521 0.017861005 0.17436725 -0.0010176579 0.11077639
-0.05879806 0.0713923 0.11938031 0.027367733 0.05939064 0.16067643 -0.00873107 0.16034147
0.034985323 -0.2572015 0.06856164 -0.124459825 0.2874646 -0.07668267 -0.01656347 0.05006837
0.016293108 0.013139153 -0.37693954 -0.14333709 0.14478137 -0.0021560623 0.12635534 0.061790716
0.069229834 0.07867625 0.0035600022 -0.31572476 0.3107035 0.0813019 0.38639137 -0.07005028
-0.030628644 -0.035351984 0.12746926 0.027537245 0.12398668 0.084693775 0.051759876 -0.050585207
0.022523059 -0.0058899214 -0.07770252 0.24327783 -0.5480607 -0.14900546 0.080443755 0.118613325
0.044596538 0.05832951 -0.007148583 0.4598413 -0.026711034 0.07925812 -0.105446756 -0.32461402
0.23546886 -0.25532907 0.12833786 0.14011179 -0.23141219 -0.19085684 0.0021562763 0.22026591
-0.31979892 -0.07571996 -0.4521115 -0.026268631 -0.1387147 0.009556325 0.26981312 -0.07364985
0.06785378 0.10237275 -0.17002241 -0.082463264 0.20804161 -0.23934886 0.31821436 -0.5123928
0.08284764 -0.070433766 -0.045751035 0.2925799 0.088157296 -0.089918576 0.36749145 -0.19441098
-0.03024705 -0.17056438 0.26285592 0.18554194 0.11926068 0.097486764 -0.27531704 -0.14617097
-0.19262129 0.095033534 -0.25907975 -0.078134514 0.031731382 -0.09702612 -0.008046188 0.28939298
0.0039163525 -0.0031218992 -0.40977868 0.16844913 0.12891282 0.22873366 0.47809008 -0.07514644
0.07171403 0.08723807 -0.31145844 0.1391111 0.008667788 -0.05870809 -0.116329946 0.13579816
0.042272404 0.16001302 -0.06037433 0.12083721 -0.39105126 0.48198608 -0.10923632 -0.061034665
-0.12223777 0.13289873 -0.117294684 -0.0068611167 -0.42922968 0.22199054 0.17783378 -0.16734275
0.0587263 -0.047852628 -0.044710238 -0.36913186 0.17951295 0.12923656 0.27918738 0.26281714
-0.06369767 -0.16275208 0.29395384 0.04841617 -0.46404335 0.07800471 -0.14088744 0.038057204
0.19612901 -0.25177705 -0.11782539 -0.06861708 -0.11884764 0.046209928 -0.07224904 -0.24860144
-0.030428262 -0.14355429 0.18054739 0.093811795 0.15152217 -0.14731231 -0.11738672 -0.1477007
0.31977248 0.5568567 0.20836315 0.33791256 0.04769655 -0.027331999 -0.15486827 0.2281789
0.13971 0.027060302 0.23618287 0.16450708 0.014218618 0.20994724 0.27142859 -0.18925637
0.18652712 -0.023997342 -0.014262083 -0.22631931 -0.0047840974 -0.17294094 0.041844707 0.07301193
0.22499248 0.2353268 -0.067876056 0.15351716 0.014537787 0.1591863 0.29462048 -0.1807102
-0.31743523 0.15071979 -0.10588496 0.5485825 0.1899454 -0.255872 -0.17812307 -0.17327192
-0.055357054 0.010108558 -0.21773292 -0.103297055 -0.12811388 0.15629618 0.03875224 -0.022538278
-0.6496851 -0.07384505 0.1287135 -0.399325 -0.22290961 0.268661 0.22206056 0.050202042
-0.049589045 -0.16247492 0.08088669 -0.11696742 -0.07179319 0.5123993 -0.052017163 0.115554534
-0.4913763 -0.18223767 0.06302144 -0.121587634 -0.21149947 0.065521255 0.046840873 0.2850476
00000000: 1041 99be 4547 9fbd a3d3 963e c41b 5e3e
00000010: 5cf5 e4bd e296 0c3d 9f1c 513e 6e7c bfbd
00000020: 337d 46be f8fa 203e 2ba9 88bd 1ca1 7a3e
00000030: 3e51 923c 548d 323e ef62 85ba bbde e23d
00000040: 3cd6 70bd 2036 923d aa7d f43d 4c32 e03c
00000050: 9a43 733d 5d88 243e c30c 0fbc 8e30 243e
00000060: c54c 0f3d eaaf 83be 0c6a 8c3d cbe4 febd
00000070: 8f2e 933e ce0b 9dbd 1db0 87bc 7e14 4d3d
00000080: 2079 853c 9a45 573c 38fe c0be f5c6 12be
00000090: 9141 143e b94c 0dbb 4b63 013e 4318 7d3d
000000a0: 5fc8 8d3d 0421 a13d ed4e 693b ada6 a1be
000000b0: 8714 9f3e 9c81 a63d 17d5 c53e 8576 8fbd
000000c0: ece8 fabc 3ecd 10bd 4d87 023e ca95 e13c
000000d0: baec fd3d ee73 ad3d 2a02 543d 6f32 4fbd
000000e0: 4782 b83c 3e00 c1bb 8022 9fbd d31d 793e
000000f0: b54d 0cbf e394 18be b2bf a43d 8beb f23d
00000100: dcaa 363d edea 6e3d a93e eabb 5270 eb3e
00000110: 19d1 dabc 1552 a23d 78f4 d7bd cf33 a6be
00000120: c01e 713e 7eba 82be 006b 033e 7779 0f3e
00000130: 51f7 6cbe fa6f 43be 5050 0d3b 638d 613e
00000140: afbc a3be 1113 9bbd 297b e7be 5031 d7bc
00000150: 3a0b 0ebe 2292 1c3c f224 8a3e bcd5 96bd
00000160: ecf6 8a3d cea8 d13d 5b1a 2ebe 80e2 a8bd
00000170: dc08 553e de17 75be feec a23e 2d2c 03bf
00000180: 06ac a93d 943f 90bd 7065 3bbd 08cd 953e
00000190: d08b b43d 3b27 b8bd d727 bc3e ac13 47be
000001a0: a9c8 f7bc 6ea8 2ebe 0d95 863e b5fe 3d3e
000001b0: f23e f43d 24a7 c73d 5bf6 8cbe d8ad 15be
000001c0: 843e 45be f1a0 c23d 1aa6 84be fd04 a0bd
000001d0: c4f8 013d a1b5 c6bd 29d4 03bc 512b 943e
000001e0: bf54 803b c798 4cbb 83ce d1be ee7d 2c3e
000001f0: b901 043e 2839 6a3e 39c8 f43e 60e6 99bd
00000200: cede 923d e0a9 b23d 7b77 9fbe 2473 0e3e
00000210: 5603 0e3c e577 70bd 653e eebd ac0e 0b3e
00000220: d425 2d3d 74da 233e 134b 77bd 8079 f73d
00000230: df37 c8be e1c6 f63e 4bb7 dfbd 7cff 79bd
00000240: cc57 fabd 9b16 083e 3238 f0bd 38d3 e0bb
00000250: fec3 dbbe 7d51 633e 0f1a 363e e65b 2bbe
00000260: fd8a 703d 1e01 44bd 1522 37bd dafe bcbe
00000270: 3ed2 373e 9756 043e a6f1 8e3e f88f 863e
00000280: ed73 82bd 7ba8 26be 1e81 963e 0950 463d
00000290: 1797 edbe efc0 9f3d cc44 10be dfe1 1b3d
000002a0: 0bd6 483e ece8 80be 704e f1bd 1d87 8cbd
000002b0: 6466 f3bd 9f46 3d3d 4ef7 93bd 6091 7ebe
000002c0: b144 f9bc e5ff 12be 6ae1 383e 6620 c03d
000002d0: a128 1b3e 0ad9 16be 7368 f0bd da3e 17be
000002e0: 38b9 a33e 298e 0e3f 265d 553e e002 ad3e
000002f0: 755d 433d 5be7 dfbc ca95 1ebe bba7 693e
00000300: 2310 0f3e 91ad dd3c ecd9 713e 8b74 283e
00000310: 35f5 683c 69fc 563e b0f8 8a3e 6ccc 41be
00000320: f700 3f3e 1396 c4bc 83ab 69bc 40c0 67be
00000330: ebc3 9cbb 6e17 31be 5b65 2b3d 4787 953d
00000340: 6e64 663e 82f9 703e 9a02 8bbd 9a33 1d3e
00000350: e62f 6e3c bc01 233e 7fd8 963e 180c 39be
00000360: df86 a2be 4a56 1a3e 37da d8bd e76f 0c3f
00000370: 0c81 423e a801 83be e565 36be 326e 31be
00000380: 14be 62bd 5e9e 253c 61f5 5ebe 688d d3bd
00000390: 4930 03be 1b0c 203e abba 1e3d 32a2 b8bc
000003a0: c351 26bf 133c 97bd 79cd 033e 5474 ccbe
000003b0: 6b42 64be ef8d 893e d863 633e a8a0 4d3d
000003c0: e21d 4bbd d35f 26be eca7 a53d 9d8c efbd
000003d0: 4f08 93bd 9a2c 033f f30f 55bd dba7 ec3d
000003e0: ad95 fbbe 839c 3abe 6211 813d f002 f9bd
000003f0: 5193 58be 0230 863d 37dc 3f3d c2f1 913e

src_mlp.weight f4 [128, 256]
-0.025501477 0.04109474 0.041784767 0.04633693 -0.021225614 0.015707798 0.04339381 -0.018405672
-0.02189862 0.029713873 -0.04914519 0.040073834 0.019441592 0.0055920305 -0.024808621 -0.0009345555
0.030349445 0.05515084 0.024400873 0.007495716 0.07196307 0.004646783 0.033676412 -0.042772535
-0.029125625 0.018120108 0.020847643 -0.009889531 0.01976388 -0.0038413834 0.002260362 0.014057887
0.00035244215 0.0341096 0.041028135 0.038924858 -0.06996513 0.051087912 0.05508672 0.014797594
-0.020736981 -0.0339759 -0.038150415 0.01396721 -0.058453165 0.03922593 -0.019906566 -0.000770746
-0.011007247 0.0035100891 -0.011858087 -0.03561034 -0.040866703 -0.051616464 -0.023334658 -0.04250692
-0.05082642 0.049137954 -0.052319318 0.046451695 -0.0024746084 0.018477784 0.049291767 0.05615189
-0.010609911 -0.051814355 0.009194862 -0.01692764 -0.049416997 0.044367004 -0.04339934 0.016306216
-0.031272978 0.00070024683 -0.029879538 -0.033199687 0.0037886652 -0.027126737 -0.0030543464 0.016238062
-0.034448978 0.040622294 0.0062675537 -0.03726684 0.040987495 -0.013461185 -0.02465197 -0.014632669
0.0016224105 -0.001393124 -0.055967845 -0.0032588083 0.045825165 0.017467003 0.0028220795 0.050793014
0.05156263 0.0018653113 -0.012539333 -0.03426844 -0.007034233 -0.032366555 -0.06297348 -0.008832224
-0.008393223 0.13054073 0.014708999 0.010784708 -0.033173636 0.027568048 -0.010277179 -0.045486342
0.053385664 0.0063223946 -0.0046580858 0.025140168 -0.0054231514 -0.0117761195 -0.04664414 0.00084158167
-0.0036648612 -0.042383015 -0.012914312 -0.0072739264 0.0644868 0.045464315 0.0508886 0.027650543
-0.02498638 -0.02278731 0.043284804 0.049774423 -0.035900615 -0.030734275 0.01584139 0.014613497
-0.02291206 -0.044291645 -0.0340461 0.030322524 -0.034123186 0.021935645 -0.038152605 -0.0010659982
0.005158275 0.01781209 -0.0173176 -0.0140284635 -0.014697182 -0.051415894 -0.054247882 -0.022551335
0.025657643 -0.019681841 -0.033987474 0.031475417 0.04220265 0.017193297 -0.035770573 -0.055692792
-0.022551544 -0.039345063 0.052322492 -0.033320546 -0.022052294 0.008516316 -0.066720486 0.01902639
0.015392894 0.07510902 0.0021173314 -0.05430765 0.008283501 -0.006516966 -0.04201391 0.05054598
0.005790687 0.036149822 0.03286424 0.056936946 -0.011080982 -0.038238622 0.046734583 0.035552096
0.028551536 -0.004325547 0.017717632 0.028686127 -0.012373536 0.0036659439 0.013979913 0.018636188
-0.013925292 -0.049687997 0.062945545 0.055719864 0.004020492 -0.011531229 -0.023318369 -0.042322148
-0.054012425 0.04530004 -0.012016699 -0.005430413 -0.010883966 -0.016138235 0.020253245 0.017968845
-0.050466884 0.0008448975 0.03146979 0.015289464 0.031096209 0.00017080805 0.011826368 -0.03641098
0.017121686 0.019073673 -0.04927644 -0.0271136 -0.023185844 -0.030538999 -0.023950467 -0.036671326
0.046494953 0.045273397 0.023921357 0.038486883 0.11232716 0.026573308 0.031780425 -0.009157721
0.022973703 0.054548096 -0.043930873 0.030351147 -0.032148633 -0.036041833 -0.03812898 -0.054373577
-0.03738453 0.043064144 -0.043729566 -0.015370683 -0.010490965 -0.02203753 0.044756446 -0.012858656
0.0024152452 0.02554072 0.03830682 -0.029546497 0.0029379358 -0.013099563 -0.04185871 -0.017764037
00000000: 79e8 d0bc f552 283d 8126 2b3d cbcb 3d3d
00000010: 57e1 adbc a4ad 803c b5bd 313d 7ec7 96bc
00000020: bc64 b3bc 826a f33c 774c 49bd 7624 243d
00000030: f943 9f3c 5a3d b73b 733b cbbc f5fc 74ba
00000040: 669f f83c d9e5 613d 57e4 c73c a09e f53b
00000050: 6061 933d 0b44 983b 47f0 093d 4132 2fbd
00000060: dd98 eebc 9f70 943c adc8 aa3c b307 22bc
00000070: dce7 a13c b8bf 7bbb 9522 143b 0d53 663c
00000080: fcc7 b839 82b6 0b3d 1e0d 283d ac6f 1f3d
00000090: e149 8fbd 8f41 513d 9da2 613d 9c71 723c
000000a0: 9ae0 a9bc 502a 0bbd 9c43 1cbd bad6 643c
000000b0: 966c 6fbd 5eab 203d 1813 a3bc e30b 4aba
000000c0: bd57 34bc 8609 663b 6c48 42bc 26dc 11bd
000000d0: d863 27bd c96b 53bd 5328 bfbc bc1b 2ebd
000000e0: 5d2f 50bd e144 493d c84c 56bd 2244 3e3d
000000f0: 0a2d 22bb b95e 973c 2ae6 493d 86ff 653d
00000100: 31d5 2dbc 4a3b 54bd 0ca6 163c d6ab 8abc
00000110: 7a69 4abd 2dba 353d 82c3 31bd 9d94 853c
00000120: 1818 00bd c590 373a efc5 f4bc 65fc 07bd
00000130: 414b 783b e438 debc 6e2b 48bb af05 853c
00000140: 5f1a 0dbd 9063 263d 0d60 cd3b 1da5 18bd
00000150: 81e2 273d 4d8c 5cbc eef2 c9bc ddbd 6fbc
00000160: 10a7 d43a 7c99 b6ba 8a3e 65bd bb91 55bb
00000170: 2bb3 3b3d f616 8f3c a3f2 383b 560c 503d
00000180: 5633 533d 767d f43a c671 4dbc 105d 0cbd
00000190: 6c7f e6bb cb92 04bd 3df8 80bd 08b5 10bc
000001a0: bb83 09bc 78ac 053e 03fe 703c 58b2 303c
000001b0: 14e1 07bd 63d6 e13c 9d61 28bc e34f 3abd
000001c0: edaa 5a3d 172c cf3b dba2 98bb c1f2 cd3c
000001d0: b1b4 b1bb a0f0 40bc ed0d 3fbd 979d 5c3a
000001e0: 2b2e 70bb d099 2dbd 8d96 53bc 1e5a eebb
000001f0: a811 843d ca38 3a3d 9170 503d 6483 e23c
00000200: 3db0 ccbc 74ac babc 684b 313d 44e0 4b3d
00000210: 860c 13bd 72c6 fbbc cdc5 813c 736d 6f3c
00000220: 13b2 bbbc 286b 35bd ec73 0bbd f166 f83c
00000230: c1c4 0bbd 62b2 b33c e845 1cbd f7b8 8bba
00000240: bf06 a93b a9ea 913c a4dd 8dbc a4d7 65bc
00000250: 73cc 70bc 7999 52bd 0733 5ebd 94bd b8bc
00000260: fa2f d23c d03b a1bc 7336 0bbd 5eec 003d
00000270: b0dc 2c3d f5d8 8c3c 2a84 12bd 201e 64bd
00000280: 04be b8bc 4a28 21bd 1c50 563d 207b 08bd
00000290: 03a7 b4bc 0588 0b3c c0a4 88bd 3bdd 9b3c
000002a0: 7a32 7c3c c2d2 993d edc2 0a3b b371 5ebd
000002b0: 85b7 073c 468c d5bb c716 2cbd 4d09 4f3d
000002c0: cebf bd3b d611 143d a79c 063d b736 693d
000002d0: 028d 35bc 1aa0 1cbd c36c 3f3d 139f 113d
000002e0: e9e4 e93c 51bd 8dbb 9124 913c 2bff ea3c
000002f0: 5fba 4abc 5540 703b 010c 653c ebaa 983c
00000300: e826 64bc a485 4bbd 98e9 803d 833a 643d
00000310: 55be 833b 7bed 3cbc 2a06 bfbc fd59 2dbd
00000320: 223c 5dbd 898c 393d b0e1 44bc 9bf1 b1bb
00000330: aa52 32bc 5534 84bc 22ea a53c 6633 933c
00000340: 5db6 4ebd 1d7c 5d3a 77e6 003d a980 7a3c
00000350: 7abd fe3c f01a 3339 62c3 413c ae23 15bd
00000360: c742 8c3c 6440 9c3c 18d6 49bd 571d debc
00000370: 3df0 bdbc ec2c fabc c533 c4bc ac34 16bd
00000380: 7e71 3e3d 9970 393d b9f6 c33c 6ca4 1d3d
00000390: c80b e63d 44b0 d93c 312c 023d 440a 16bc
000003a0: 5933 bc3c d36d 5f3d dcf0 33bd f8a2 f83c
000003b0: 49ae 03bd 9aa0 13bd 222d 1cbd d4b6 5ebd
000003c0: 8520 19bd 0764 303d c61d 33bd 51d5 7bbc
000003d0: 4ce2 2bbc 0d88 b4bc 8952 373d 1dad 52bc
000003e0: 1749 1e3b c63a d13c 9de7 1c3d 7f0b f2bc
000003f0: 628a 403b 8d9f 56bc 0a74 2bbd e385 91bc

src_mlp.bias f4 [128]
0.01801258 -0.061525803 -0.0449275 -0.042238213 -0.05613571 -0.055037595 -0.040003143 -0.018147897
-0.065683946 -0.0035808193 -0.018730089 -0.027103337 -0.024835689 -0.015892385 -0.036430907 -0.031710092
-0.034205038 -0.056716807 0.0051542046 -0.0043654013 -0.025524763 -0.021525681 -0.01595208 -0.009864272
-0.041694008 -0.012143861 -0.033244014 -0.04559897 -0.074128635 -0.013260805 -0.072219044 -0.07005736
-0.039196484 0.0004998399 -0.028262684 -0.024834787 0.045417417 0.07027902 -0.038939733 -0.040352374
-0.066072345 -0.03684574 -0.117608525 0.0169514 -0.02196592 -0.054890733 -0.055104252 -0.016726082
-0.007661934 -0.01745503 -0.04920935 -0.023128048 -0.011725683 -0.030777343 -0.06506112 -0.04733241
0.010664356 -0.029121626 -0.040552743 -0.03387322 -0.051945392 -0.057486102 0.016303394 -0.07780812
-0.037148718 -0.05582686 -0.05660328 0.009790135 -0.06788563 0.023646893 -0.056039505 -0.057164658
-0.06580687 -0.078318074 -0.049499165 -0.06160705 0.00699575 -0.058320116 -0.044653848 -0.072543755
-0.03133969 -0.05238139 -0.04641793 -0.02934864 -0.018921971 -0.06869723 -0.020049931 -0.08246526
0.08295959 -0.01937297 -0.019560885 -0.048708178 -0.0132791065 0.015252121 -0.047195513 0.023725403
-0.06568237 0.027426006 -0.034862883 -0.03516481 -0.040323526 -0.0057506924 -0.087127805 -0.03324233
-0.027692016 -0.0077560213 -0.054443613 -0.066749625 0.00633077 -0.05729659 -0.06311904 -0.009456033
-0.013961098 -0.030448407 -0.064365625 0.035947897 -0.034066476 -0.023110949 -0.055833094 -0.043059424
-0.012304765 -0.075974494 -0.025242046 -0.017934646 -0.052458048 -0.037945833 -0.009335485 -0.044600107
00000000: 1e8f 933c 7b02 7cbd e605 38bd fa01 2dbd
00000010: 8fee 65bd 1a6f 61bd 56da 23bd e6aa 94bc
00000020: 4e85 86bd 2eac 6abb d86f 99bc d107 debc
00000030: 3774 cbbc bf30 82bc 9338 15bd 71e2 01bd
00000040: 951a 0cbd e24f 68bd 9ae4 a83b a40b 8fbb
00000050: 4f19 d1bc a056 b0bc f0ad 82bc c19d 21bc
00000060: 56c7 2abd 0bf7 46bc e02a 08bd fcc5 3abd
00000070: c1d0 97bd d943 59bc 94e7 93bd 3c7a 8fbd
00000080: 7e8c 20bd b007 033a 2587 e7bc 5372 cbbc
00000090: 9d07 3a3d 72ee 8f3d 457f 1fbd 8848 25bd
000000a0: f050 87bd 8feb 16bd bddc f0bd aadd 8a3c
000000b0: e0f1 b3bc 1bd5 60bd ffb4 61bd 2305 89bc
000000c0: f610 fbbb dafd 8ebc be8f 49bd 0877 bdbc
000000d0: 141d 40bc c420 fcbc c43e 85bd a1df 41bd
000000e0: 8db9 2e3c 7a90 eebc a21a 26bd a5be 0abd
000000f0: b1c4 54bd 8c76 6bbd b28e 853c dd59 9fbd
00000100: 4129 18bd b5aa 64bd d7d8 67bd cd66 203c
00000110: 9f07 8bbd 21b7 c13c ae89 65bd 7d25 6abd
00000120: c1c5 86bd 3a65 a0bd a3bf 4abd ad57 7cbd
00000130: 9b3c e53b 13e1 6ebd f4e6 36bd d291 94bd
00000140: 0c5e 00bd de8d 56bd ba20 3ebd 8f6c f0bc
00000150: 4002 9bbc 22b1 8cbd c13f a4bc 8ce3 a8bd
00000160: b8e6 a93d 10b4 9ebc 263e a0bc 3a82 47bd
00000170: 9c90 59bc 08e4 793c 1550 41bd c75b c23c
00000180: 7a84 86bd 81ac e03c 62cc 0ebd fa08 10bd
00000190: 482a 25bd 4e70 bcbb 1070 b2bd 1c29 08bd
000001a0: 5eda e2bc 3926 febb 4400 5fbd 07b4 88bd
000001b0: 5972 cf3b d4af 6abd 8e44 81bd 7aed 1abc
000001c0: 17bd 64bc f06e f9bc 20d2 83bd 1a3e 133d
000001d0: 4a89 0bbd 2c53 bdbc 3eb1 64bd 145f 30bd
000001e0: ed99 49bc 8498 9bbd 68c8 cebc aeeb 92bc
000001f0: 40de 56bd 176d 1bbd ddf3 18bc 9aae 36bd

dst_mlp.weight f4 [128, 256]
-0.000596252 -0.013732244 0.061770547 0.0643093 0.026036032 0.020424508 0.029852947 -0.023637993
0.0058211735 -0.031692218 0.0031518533 0.05770294 0.042856522 0.048236676 0.036120284 0.029309021
-0.03703873 0.008091669 0.03485726 0.05392917 0.08861876 0.032072768 -0.0010695343 -0.03791666
5.859272e-05 0.04344317 0.05336751 0.008595258 -0.04274837 0.027139919 0.010425402 0.019583458
0.051063962 0.07282825 -0.047594722 -0.021434804 -0.011531489 0.033846833 0.028916704 -0.030270074
0.021931216 -0.01222758 -0.018657262 -0.0038378148 -0.0075912015 -0.032035545 0.0265426 0.05788198
-0.01049597 -0.050923843 0.021336297 -0.0012365987 0.028217593 0.043664005 0.0066891615 -0.023399979
-0.003912494 -0.010738247 0.032855302 0.005088349 -0.045212783 -0.021910522 0.002294232 0.033715457
0.04860932 -0.019203976 0.049237363 -0.021016246 -0.039766755 -0.032551616 8.720265e-05 0.027996061
-0.0352181 0.02576507 0.0082213655 0.039370555 -0.039009202 -0.018876623 -0.047620986 -0.044475794
0.00029925903 0.012241313 0.026158987 -0.046152852 -0.01692538 0.015460444 -0.040020593 0.055466462
0.0036323504 0.047305405 -0.053103082 -0.0024059138 0.022205368 -0.014871771 0.054137252 0.069368854
-0.025758827 -0.028367221 0.018449731 -0.042502563 0.049408916 -0.019824708 0.0081564095 0.01582964
-0.0037973998 0.1306701 0.00921202 -0.0049541504 -0.04500461 -0.009987972 0.05206288 -0.029748203
0.020558693 -0.008444623 0.07690301 0.0022272626 0.05388236 -0.013866388 0.0068972465 -0.0070625436
0.033940695 -0.03294593 -0.049625874 -0.03302821 0.05982317 -0.0080927545 -0.018082527 0.005977807
-0.032254085 0.0108345775 -0.031059682 0.0011578376 -0.022731643 0.066452146 0.018550271 0.043725546
0.010390792 -0.028170219 0.03964148 0.0068713124 0.0073551084 -0.03387087 -0.021432253 -0.023242755
0.07185326 -0.035225734 -0.042124547 -0.03309709 0.011604124 -0.010790214 0.020808728 0.014368073
-0.008986699 0.0171494 -0.02031615 0.0007777332 -0.012863806 -0.016720869 0.0553355 -0.0058388696
0.055065252 -0.006598632 -0.022938272 0.031260766 0.020891735 0.078097135 -0.05094704 -0.0068499604
-0.03908996 0.124464676 -0.030761905 -0.014169226 0.038669247 0.025717568 0.059317037 -0.011337326
0.015462135 -0.021020781 0.034198616 0.019798743 0.031894006 0.0539692 -0.02586399 0.049965527
-0.038704917 0.040746417 -0.040926337 -0.038690206 0.039757002 -0.0051596183 0.023928422 0.029376019
-0.040287416 -0.021646667 0.109558344 0.052390132 0.021412665 0.050163396 -0.01682565 0.05685872
0.04314487 0.035372723 -0.00038987928 0.017480088 -0.029507669 0.01819995 0.044421054 0.050246187
-0.008037458 0.043628484 0.04575444 0.0155689735 0.015948199 0.05229596 -0.03498722 0.020818906
0.012115956 0.04567107 -0.011854656 -0.013622426 -0.016967855 0.002687394 -0.025792336 0.046481382
-0.046427827 0.015896952 -0.039925646 0.020453364 0.1091415 -0.0124143865 0.02944614 0.023459712
0.024742723 0.074513614 0.021901835 0.07168387 -0.03595765 0.038986973 0.04292834 0.054157823
0.00150212 -0.014177952 -0.0067037786 0.04355206 -0.039004423 0.015540362 0.055564992 0.053564526
0.016141023 0.0067981062 0.071174316 0.050528385 -0.03460871 0.011329575 -0.007327747 0.015977116
00000000: cb4d 1cba 35fd 60bc 1d03 7d3d 98b4 833d
00000010: 8449 d53c 4c51 a73c 2b8e f43c 77a4 c1bc
00000020: 8bbf be3b b3cf 01bd 538f 4e3b eb59 6c3d
00000030: 528a 2f3d d293 453d ddf2 133d 7919 f03c
00000040: ecb5 17bd eb92 043c 7cc6 0e3d d5e4 5c3d
00000050: c17d b53d bc5e 033d 9e2f 8cba 804e 1bbd
00000060: 74c1 7538 77f1 313d e497 5a3d 20d3 0c3c
00000070: ea18 2fbd 8954 de3c 4ecf 2a3c 7d6d a03c
00000080: 7228 513d fa26 953d aff2 42bd 0b98 afbc
00000090: 92ee 3cbc faa2 0a3d b9e2 ec3c f2f8 f7bc
000000a0: 18a9 b33c 3056 48bc 1dd7 98bc d983 7bbb
000000b0: 9dbf f8bb b437 03bd de6f d93c a815 6d3d
000000c0: 4af7 2bbc 8595 50bd 75c9 ae3c 5e15 a2ba
000000d0: 9528 e73c 07d9 323d c130 db3b 50b1 bfbc
000000e0: 6134 80bb 79ef 2fbc 4893 063d 2abc a63b
000000f0: 0a31 39bd b27d b3bc d35a 163b 3819 0a3d
00000100: 911a 473d a851 9dbc 1ead 493d 432a acbc
00000110: 77e2 22bd d854 05bd 91e0 b638 ff57 e53c
00000120: db40 10bd 4511 d33c e8b2 063c 0543 213d
00000130: 1dc8 1fbd 26a3 9abc 390e 43bd 402c 36bd
00000140: dee5 9c39 ca8f 483c 5f4b d63c c60a 3dbd
00000150: 18a7 8abc cd4d 7d3c a2ec 23bd cd30 633d
00000160: ba0c 6e3b 50c3 413d 9e82 59bd 89ac 1dbb
00000170: 08e8 b53c bba8 73bc 06bf 5d3d 4211 8e3d
00000180: 2d04 d3bc 6062 e8bc e423 973c 2b17 2ebd
00000190: 0161 4a3d 6d67 a2bc 76a2 053c 29ad 813c
000001a0: ccdd 78bb 62ce 053e 03ee 163c 6d56 a2bb
000001b0: c156 38bd 97a4 23bc e33f 553d 81b2 f3bc
000001c0: b46a a83c 515b 0abc 537f 9d3d 44f7 113b
000001d0: c0b3 5c3d d92f 63bc 4c02 e23b e96c e7bb
000001e0: 6605 0b3d 50f2 06bd 8044 4bbd 9748 07bd
000001f0: 2409 753d 7997 04bc cf21 94bc 7be1 c33b
00000200: dc1c 04bd 8383 313c e070 febc 95c2 973a
00000210: b637 babc 1018 883d bdf6 973c 8f19 333d
00000220: 243e 2a3c 3bc5 e6bc 1b5f 223d bf28 e13b
00000230: 1f03 f13b 2ebc 0abd b192 afbc 9767 bebc
00000240: cd27 933d dc48 10bd ca8a 2cbd d090 07bd
00000250: 391f 3e3c 70c9 30bc 1177 aa3c 1168 6b3c
00000260: f33c 13bc e67c 8c3c 0e6e a6bc cbe0 4b3a
00000270: b7c2 52bc 34fa 88bc 7aa7 623d fd53 bfbb
00000280: 1a8c 613d 5639 d8bb 0be9 bbbc 4a0b 003d
00000290: 2525 ab3c 64f1 9f3d d8ad 50bd a275 e0bb
000002a0: cb1c 20bd 56e7 fe3d 6400 fcbc 0b26 68bc
000002b0: a563 1e3d a6ad d23c 6cf6 723d 31c0 39bc
000002c0: e554 7d3c c633 acbc d913 0c3d f930 a23c
000002d0: 4aa3 023d cf0e 5d3d b8e0 d3bc a7a8 4c3d
000002e0: 0c89 1ebd b7e5 263d 60a2 27bd 9f79 1ebd
000002f0: 3dd8 223d 0412 a9bb 8a05 c43c faa5 f03c
00000300: 6b04 25bd 5a54 b1bc 2060 e03d 0997 563d
00000310: 9d69 af3c 2278 4d3d f2d5 89bc b0e4 683d
00000320: adb8 303d fde2 103d b668 ccb9 6732 8f3c
00000330: 11ba f1bc 1018 953c daf2 353d f2ce 4d3d
00000340: 8baf 03bc c8b3 323d 0269 3b3d 0215 7f3c
00000350: cca5 823c 4a34 563d c24e 0fbd 698c aa3c
00000360: 0182 463c 9711 3b3d 083a 42bc 9930 5fbc
00000370: 2c00 8bbc fd1e 303b 734a d3bc 4363 3e3d
00000380: 1b2b 3ebd 533a 823c 1389 23bd d08d a73c
00000390: 9485 df3d b665 4bbc 0839 f13c 952e c03c
000003a0: 40b1 ca3c 989a 983d 7a6b b33c fece 923d
000003b0: 5448 13bd ceb0 1f3d a1d5 2f3d 98d4 5d3d
000003c0: c9e2 c43a a44a 68bc 5fab dbbb a563 323d
000003d0: 1ac3 1fbd 019d 7e3c 1e98 633d 7a66 5b3d
000003e0: 2e3a 843c a6c2 de3b d7c3 913d daf6 4e3d
000003f0: ddc1 0dbd af9f 393c 991d f0bb 71e2 823c
