checkpoint/voxceleb_sampler3.pth (torch, 602914 bytes, 15 tensors)

conv.0.bias f4 [1, 256]
-0.059744734 -0.02952332 -0.10080671 -0.08319848 -0.014598108 -0.018124409 -0.040630206 -0.046712965
-0.0625269 -0.057675645 -0.035121646 -0.07988926 -0.08519811 -0.057352696 -0.062330164 -0.07702685
-0.07699357 -0.035749346 -0.01990575 -0.07391928 0.013617769 -0.006503175 -0.049122415 -0.040420257
-0.0049399124 -0.018740864 -0.07024645 -0.036467414 -0.050808843 -0.02342221 -0.055756167 -0.006490396
-0.04042245 -0.04192175 -0.033769026 -0.052727878 -0.052969463 -0.022912258 -0.05084302 0.005839456
-0.08384652 -0.08355737 -0.01129338 -0.045919936 -0.067233264 -0.062407933 -0.011498497 -0.028469976
-0.058280293 -0.061467133 -0.0286162 -0.07388833 -0.0019432609 -0.024907092 -0.09150433 -0.055303957
-0.035226442 -0.07465806 -0.040625025 -0.07848937 -0.045360267 -0.038713075 -0.055862643 -0.04193644
-0.005608174 0.0043420256 -0.045582183 -0.031537898 -0.04631369 -0.058671683 -0.027042916 -0.04634016
-0.035029497 -0.034536164 -0.00644732 -0.044254977 -0.07180519 -0.05233634 -0.05828774 -0.032081053
-0.03517138 -0.0338853 -0.043169558 -0.07330427 -0.02559857 -0.08901332 -0.053345222 -0.058152292
-0.068461515 -0.03775996 -0.004561976 -0.06178676 -0.03686764 -0.009507639 -0.0306227 -0.05304236
-0.02321477 -0.018273752 -0.060661126 -0.01364582 -0.06960485 -0.041261338 -0.088205285 0.0075361696
-0.086431846 -0.03190561 -0.08069389 -0.0578547 -0.05856673 -0.027005909 -0.0933929 -0.062866405
-0.06740714 -0.06726582 -0.01966824 -0.024773993 0.021359399 -0.023952382 -0.08120238 -0.032723494
-0.06379991 -0.020193117 -0.07629414 -0.044277288 -0.03278079 -0.07222293 -0.060264498 -0.038561277
0.01996689 -0.09394151 -0.03348702 -0.056729585 -0.070104234 -0.031682726 -0.065363236 -0.041664783
-0.056653 -0.02829925 -0.041523177 -0.07030067 -0.04706636 -0.089528896 -0.052329138 0.012112606
-0.016187923 -0.07458963 -0.0450334 -0.024881227 -0.073033504 -0.015441913 -0.05253654 -0.021432757
-0.0069985003 -0.024235426 0.0072772806 -0.022322366 -0.069478944 -0.02792663 -0.10770191 -0.029931065
0.003351555 0.019159054 -0.029453142 -0.06899434 -0.058238626 -0.06304153 -0.07183729 -0.071442835
0.03320628 -0.061242994 -0.050883185 -0.0655739 -0.030685788 -0.020763094 -0.015112397 -0.011435401
-0.057492785 -0.07560693 -0.06102551 -0.010558907 -0.06131431 -0.07474786 0.006454801 -0.04372885
-0.0499569 -0.047381744 -0.07461853 -0.062566124 -0.01176602 -0.038753256 -0.004778699 0.032663263
-0.04094907 -0.024992043 -0.05567283 -0.057639126 -0.061827183 -0.039862134 -0.072121754 -0.06671355
0.016126793 -0.034772716 -0.07353702 -0.020290406 -0.022352843 -0.04731008 -0.06497359 -0.05604985
-0.013824657 -0.060493767 -0.012858946 -0.04469919 -0.07005129 -0.024121448 -0.030705221 -0.069707006
-0.060970657 -0.01666079 -0.07991612 0.016660878 -0.041366465 0.05754184 0.035440557 -0.05375755
-0.06546849 -0.041935846 -0.024340196 0.012047714 -0.0018669822 -0.02752533 0.007422746 -0.06261555
-0.03416333 0.0050504585 -0.042182755 -0.05225048 -0.10854384 -0.041794676 -0.07485398 -0.055053197
-0.011977463 -0.018735789 -0.0555282 -0.017541103 -0.007554385 0.03500871 -0.04439048 0.04304444
-0.060083814 -0.023613844 -0.031661946 -0.035453413 -0.06333612 -0.04217347 -0.08167696 -0.03954466
00000000: e5b6 74bd e4da f1bc c073 cebd f763 aabd
00000010: e72c 6fbc a479 94bc dc6b 26bd 1856 3fbd
00000020: 1a0e 80bd 4c3d 6cbd b7db 0fbd fb9c a3bd
00000030: 597c aebd a9ea 6abd ea4d 7fbd 41c0 9dbd
00000040: ceae 9dbd e86d 12bd 6211 a3bc fe62 97bd
00000050: 101d 5f3c 9618 d5bb 9634 49bd b68f 25bd
00000060: fdde a1bb 7186 99bc 5fdd 8fbd db5e 15bd
00000070: ef1c 50bd efdf bfbc 9460 64bd 63ad d4bb
00000080: 0392 25bd 24b6 2bbd 6451 0abd 30f9 57bd
00000090: 82f6 58bd 7db2 bbbc c540 50bd e858 bf3b
000000a0: b9b7 abbd 2020 abbd de07 39bc 8b16 3cbd
000000b0: 98b1 89bd 769f 7fbd 3164 3cbc de39 e9bc
000000c0: 51b7 6ebd f6c4 7bbd 856c eabc c452 97bd
000000d0: 04b5 feba f509 ccbc 9f66 bbbd 6786 62bd
000000e0: 9a49 10bd 53e6 98bd 6d66 26bd 09bf a0bd
000000f0: b0cb 39bd 9a91 1ebd 3ad0 64bd 8bc5 2bbd
00000100: c6c4 b7bb 8d47 8e3b 62b4 3abd e22d 01bd
00000110: 6cb3 3dbd b851 70bd 1b89 ddbc 2ecf 3dbd
00000120: 177b 0fbd cb75 0dbd 0a44 d3bb b544 35bd
00000130: 990e 93bd a15e 56bd 20bf 6ebd 6c67 03bd
00000140: dd0f 10bd 50cb 0abd 90d2 30bd 8d20 96bd
00000150: 18b4 d1bc 9e4c b6bd 8580 5abd 1931 6ebd
00000160: 8d35 8cbd 30aa 1abd a17c 95bb 1d14 7dbd
00000170: 8602 17bd eec5 1bbc 75dc fabc f242 59bd
00000180: e72c bebc d6b2 95bc cd77 78bd b892 5fbc
00000190: fd8c 8ebd a601 29bd f9a4 b4bd f9f1 f63b
000001a0: 2e03 b1bd 75af 02bd d742 a5bd 0df9 6cbd
000001b0: abe3 6fbd 7f3b ddbc c744 bfbd 1ac0 80bd
000001c0: c10c 8abd aac2 89bd 4a1f a1bc d4f2 cabc
000001d0: e8f9 ae3c c937 c4bc 6f4d a6bd 1209 06bd
000001e0: 87a9 82bd 096c a5bc 1a40 9cbd 1a5c 35bd
000001f0: 2645 06bd 9ee9 93bd e8d7 76bd 6ef2 1dbd
00000200: 9a91 a33c 6864 c0bd af29 09bd 485d 68bd
00000210: cf92 8fbd bfc5 01bd 29dd 85bd b1a8 2abd
00000220: fa0c 68bd d4d3 e7bc 3514 2abd ccf9 8fbd
00000230: a8c8 40bd ed5a b7bd 1457 56bd f473 463c
00000240: 899c 84bc 73c2 98bd f174 38bd b7d3 cbbc
00000250: 9792 95bd 1400 7dbc 8e30 57bd c093 afbc
00000260: ad53 e5bb 5f89 c6bc 4176 ee3b 65dd b6bc
00000270: fa4a 8ebd 63c6 e4bc d292 dcbd fe31 f5bc
00000280: c3a5 5b3b 73f3 9c3c b747 f1bc e84c 8dbd
00000290: a08b 6ebd eb1b 81bd 6e1f 93bd 9f50 92bd
000002a0: 4f03 083d efd9 7abd e36a 50bd 9c4b 86bd
000002b0: c360 fbbc 5d17 aabc fd99 77bc 8c5b 3bbc
000002c0: 8e7d 6bbd ced7 9abd e3f5 79bd 44ff 2cbc
000002d0: b724 7bbd 6815 99bd cc82 d33b 061d 33bd
000002e0: 9b9f 4cbd 5c13 42bd 9ad1 98bd ab22 80bd
000002f0: 44c6 40bc bcbb 1ebd a296 9cbb eac9 053d
00000300: 36ba 27bd 1dbc ccbc 3209 64bd 0117 6cbd
00000310: 803e 7dbd 7a46 23bd 92b4 93bd 1da1 88bd
00000320: 561c 843c d66d 0ebd 949a 96bd 1138 a6bc
00000330: 4f1d b7bc 37c8 41bd e010 85bd 8794 65bd
00000340: d080 62bc 50c8 77bd 54ae 52bc 7f16 37bd
00000350: 0d77 8fbd 589a c5bc 8489 fbbc 8cc2 8ebd
00000360: 5ebc 79bd 367c 88bc 10ab a3bd 657c 883c
00000370: e26f 29bd feb0 6b3d 1e2a 113d e030 5cbd
00000380: 5814 86bd ecc4 2bbd 1765 c7bc c663 453c
00000390: 87b5 f4ba cd7c e1bc 823a f33b 953c 80bd
000003a0: d9ee 0bbd 517e a53b d3c7 2cbd 9904 56bd
000003b0: 3c4c debd e530 2bbd 0b4d 99bd 767f 61bd
000003c0: 1f3d 44bc cc7b 99bc 8a71 63bd 5cb2 8fbc
000003d0: c68a f7bb 4b65 0f3d cbd2 35bd 5e4f 303d
000003e0: 721a 76bd d271 c1bc f5af 01bd 9937 11bd
000003f0: 5eb6 81bd 17be 2cbd 4046 a7bd 95f9 21bd

conv.0.gcn_layer.attn_l f4 [1, 1, 256]
-0.05375115 -0.0122838495 -0.055436563 0.030961156 -0.120221704 0.14975664 0.045409333 -0.15344636
0.06291543 -0.16827688 -0.07515784 0.06841221 -0.031269234 -0.09491132 -0.12128587 0.060853977
-0.0852316 0.048650768 0.07382404 0.015028564 -0.0013214275 -0.00093913375 0.21505392 -0.08546822
0.10925212 -0.023093559 0.12569307 0.2670379 -0.16070245 0.14891782 -0.19795485 -0.013013983
0.06347083 -0.14081918 -0.10656945 -0.06413418 0.04556037 -0.11551229 -0.075314805 0.037816714
0.0750999 0.011985923 -0.007959041 0.042098362 -0.032857157 -0.12745574 0.088674255 0.16666758
-0.016700119 0.030977607 -0.102947466 -0.15050742 -0.065230615 0.071335636 -0.040134545 0.061494492
-0.04693921 -0.12888417 0.060342107 -0.09971168 -0.0068891724 -0.10180455 0.01904396 0.16342634
-0.20839731 -0.1742553 0.09536169 -0.10045507 -0.14468797 0.07871541 0.12390181 0.041189287
-0.11266018 0.003459169 -0.051921934 0.14396872 0.09817021 -0.08132295 -0.019382788 -0.044258773
-0.055773653 0.040343836 -0.08617206 0.055456493 -0.1466737 0.020241648 -0.055062186 0.03414535
-0.011924325 0.03876245 0.02878366 0.0343776 -0.05801109 -0.065826446 -0.032125767 -0.06410327
0.043023173 -0.09841581 -0.07970736 0.1300724 0.01238768 -0.097277544 -0.0015461877 -0.06086615
-0.020123988 0.08373829 0.09604241 0.06329788 -0.02978228 -0.21262994 0.123969756 -0.071964346
0.03691461 -0.039586492 0.023626132 0.020087766 0.044359963 -0.008097792 -0.03509043 -0.115219586
0.095600255 0.075743504 -0.03556336 0.076406285 0.2290997 0.10479524 0.003197543 0.018414162
-0.03653953 0.14631292 -0.12171254 0.054085325 -0.009419664 0.21220052 0.025926564 0.014604366
-0.0991566 -0.10963558 0.16874969 0.034560535 0.0067314776 0.1484386 -0.019569688 0.057849687
0.08621528 0.009810579 0.009016832 -0.12620954 -0.03864659 0.049260773 0.08052368 0.018001588
0.16452932 0.034196693 0.020571021 0.06656482 -0.0064003407 -0.0015433218 0.19492996 0.11616166
-0.04141189 -0.045671396 0.051470302 -0.09483501 -0.16386648 0.012662544 -0.028363956 0.015629599
0.14437357 -0.028536886 -0.15848745 0.11967737 0.01749102 -0.1519352 0.009196125 -0.06728141
-0.061412346 -0.05386146 -0.1179217 0.03379952 -0.07399396 0.0138718225 0.03320493 -0.014992642
-0.1053663 -0.025986876 0.1234852 0.12083495 -0.05589778 0.029859278 0.11230314 0.057549875
-0.11525914 0.13635205 -0.014519264 0.02160035 0.033153668 -0.026805436 0.031975526 0.04639023
-0.05826697 -0.08029211 -0.036576223 0.0027445236 -0.118705526 0.0017327424 -0.017738706 -0.082901075
-0.048282757 -0.13785985 0.059343114 -0.03476137 0.13626948 -0.030645605 0.017698113 0.12191683
-0.06617389 0.0837088 -0.065792896 -0.04798182 0.016636424 0.09404826 0.033332102 0.016328273
0.036641512 0.020984285 0.020802716 0.041459225 0.038455784 -0.009942435 -0.023982115 -0.059986133
0.0028156098 -0.030280462 0.047604237 0.05430415 -0.041706197 -0.16191916 -0.11687056 0.06832077
0.092170075 0.06992794 0.012855295 0.046993226 0.018858606 0.043720912 0.016884493 0.15478764
0.14456987 -0.073977835 -0.06253866 0.020202825 -0.062426783 -0.026643807 -0.07278892 -0.12929614
00000000: 2a2a 5cbd 3342 49bc 7311 63bd 40a2 fd3c
00000010: cc36 f6bd ce59 193e 23ff 393d 0b21 1dbe
00000020: ced9 803d c650 2cbe 5bec 99bd b31b 8c3d
00000030: 2b14 00bd de60 c2bd ba64 f8bd 0542 793d
00000040: e88d aebd 0746 473d 0f31 973d 5e3a 763c
00000050: c033 adba 3330 76ba 1837 5c3e f609 afbd
00000060: 93bf df3d b42e bdbc afb5 003e 31b9 883e
00000070: 2f8f 24be ea7d 183e adb4 4abe 9a38 55bc
00000080: fffc 813d e732 10be 1541 dabd c858 83bd
00000090: 839d 3a3d b591 ecbd a63e 9abd b3e5 1a3d
000000a0: facd 993d 9b60 443c a366 02bc 556f 2c3d
000000b0: 3a95 06bd c283 02be d99a b53d e8aa 2a3e
000000c0: b0ce 88bc c0c4 fd3c 1fd6 d2bd 9e1e 1abe
000000d0: a197 85bd 6b18 923d 1f64 24bd a6e1 7b3d
000000e0: 5443 40bd 36fa 03be 4929 773d a335 ccbd
000000f0: 91be e1bb e77e d0bd 1402 9c3c 3c59 273e
00000100: 1b66 55be fb6f 32be fd4c c33d 63bb cdbd
00000110: 1529 14be 8b35 a13d 3bc0 fd3d 19b6 283d
00000120: 61ba e6bd 3ab3 623b 18ac 54bd 896c 133e
00000130: 770d c93d a68c a6bd a7c8 9ebc b048 35bd
00000140: ea72 64bd 943f 253d fa7a b0bd 5926 633d
00000150: a131 16be d0d1 a53c e388 61bd ffdb 0b3d
00000160: 3e5e 43bc 60c5 1e3d b6cb eb3c 87cf 0c3d
00000170: 099d 6dbd 04d0 86bd 4f96 03bd 9348 83bd
00000180: 1139 303d 3a8e c9bd 9d3d a3bd b331 053e
00000190: b2f5 4a3c 7339 c7bd 73a9 caba c94e 79bd
000001a0: 10db a4bc fb7e ab3d e2b1 c43d 52a2 813d
000001b0: f8f9 f3bc aabb 59be dbe3 fd3d 0b62 93bd
000001c0: c633 173d 7225 22bd 978b c13c 198f a43c
000001d0: cbb2 353d 9aac 04bc fcba 0fbd 3ff8 ebbd
000001e0: 11ca c33d 691f 9b3d e3aa 11bd e67a 9c3d
000001f0: 1d99 6a3e e39e d63d df8d 513b 4cd9 963c
00000200: 79aa 15bd 0ed3 153e 6d44 f9bd 9388 5d3d
00000210: ef54 1abc 184b 593e f263 d43c 2747 6f3c
00000220: 9e12 cbbd 9e88 e0bd b8cc 2c3e 598f 0d3d
00000230: ba93 dc3b 4a00 183e 9c50 a0bc cbf3 6c3d
00000240: a391 b03d 8dbc 203c 56bb 133c 133d 01be
00000250: e34b 1ebd aac5 493d 99e9 a43d 1178 933c
00000260: 607a 283e d511 0c3d 8f84 a83c 2353 883d
00000270: f3b9 d1bb 4949 caba b89b 473e 2ae6 ed3d
00000280: 849f 29bd ee11 3bbd 86d2 523d dc38 c2bd
00000290: 9dcc 27be 8f76 4f3c 875b e8bc a509 803c
000002a0: aad6 133e 30c6 e9bc 894a 22be 6919 f53d
000002b0: 5449 8f3c e794 1bbe 58ab 163c d6ca 89bd
000002c0: 838b 7bbd d69d 5cbd ef80 f1bd 5e71 0a3d
000002d0: 258a 97bd a446 633c e501 083d b3a3 75bc
000002e0: 49ca d7bd 6ee2 d4bc cfe5 fc3d 5078 f73d
000002f0: 12f5 64bd 729b f43c 30ff e53d 6bb9 6b3d
00000300: fc0c ecbd df9f 0b3e 35e2 6dbc 38f3 b03c
00000310: 24cc 073d 1397 dbbc c5f8 023d af03 3e3d
00000320: 59a9 6ebd 3170 a4bd f3d0 15bd 77dd 333b
00000330: e21b f3bd 301d e33a c350 91bc 0ac8 a9bd
00000340: 24c4 45bd 222b 0dbe c411 733d f061 0ebd
00000350: 3a8a 0b3e 7e0c fbbc a2fb 903c 88af f93d
00000360: 2d86 87bd 856f ab3d 6dbe 86bd 9688 44bd
00000370: 1c49 883c 609c c03d 3e87 083d dfc2 853c
00000380: 6915 163d 3ce7 ab3c 756a aa3c 26d1 293d
00000390: d083 1d3d 98e5 22bc 2476 c4bc 05b4 75bd
000003a0: 1886 383b bb0e f8bc a9fc 423d 076e 5e3d
000003b0: 1ed4 2abd 23ce 25be d559 efbd c3eb 8b3d
000003c0: aac3 bc3d 6136 8f3d 049f 523c f87b 403d
000003d0: 5d7d 9a3c b314 333d 5951 8a3c a780 1e3e
000003e0: 200a 143e b181 97bd 4514 80bd 6580 a53c
000003f0: 3ab3 7fbd 1d44 dabc 5b12 95bd 3566 04be

conv.0.gcn_layer.attn_r f4 [1, 1, 256]
0.27301186 0.10651003 -0.34343857 0.2225906 -0.14890265 -0.061253373 -0.06248961 -0.059225924
0.0003220331 0.06778213 0.22292855 -0.028683161 -0.18584824 0.113047294 -0.25139835 -0.01707692
0.044272434 0.06467405 -0.38680798 0.07505521 -0.009338867 -0.20594376 0.025915368 0.09656132
-0.07103941 -0.23791648 0.04922291 0.3886259 -0.07390692 -0.01134321 0.022873385 -0.018189684
0.16528638 -0.0018465305 -0.009511187 0.092821434 0.1250699 -0.05588848 -0.13344021 0.27717638
-0.14472 0.072607 0.13713725 0.25252312 -0.25861862 -0.09290131 0.044501875 0.09898918
-0.046055518 0.1569575 -0.29814962 -0.25950333 -0.28832254 0.013588088 -0.32818106 -0.018704344
-0.09409251 -0.074987665 -0.17822413 0.10628528 0.1497103 -0.24047546 -0.050978698 0.31909215
-0.16160381 0.053659257 -0.021935025 -0.08458912 0.018697092 -0.027886447 0.032995567 0.01742995
-0.30756572 -0.040793706 0.06356808 0.10914233 0.16877714 0.10648589 0.0042976215 0.071473144
-0.03625271 0.047465637 -0.14040019 0.041341145 -0.04492436 -0.22500631 0.0016501963 -0.011962781
-0.11533089 -0.099053144 0.0026685193 0.051922534 0.009342832 0.023120472 0.07736842 -0.019624652
-0.04227144 -0.41373682 0.070735894 0.13776278 -0.114901274 -0.09528906 0.20776312 -0.32395595
0.064219 -0.15425321 0.18216492 0.003936964 -0.0043495316 -0.18627109 0.25025004 0.12188329
0.1300426 -0.052042305 0.11365669 0.08777586 0.112706766 0.053236455 -0.14700049 -0.062911436
0.11948556 -0.12753761 -0.1417785 -0.12657522 0.25522375 -0.16565861 -0.068555206 0.23913229
0.046899386 -0.090115085 -0.12905127 -0.20699142 0.006008028 0.24642022 -0.26998475 -0.12067957
-0.10451449 -0.085030265 0.048151985 0.14423312 -0.14959243 0.1863594 0.14089501 0.1073678
0.15066317 -0.15312095 0.16600327 0.22984323 0.1348648 -0.023849646 -0.026034277 -0.059979696
0.115928315 0.10110866 0.075116865 -0.08325227 0.12262391 -0.10607037 0.14260644 0.15994681
-0.029747805 0.01266199 0.12987804 -0.13173033 -0.20492394 -0.005217678 0.021179434 0.15284051
0.33659425 -0.048008025 -0.07072376 0.05093663 0.07582867 -0.09060257 -0.07906359 -0.06908304
-0.0023509138 -0.19210704 -0.3464174 0.06472362 0.05392335 0.12366472 -0.07076763 -0.06963245
-0.0007763128 0.09324663 0.09384098 0.34666315 -0.06220885 0.15715867 0.13106216 0.015193374
-0.074487895 -0.049519688 -0.05801355 0.053554002 0.13768652 -0.058174003 -0.1344912 0.1549177
-0.087815195 -0.1651391 -0.009939794 0.0903132 -0.07047576 -0.33333927 -0.28431967 0.0074483436
0.10827026 -0.13227226 -0.013098217 -0.035319403 0.23049915 -0.0924975 0.091087274 0.2721403
-0.0048272004 -0.0862392 0.21460775 -0.041392874 -0.15916745 0.038827796 0.1753751 -0.07649307
0.10721934 0.077912934 0.022490937 0.16074298 -0.05225067 0.11982872 -0.098103315 -0.26384854
0.009743497 -0.10824622 0.022618255 0.13242283 -0.21284631 0.025669316 -0.069692954 0.05673869
0.027391234 -0.31074667 0.10626495 -0.08407284 -0.005170895 0.2840069 0.009093534 0.17934124
-0.08569744 0.16885015 -0.16779536 -0.050014082 -0.08029216 0.06354518 -0.26890618 -0.067463174
00000000: 36c8 8b3e ee21 da3d 2ed7 afbe caee 633e
00000010: f079 18be d1e4 7abd 1bf5 7fbd e296 72bd
00000020: 8dd6 a839 5bd1 8a3d 6247 643e f3f8 eabc
00000030: 004f 3ebe 5785 e73d 49b7 80be e6e4 8bbc
00000040: 0357 353d d473 843d b20b c6be 8cb6 993d
00000050: 0c02 19bc ece2 52be 774c d43c f1c1 c53d
00000060: 1c7d 91bd 61a0 73be f69d 493d f9f9 c63e
00000070: 835c 97bd dfd8 39bc f760 bb3c 8802 95bc
00000080: d540 293e 4807 f2ba cfd4 1bbc 2a19 be3d
00000090: 5312 003e 52eb 64bd 8da4 08be 10ea 8d3e
000000a0: 7b31 14be fbb2 943d b56d 0c3e b64a 813e
000000b0: a969 84be 0b43 bebd 9947 363d d7ba ca3d
000000c0: b6a4 3cbd 78b9 203e 11a7 98be 9fdd 84be
000000d0: 039f 93be 92a0 5e3c 5907 a8be da39 99bc
000000e0: 93b3 c0bd 2293 99bd 6380 36be 19ac d93d
000000f0: a84d 193e 333f 76be 0acf 50bd 0c60 a33e
00000100: 787b 25be cfc9 5b3d 15b1 b3bc 0f3d adbd
00000110: a52a 993c 1e72 e4bc 5c26 073d 41c9 8e3c
00000120: 4179 9dbe 4d17 27bd fb2f 823d 0486 df3d
00000130: ead3 2c3e 4615 da3d 10d3 8c3b 8360 923d
00000140: b97d 14bd 546b 423d 11c5 0fbe 5555 293d
00000150: 9b02 38bd 0e68 66be 664b d83a 8aff 43bc
00000160: 9a32 ecbd 60dc cabd 53e2 2e3b b9ac 543d
00000170: ad12 193c 2567 bd3c 5673 9e3d e1c3 a0bc
00000180: d124 2dbd 50d5 d3be fbdd 903d b011 0d3e
00000190: 5c51 ebbd e926 c3bd dbbf 543e 8edd a5be
000001a0: 4085 833d 8ef4 1dbe 7189 3a3e a601 813b
000001b0: 8486 8ebb d9bd 3ebe c620 803e f29d f93d
000001c0: e329 053e 502a 55bd d7c4 e83d d5c3 b33d
000001d0: ced2 e63d 780e 5a3d 4c87 16be b6d7 80bd
000001e0: d8b4 f43d 3899 02be 622e 11be ef9c 01be
000001f0: b0ac 823e 69a2 29be ac66 8cbd 18df 743e
00000200: 9219 403d 428e b8bd 0426 04be 8ff5 53be
00000210: fede c43b 9555 7c3e 713b 8abe da26 f7bd
00000220: b10b d6bd 5924 aebd 043b 453d d9b1 133e
00000230: c22e 19be 00d5 3e3e c846 103e a6e3 db3d
00000240: 7247 1a3e bdcb 1cbe c3fc 293e 065c 6b3e
00000250: 001a 0a3e 5560 c3bc d645 d5bc 45ad 75bd
00000260: d36b ed3d 0f12 cf3d dfd6 993d 2b80 aabd
00000270: 3f22 fb3d 6c3b d9bd 6c07 123e 19c9 233e
00000280: abb1 f3bc 3c74 4f3c c0fe 043e 51e4 06be
00000290: 95d7 51be 0ef9 aabb 7e80 ad3c 3982 1c3e
000002a0: 1556 ac3e 10a4 44bd 9ed7 90bd eea2 503d
000002b0: 104c 9b3d d78d b9bd 17ec a1bd 697b 8dbd
000002c0: ca11 1abb b5b7 44be 9f5d b1be d18d 843d
000002d0: bbde 5c3d ee43 fd3d 9fee 90bd 759b 8ebd
000002e0: 7881 4bba 17f8 be3d b32f c03d d57d b13e
000002f0: b5ce 7ebd 34ee 203e 2935 063e a1ed 783c
00000300: 1c8d 98bd 28d5 4abd 9e9f 6dbd 715b 5b3d
00000310: b2fd 0c3e dd47 6ebd 10b8 09be bfa2 1e3e
00000320: 74d8 b3bd 391a 29be 85da 22bc 21f6 b83d
00000330: 9855 90bd 72ab aabe 5992 91be 3c11 f43b
00000340: ccbc dd3d 6172 07be e799 56bc 14ab 10bd
00000350: f807 6c3e 546f bdbd f78b ba3d f955 8b3e
00000360: 7e2d 9ebb 2d9e b0bd 22c2 5b3e 938b 29bd
00000370: cbfc 22be e509 1f3d 8895 333e 66a8 9cbd
00000380: d095 db3d d190 9f3d ea3e b83c cf99 243e
00000390: cc04 56bd c368 f53d 64ea c8bd 2817 87be
000003a0: 30a3 1f3c 32b0 ddbd eb49 b93c da99 073e
000003b0: 62f4 59be 7548 d23c 2ebb 8ebd d466 683d
000003c0: 9563 e03c 301a 9fbe 70a1 d93d 622e acbd
000003d0: 9c70 a9bb 5a69 913e 0cfd 143c 3ba5 373e
000003e0: 2482 afbd 0ee7 2c3e 8cd2 2bbe 91db 4cbd
000003f0: 3770 a4bd fa23 823d 12ae 89be 222a 8abd

conv.0.gcn_layer.bias f4 [256]
-0.059744734 -0.02952332 -0.10080671 -0.08319848 -0.014598108 -0.018124409 -0.040630206 -0.046712965
-0.0625269 -0.057675645 -0.035121646 -0.07988926 -0.08519811 -0.057352696 -0.062330164 -0.07702685
-0.07699357 -0.035749346 -0.01990575 -0.07391928 0.013617769 -0.006503175 -0.049122415 -0.040420257
-0.0049399124 -0.018740864 -0.07024645 -0.036467414 -0.050808843 -0.02342221 -0.055756167 -0.006490396
-0.04042245 -0.04192175 -0.033769026 -0.052727878 -0.052969463 -0.022912258 -0.05084302 0.005839456
-0.08384652 -0.08355737 -0.01129338 -0.045919936 -0.067233264 -0.062407933 -0.011498497 -0.028469976
-0.058280293 -0.061467133 -0.0286162 -0.07388833 -0.0019432609 -0.024907092 -0.09150433 -0.055303957
-0.035226442 -0.07465806 -0.040625025 -0.07848937 -0.045360267 -0.038713075 -0.055862643 -0.04193644
-0.005608174 0.0043420256 -0.045582183 -0.031537898 -0.04631369 -0.058671683 -0.027042916 -0.04634016
-0.035029497 -0.034536164 -0.00644732 -0.044254977 -0.07180519 -0.05233634 -0.05828774 -0.032081053
-0.03517138 -0.0338853 -0.043169558 -0.07330427 -0.02559857 -0.08901332 -0.053345222 -0.058152292
-0.068461515 -0.03775996 -0.004561976 -0.06178676 -0.03686764 -0.009507639 -0.0306227 -0.05304236
-0.02321477 -0.018273752 -0.060661126 -0.01364582 -0.06960485 -0.041261338 -0.088205285 0.0075361696
-0.086431846 -0.03190561 -0.08069389 -0.0578547 -0.05856673 -0.027005909 -0.0933929 -0.062866405
-0.06740714 -0.06726582 -0.01966824 -0.024773993 0.021359399 -0.023952382 -0.08120238 -0.032723494
-0.06379991 -0.020193117 -0.07629414 -0.044277288 -0.03278079 -0.07222293 -0.060264498 -0.038561277
0.01996689 -0.09394151 -0.03348702 -0.056729585 -0.070104234 -0.031682726 -0.065363236 -0.041664783
-0.056653 -0.02829925 -0.041523177 -0.07030067 -0.04706636 -0.089528896 -0.052329138 0.012112606
-0.016187923 -0.07458963 -0.0450334 -0.024881227 -0.073033504 -0.015441913 -0.05253654 -0.021432757
-0.0069985003 -0.024235426 0.0072772806 -0.022322366 -0.069478944 -0.02792663 -0.10770191 -0.029931065
0.003351555 0.019159054 -0.029453142 -0.06899434 -0.058238626 -0.06304153 -0.07183729 -0.071442835
0.03320628 -0.061242994 -0.050883185 -0.0655739 -0.030685788 -0.020763094 -0.015112397 -0.011435401
-0.057492785 -0.07560693 -0.06102551 -0.010558907 -0.06131431 -0.07474786 0.006454801 -0.04372885
-0.0499569 -0.047381744 -0.07461853 -0.062566124 -0.01176602 -0.038753256 -0.004778699 0.032663263
-0.04094907 -0.024992043 -0.05567283 -0.057639126 -0.061827183 -0.039862134 -0.072121754 -0.06671355
0.016126793 -0.034772716 -0.07353702 -0.020290406 -0.022352843 -0.04731008 -0.06497359 -0.05604985
-0.013824657 -0.060493767 -0.012858946 -0.04469919 -0.07005129 -0.024121448 -0.030705221 -0.069707006
-0.060970657 -0.01666079 -0.07991612 0.016660878 -0.041366465 0.05754184 0.035440557 -0.05375755
-0.06546849 -0.041935846 -0.024340196 0.012047714 -0.0018669822 -0.02752533 0.007422746 -0.06261555
-0.03416333 0.0050504585 -0.042182755 -0.05225048 -0.10854384 -0.041794676 -0.07485398 -0.055053197
-0.011977463 -0.018735789 -0.0555282 -0.017541103 -0.007554385 0.03500871 -0.04439048 0.04304444
-0.060083814 -0.023613844 -0.031661946 -0.035453413 -0.06333612 -0.04217347 -0.08167696 -0.03954466
00000000: e5b6 74bd e4da f1bc c073 cebd f763 aabd
00000010: e72c 6fbc a479 94bc dc6b 26bd 1856 3fbd
00000020: 1a0e 80bd 4c3d 6cbd b7db 0fbd fb9c a3bd
00000030: 597c aebd a9ea 6abd ea4d 7fbd 41c0 9dbd
00000040: ceae 9dbd e86d 12bd 6211 a3bc fe62 97bd
00000050: 101d 5f3c 9618 d5bb 9634 49bd b68f 25bd
00000060: fdde a1bb 7186 99bc 5fdd 8fbd db5e 15bd
00000070: ef1c 50bd efdf bfbc 9460 64bd 63ad d4bb
00000080: 0392 25bd 24b6 2bbd 6451 0abd 30f9 57bd
00000090: 82f6 58bd 7db2 bbbc c540 50bd e858 bf3b
000000a0: b9b7 abbd 2020 abbd de07 39bc 8b16 3cbd
000000b0: 98b1 89bd 769f 7fbd 3164 3cbc de39 e9bc
000000c0: 51b7 6ebd f6c4 7bbd 856c eabc c452 97bd
000000d0: 04b5 feba f509 ccbc 9f66 bbbd 6786 62bd
000000e0: 9a49 10bd 53e6 98bd 6d66 26bd 09bf a0bd
000000f0: b0cb 39bd 9a91 1ebd 3ad0 64bd 8bc5 2bbd
00000100: c6c4 b7bb 8d47 8e3b 62b4 3abd e22d 01bd
00000110: 6cb3 3dbd b851 70bd 1b89 ddbc 2ecf 3dbd
00000120: 177b 0fbd cb75 0dbd 0a44 d3bb b544 35bd
00000130: 990e 93bd a15e 56bd 20bf 6ebd 6c67 03bd
00000140: dd0f 10bd 50cb 0abd 90d2 30bd 8d20 96bd
00000150: 18b4 d1bc 9e4c b6bd 8580 5abd 1931 6ebd
00000160: 8d35 8cbd 30aa 1abd a17c 95bb 1d14 7dbd
00000170: 8602 17bd eec5 1bbc 75dc fabc f242 59bd
00000180: e72c bebc d6b2 95bc cd77 78bd b892 5fbc
00000190: fd8c 8ebd a601 29bd f9a4 b4bd f9f1 f63b
000001a0: 2e03 b1bd 75af 02bd d742 a5bd 0df9 6cbd
000001b0: abe3 6fbd 7f3b ddbc c744 bfbd 1ac0 80bd
000001c0: c10c 8abd aac2 89bd 4a1f a1bc d4f2 cabc
000001d0: e8f9 ae3c c937 c4bc 6f4d a6bd 1209 06bd
000001e0: 87a9 82bd 096c a5bc 1a40 9cbd 1a5c 35bd
000001f0: 2645 06bd 9ee9 93bd e8d7 76bd 6ef2 1dbd
00000200: 9a91 a33c 6864 c0bd af29 09bd 485d 68bd
00000210: cf92 8fbd bfc5 01bd 29dd 85bd b1a8 2abd
00000220: fa0c 68bd d4d3 e7bc 3514 2abd ccf9 8fbd
00000230: a8c8 40bd ed5a b7bd 1457 56bd f473 463c
00000240: 899c 84bc 73c2 98bd f174 38bd b7d3 cbbc
00000250: 9792 95bd 1400 7dbc 8e30 57bd c093 afbc
00000260: ad53 e5bb 5f89 c6bc 4176 ee3b 65dd b6bc
00000270: fa4a 8ebd 63c6 e4bc d292 dcbd fe31 f5bc
00000280: c3a5 5b3b 73f3 9c3c b747 f1bc e84c 8dbd
00000290: a08b 6ebd eb1b 81bd 6e1f 93bd 9f50 92bd
000002a0: 4f03 083d efd9 7abd e36a 50bd 9c4b 86bd
000002b0: c360 fbbc 5d17 aabc fd99 77bc 8c5b 3bbc
000002c0: 8e7d 6bbd ced7 9abd e3f5 79bd 44ff 2cbc
000002d0: b724 7bbd 6815 99bd cc82 d33b 061d 33bd
000002e0: 9b9f 4cbd 5c13 42bd 9ad1 98bd ab22 80bd
000002f0: 44c6 40bc bcbb 1ebd a296 9cbb eac9 053d
00000300: 36ba 27bd 1dbc ccbc 3209 64bd 0117 6cbd
00000310: 803e 7dbd 7a46 23bd 92b4 93bd 1da1 88bd
00000320: 561c 843c d66d 0ebd 949a 96bd 1138 a6bc
00000330: 4f1d b7bc 37c8 41bd e010 85bd 8794 65bd
00000340: d080 62bc 50c8 77bd 54ae 52bc 7f16 37bd
00000350: 0d77 8fbd 589a c5bc 8489 fbbc 8cc2 8ebd
00000360: 5ebc 79bd 367c 88bc 10ab a3bd 657c 883c
00000370: e26f 29bd feb0 6b3d 1e2a 113d e030 5cbd
00000380: 5814 86bd ecc4 2bbd 1765 c7bc c663 453c
00000390: 87b5 f4ba cd7c e1bc 823a f33b 953c 80bd
000003a0: d9ee 0bbd 517e a53b d3c7 2cbd 9904 56bd
000003b0: 3c4c debd e530 2bbd 0b4d 99bd 767f 61bd
000003c0: 1f3d 44bc cc7b 99bc 8a71 63bd 5cb2 8fbc
000003d0: c68a f7bb 4b65 0f3d cbd2 35bd 5e4f 303d
000003e0: 721a 76bd d271 c1bc f5af 01bd 9937 11bd
000003f0: 5eb6 81bd 17be 2cbd 4046 a7bd 95f9 21bd

conv.0.gcn_layer.fc.weight f4 [256, 256]
0.043872014 0.022389362 0.1754326 -0.21951032 -0.2565602 -0.095617056 -0.05796319 0.008569563
-0.006338725 -0.0040307255 -0.068950765 -0.3545255 0.048234344 0.06195231 0.008185716 -0.009938097
-0.008283898 -0.044154257 0.19223116 -0.090847805 -0.09243578 0.017596006 -0.029536711 0.038439568
0.12115456 -0.17948273 -0.007668481 0.2419911 0.042155992 0.028304888 0.12692423 -0.15020145
-0.095242865 -0.1797326 -0.15552859 -0.10687817 0.0015601086 -0.005917988 -0.2277735 -0.005464631
-0.050052352 0.21916564 -0.1723596 0.11031246 -0.046835177 0.053042 -0.1566519 0.046678547
-0.13969153 0.10286345 0.021241777 0.03903014 -0.05986026 0.015110558 0.07518008 0.002365243
-0.10962937 -0.022742942 0.07673806 -0.12645966 0.14384758 0.12864842 0.12272139 0.08016009
0.05464291 0.016214885 -0.15658131 -0.09153405 0.037559826 -0.11220919 -0.066516735 -0.009534145
-0.073404506 -0.09815093 -0.0100818705 0.077582195 0.14746538 0.10031776 -0.2103016 0.108306915
-0.13243818 -0.11914439 0.23897551 -0.35660288 -0.057770543 0.085599266 -0.031562705 0.116422765
0.017984452 0.18647999 0.047781527 -0.0113080535 0.011903367 0.045576796 -0.27356827 0.031882893
0.071397945 -0.059831336 -0.08743473 -0.27132472 -0.013412324 -0.05376001 0.050377816 0.097395435
0.107395805 0.05208393 0.079585835 -0.18756756 0.2526739 0.17087916 0.11650365 0.12092267
0.12350846 -0.02367693 0.06242195 0.12597655 0.11916797 -0.045566846 0.074531294 0.1632505
-0.10808014 -0.09751496 0.06221243 -0.105982475 0.104483314 0.070755415 -0.34102976 -0.036870465
0.1079917 -0.051321443 -0.027731048 -0.19889605 -0.05939749 0.028381983 0.057947133 -0.020485897
0.0009327359 -0.13899204 0.052773703 -0.0013686325 0.12787667 -0.0415105 0.04826072 0.19813423
-0.024513077 0.3765751 0.04772565 -0.019766757 0.20400901 0.05715094 -0.1104525 0.13347231
-0.13546227 -0.11553608 0.13340032 -0.41078565 -0.24465765 0.016689155 0.032764886 -0.14414869
0.2286244 0.12157964 0.022962777 0.1306059 -0.04917978 0.004671242 -0.09904861 0.031539712
0.17374226 0.0091660805 0.08097717 0.092308566 0.04875376 -0.31095925 -0.07680067 -0.040274985
-0.0094402125 0.055047285 -0.06847523 -0.14586142 -0.13635918 -0.024819471 -0.13387023 0.039349556
0.16135503 0.08943644 0.13479333 -0.16288732 0.008528205 -0.21696922 0.018919738 -0.21781188
-0.11178435 0.050977644 -0.27827257 -0.107356146 0.037923258 -0.26710075 0.18046302 -0.1549351
-0.12404324 0.17521884 -0.22618203 -0.11826084 0.10048022 0.050634112 -0.029915761 -0.028635029
-0.31205305 0.24860002 0.086939715 0.03916117 0.0704525 0.103886984 -0.046323042 0.17542234
0.061866067 -0.019591728 0.046213455 0.37101525 -0.064303234 -0.20390414 -0.13727951 0.12010558
0.17547154 -0.0024043533 0.11438317 0.42502868 -0.011451285 0.045309894 0.040839598 0.16601662
-0.08507607 -0.032942034 0.059444737 0.4085909 0.0029362957 0.03732575 -0.035368554 -0.025721546
0.06527039 -0.10594131 -0.18136017 0.10862467 -0.098855205 -0.03486487 -0.0731048 0.018246142
-0.27512783 -0.11451804 0.01284373 0.2597018 -0.1937779 0.32981154 -0.15655778 0.08947882
00000000: 24b3 333d e569 b73c 9aa4 333e 50c7 60be
00000010: dc5b 83be e0d2 c3bd cf6a 6dbd 5a67 0c3c
00000020: 14b5 cfbb 2d14 84bb 0f36 8dbd 5e84 b5be
00000030: 6091 453d b5c1 7d3d 621d 063c 66d3 22bc
00000040: 30b9 07bc 18db 34bd 3fd8 443e 6a0e babd
00000050: f84e bdbd 8025 903c f9f6 f1bc cf72 1d3d
00000060: e21f f83d 52ca 37be e247 fbbb 84cc 773e
00000070: c3ab 2c3d a7df e73c 6df8 013e 69ce 19be
00000080: b10e c3bd d30b 38be e342 1fbe f1e2 dabd
00000090: 8f7c cc3a aeeb c1bb 753d 69be a610 b3bb
000000a0: b203 4dbd f56c 603e 097f 30be 80eb e13d
000000b0: 3ed6 3fbd 9142 593d 5b69 20be 0132 3f3d
000000c0: 4c0b 0fbe 13aa d23d 3c03 ae3c 11de 1f3d
000000d0: 0830 75bd 4692 773c 04f8 993d 3102 1b3b
000000e0: 5d85 e0bd 684f babc d828 9d3d a47e 01be
000000f0: c84c 133e 69bc 033e 5a55 fb3d f92a a43d
00000100: 3ed1 5f3d 14d5 843c da56 20be 3476 bbbd
00000110: 55d8 193d efcd e5bd ed39 88bd 1a35 1cbc
00000120: 1a55 96bd 5b03 c9bd 6e2e 25bc 6ae3 9e3d
00000130: 2a01 173e 6673 cd3d 4d59 57be 04d0 dd3d
00000140: e09d 07be f901 f4bd ffb5 743e a794 b6be
00000150: cea0 6cbd ab4e af3d e547 01bd 0f6f ee3d
00000160: 2154 933c 9cf4 3e3e 90b6 433d 6a45 39bc
00000170: 5706 433c bcae 3a3d 2411 8cbe a397 023d
00000180: 1639 923d b411 75bd fb10 b3bd 13eb 8abe
00000190: 5dbf 5bbc 7533 5cbd f858 4e3d 4277 c73d
000001a0: 55f2 db3d f555 553d e6fd a23d b611 40be
000001b0: 795e 813e f2fa 2e3e 7799 ee3d 4ea6 f73d
000001c0: 01f2 fc3d 1ff6 c1bc 29ae 7f3d ffff 003e
000001d0: 560e f43d 4da4 3abd dda3 983d 242b 273e
000001e0: 1f59 ddbd ecb5 c7bd 76d2 7e3d 570d d9bd
000001f0: 59fb d53d 37e8 903d 749b aebe 7c05 17bd
00000200: c12a dd3d 6f36 52bd 392c e3bc 68ab 4bbe
00000210: c84a 73bd 5581 e83c f959 6d3d 0ad2 a7bc
00000220: d982 743a ee53 0ebe 3d29 583d b063 b3ba
00000230: 1af2 023e ea06 2abd 08ad 453d b3e3 4a3e
00000240: a6cf c8bc 74ce c03e f97b 433d e5ed a1bc
00000250: bde7 503e 1b17 6a3d ec34 e2bd f7ac 083e
00000260: 9fb6 0abe 2e9e ecbd 189a 083e 7f52 d2be
00000270: 8987 7abe b2b7 883c 7934 063d b79b 13be
00000280: 841c 6a3e bffe f83d 6f1c bc3c 8ebd 053e
00000290: bd70 49bd 3811 993b ffd9 cabd c92f 013d
000002a0: 7ee9 313e 542d 163c 5cd7 a53d 460c bd3d
000002b0: 06b2 473d 0d36 9fbe ab49 9dbd 62f7 24bd
000002c0: 1fab 1abc 4379 613d be3c 8cbd b25c 15be
000002d0: bea1 0bbe 3452 cbbc 4715 09be 002d 213d
000002e0: 413a 253e 742a b73d 4307 0a3e efcb 26be
000002f0: e2b9 0b3c 2e2d 5ebe 91fd 9a3c 140a 5fbe
00000300: 31ef e4bd efcd 503d be79 8ebe 8add dbbd
00000310: 6b55 1b3d 6ec1 88be 4ccb 383e 4fa7 1ebe
00000320: 620a febd 916c 333e 439c 67be bd32 f2bd
00000330: 93c8 cd3d b765 4f3d e611 f5bc 0294 eabc
00000340: 6bc5 9fbe 0191 7e3e 730d b23d 7767 203d
00000350: 6649 903d b3c2 d43d 3bbd 3dbd eaa1 333e
00000360: 4667 7d3d d57e a0bc 524a 3d3d b6f5 bd3e
00000370: 6ab1 83bd 3fcc 50be 0093 0cbe eaf9 f53d
00000380: d0ae 333e 5b92 1dbb b941 ea3d 5c9d d93e
00000390: 2c9e 3bbc de96 393d 6c47 273d 4300 2a3e
000003a0: 5d3c aebd 3aee 06bd 537c 733d d432 d13e
000003b0: de6e 403b e3e2 183d 9ede 10bd feb5 d2bc
000003c0: 7bac 853d c2f7 d8bd 7bb6 39be 9c76 de3d
000003d0: 9974 cabd 77ce 0ebd f8b7 95bd ef78 953c
000003e0: 8edd 8cbe 6f88 eabd 826e 523c a2f7 843e
000003f0: b76d 46be 0fdd a83e af50 20be ac40 b73d

src_mlp.weight f4 [128, 256]
-0.10829239 0.047466777 0.1064637 0.07790236 -0.24733579 -0.097569026 -0.08875614 -0.09039648
0.030204836 0.008656905 0.011408025 -0.034056585 -0.031004826 -0.02003802 -0.003145096 0.041292842
-0.0024710593 -0.08459122 -0.11983639 -0.05960778 -0.12681912 -0.105964325 -0.060127772 0.009009372
-0.117470875 -0.12070254 -0.028178833 -0.046446677 -0.0808498 0.029850582 -0.078027114 -0.025497917
-0.0868738 -0.053062864 -0.08211082 -0.051040597 0.02273089 -0.12151542 -0.07263091 0.003717741
0.009227236 0.04984165 -0.010945114 -0.044356372 -0.0914974 -0.09517658 -0.01985693 -0.03725489
0.08502243 0.04564726 -0.11241499 -0.076034635 -0.057675596 -0.07898961 -0.010266533 -0.014583333
-0.09144288 -0.074559554 -0.13178892 0.022305472 -0.014249498 0.013019137 0.118954845 0.06814999
-0.049174085 -0.026041422 -0.09857318 -0.06715339 0.015684273 0.028931102 -0.09421446 -0.07069908
-0.057738103 -0.1336648 -0.059909217 -0.04903839 0.10455947 -0.040075812 -0.06650803 -0.12014506
-0.027596017 -0.08822574 0.011298869 -0.019094003 -0.0753649 0.018648356 -0.034846134 -0.058931645
0.043718707 -0.07666404 -0.10036643 -0.02753098 0.0015586519 -0.09155406 -0.051031873 -0.01590521
0.024113283 -0.035558023 -0.0057119816 -0.046926763 -0.054946546 -0.14411569 0.00438569 -0.05411555
-0.01097283 -0.0788468 -0.031035295 -0.10354453 -0.025550928 -0.08562185 0.06444367 -0.14228268
-0.06338063 -0.035703544 -0.021333257 -0.12909275 -0.061614454 -0.087774746 0.072625116 -0.12045475
0.06396269 -0.082769506 0.01235155 -0.15934636 -0.0736296 0.07009772 -0.024119101 -0.13133843
-0.1443686 -0.016727094 -0.008187409 0.023821987 0.009398592 0.038503367 -0.03504675 -0.08011035
-0.008162324 -0.10636126 -0.01059531 -0.0046292953 -0.12931836 0.06513034 0.03056558 -0.039004814
0.002680855 0.023344366 -0.07798428 -0.08206192 0.0035052083 -0.16493112 -0.1367621 -0.08256106
-0.089023106 0.0009393566 -0.07927555 0.06940535 -0.023347687 -0.060570512 0.004132324 -0.095495276
-0.036556527 -0.18252555 -0.1250468 -0.12934127 0.005837784 0.018173367 -0.0333919 -0.04180487
-0.07918388 -0.09029951 -0.08532599 0.0023772274 -0.23998655 -0.05823123 -0.10933454 -0.03836289
0.108722925 -0.022841984 -0.023023935 -0.03142346 -0.064126536 -0.074699566 -0.007171004 -0.048242997
0.011143548 -0.042106707 0.08784018 -0.01751077 -0.14626616 0.04232659 -0.042723678 -0.009608029
0.0115171885 -0.08000396 -0.0869882 -0.062279742 -0.085013315 -0.14349072 -0.0052240123 -0.010777953
-0.045769338 -0.05375903 -0.030419497 2.9032384e-05 -0.04470049 0.036954064 0.030336438 0.08850642
-0.021606402 0.031308856 0.002552588 -0.022058077 -0.08267578 0.011689696 -0.03116124 -0.02345251
-0.008940887 0.057464473 -0.009910835 0.015238969 -0.0170324 -0.09087919 -0.08367632 -0.022266237
0.11621424 -0.08890223 0.0074658296 -0.15818225 -0.07883916 -0.06764623 -0.10062101 -0.0101493485
-0.06367445 -0.11284748 -0.13972534 -0.08725398 0.045204073 -0.049171742 0.028781788 0.09458324
-0.09615804 -0.07708761 -0.004608779 -0.055681456 -0.16622436 -0.08120499 0.007947134 -0.06896833
-0.010461264 -0.032439426 -0.1595365 -0.04821854 0.034168255 -0.0659737 -0.035674747 0.008264476
00000000: 67c8 ddbd 866c 423d a409 da3d 468b 9f3d
00000010: 9845 7dbe 45d2 c7bd c7c5 b5bd ca21 b9bd
00000020: 2270 f73c b1d5 0d3c bae8 3a3c eb7e 0bbd
00000030: d5fd fdbc c626 a4bc f41d 4ebb af22 293d
00000040: 7ff1 21bb 293e adbd c86c f5bd 4a27 74bd
00000050: dfdc 01be d303 d9bd 8a48 76bd 0c9c 133c
00000060: 9294 f0bd e532 f7bd 4cd7 e6bc df3e 3ebd
00000070: 9494 a5bd 3589 f43c aecc 9fbd 02e1 d0bc
00000080: e4ea b1bd 7258 59bd b829 a8bd f20f 51bd
00000090: 2236 ba3c 14dd f8bd 84bf 94bd 58a5 733b
000000a0: d52d 173c c226 4c3d 2353 33bc 07af 35bd
000000b0: fd62 bbbd f0eb c2bd 00ab a2bc 9598 18bd
000000c0: 3d20 ae3d 9ff8 3a3d d539 e6bd 0cb8 9bbd
000000d0: 3f3d 6cbd 4ec5 a1bd f634 28bc efee 6ebc
000000e0: 6846 bbbd aeb2 98bd adf3 06be f7b9 b63c
000000f0: ba76 69bc 384e 553c 999e f33d 3992 8b3d
00000100: c46a 49bd d254 d5bc bce0 c9bd b787 89bd
00000110: 4e7c 803c eb00 ed3c 83f3 c0bd aeca 90bd
00000120: ca7e 6cbd 6ddf 08be 5e63 75bd 7bdc 48bd
00000130: 4723 d63d 8926 24bd 5d35 88bd 9d0e f6bd
00000140: 0b11 e2bc b2af b4bd e41e 393c 076b 9cbc
00000150: ea58 9abd 70c4 983c d2ba 0ebd 4f62 71bd
00000160: 6312 333d 0902 9dbd ea8c cdbd a688 e1bc
00000170: ae4b cc3a b280 bbbd cc06 51bd a54b 82bc
00000180: 3889 c53c 4aa5 11bd 932b bbbb 4736 40bd
00000190: a10f 61bd 1093 13be d6b5 8f3b 44a8 5dbd
000001a0: 62c7 33bc 6e7a a1bd bb3d febc 280f d4bd
000001b0: 2e50 d1bc 825a afbd 0bfb 833d 8db2 11be
000001c0: b4cd 81bd e13d 12bd 15c3 aebc e430 04be
000001d0: 705f 7cbd 3fc3 b3bd 7abc 943d fbb0 f6bd
000001e0: dffe 823d 0f83 a9bd 285e 4a3c b12b 23be
000001f0: 1ecb 96bd 658f 8f3d 6c95 c5bc 957d 06be
00000200: 5dd5 13be 4207 89bc 7b24 06bc 5426 c33c
00000210: 8dfc 193c b5b5 1d3d 2e8d 0fbd e510 a4bd
00000220: 45bb 05bc efd3 d9bd f397 2dbc 58b1 97bb
00000230: 086c 04be 0e63 853d ab64 fa3c 83c3 1fbd
00000240: 49b1 2f3b af3c bf3c 39b6 9fbd 1410 a8bd
00000250: a3b7 653b b4e3 28be 5d0b 0cbe c615 a9bd
00000260: bf51 b6bd 283f 763a 385b a2bd 6424 8e3d
00000270: a643 bfbc c918 78bd 7268 873b 0793 c3bd
00000280: 4cbc 15bd fae7 3abe 450c 00be 0a72 04be
00000290: e24a bf3b 50e0 943c f2c5 08bd 953b 2bbd
000002a0: 282b a2bd f3ee b8bd 65bf aebd 42cb 1b3b
000002b0: 09bf 75be df83 6ebd caea dfbd 6822 1dbd
000002c0: 20aa de3d 1d1f bbbc b19c bcbc e3b5 00bd
000002d0: c654 83bd 16fc 98bd befa eabb 739a 45bd
000002e0: 6e93 363c 1578 2cbd 8de5 b33d bf72 8fbc
000002f0: ccc6 15be a55e 2d3d 06ff 2ebd ff6a 1dbc
00000300: 97b2 3c3c 1ed9 a3bd df26 b2bd 0b19 7fbd
00000310: 761b aebd 3bef 12be 312e abbb 0396 30bc
00000320: a178 3bbd 6e32 5cbd 4f32 f9bc 928a f337
00000330: dc17 37bd 255d 173d 1f84 f83c db42 b53d
00000340: e9ff b0bc b73d 003d 5249 273b 24b3 b4bc
00000350: eb51 a9bd 2486 3f3c db45 ffbc 7a1f c0bc
00000360: cc7c 12bc de5f 6b3d 0e61 22bc deac 793c
00000370: 8887 8bbc de1e babd 7e5e abbd af67 b6bc
00000380: bb01 ee3d 5f12 b6bd eba3 f43b 87fa 21be
00000390: 6d76 a1bd 1b8a 8abd 6312 cebd 7449 26bc
000003a0: c067 82bd 941c e7bd 2914 0fbe 37b2 b2bd
000003b0: e827 393d 4f68 49bd c9c7 eb3c dcb4 c13d
000003c0: 82ee c4bd 1ce0 9dbd 3e05 97bb 3d12 64bd
000003d0: b836 2abe cd4e a6bd b234 023c 453f 8dbd
000003e0: b965 2bbc 34df 04bd 895d 23be ce80 45bd
000003f0: 03f4 0b3d 381d 87bd af1f 12bd ba67 073c

src_mlp.bias f4 [128]
-0.013613761 0.04259371 -0.024442986 -0.011369734 -0.016986987 0.014157051 0.028393203 0.011592336
0.05268645 0.0077807102 0.040324233 0.01955098 -0.041652743 0.019661581 -0.030024337 -0.050496288
0.016730236 0.097358435 -0.00912512 0.0021194858 0.021136925 -0.02474359 0.038547073 -0.14759265
-0.043130904 -0.32015565 0.03271341 -0.064128764 -0.033461634 -0.04161241 -0.17799369 0.0985768
0.0054921587 0.013335982 0.022631489 -0.121967286 -0.036642313 0.011774881 -0.005413494 -0.023714658
-0.055434253 0.055503152 0.0063794167 -0.013932233 -0.36330348 0.010654853 -0.103700414 0.0015618774
-0.0011322323 -0.0044210604 0.028410934 -0.00021118145 0.0069315284 0.016334277 -0.36372107 0.06393071
0.033909973 -0.00015433533 -0.067447506 -0.04825745 -0.07410004 -0.012720179 0.012281197 0.04148122
-0.0020820056 -0.04228864 0.048246693 -0.014548427 0.0059140916 -0.013532739 -0.078202404 0.01299169
-0.08592585 -0.042722635 0.013945597 0.012301347 -0.00912818 -0.0345603 0.11397753 0.019076442
-0.07497881 0.07425118 -0.030252807 0.113156855 -0.06503712 -0.074081995 -0.0041191275 -0.08542805
-0.07117956 -0.008535176 0.009898163 0.023547344 0.007223252 -0.22541794 -0.06757197 -0.014577619
-0.12717356 0.052983765 0.010478977 -0.01894231 -0.060003396 0.04407822 0.036653012 0.0066233696
0.057160303 0.10947227 0.017643064 0.046925128 -0.041358992 0.0002631976 0.017926237 0.001899372
-0.019290738 0.006916434 -0.035956755 0.028330306 0.0064750216 0.00060506584 -0.020884564 0.010605563
-0.022774372 -0.0054526855 -0.05243136 -0.038019244 0.021115527 -0.43137068 -0.04987083 -0.27753344
00000000: 410c 5fbc be76 2e3d a83c c8bc 1f48 3abc
00000010: 4b28 8bbc faf2 673c dd98 e83c c8ed 3d3c
00000020: bfcd 573d 54f5 fe3b 062b 253d 6029 a03c
00000030: 119c 2abd 5311 a13c 99f5 f5bc 32d5 4ebd
00000040: d90d 893c dc63 c73d 8781 15bc 12e7 0a3b
00000050: 5827 ad3c 12b3 cabc 89e3 1d3d 8722 17be
00000060: 08aa 30bd 71eb a3be 7ffe 053d f155 83bd
00000070: 110f 09bd c671 2abd fa43 36be a2e2 c93d
00000080: 91f7 b33b 2a7f 5a3c ac65 b93c fcc9 f9bd
00000090: 4016 16bd 6eeb 403c ae63 b1bb 3e45 c2bc
000000a0: 070f 63bd 4657 633d 6d0a d13b 0544 64bc
000000b0: ea02 babe b191 2e3c e260 d4bd e9b7 cc3a
000000c0: 6967 94ba 8bde 90bb 0cbe e83c 9770 5db9
000000d0: e021 e33b 76cf 853c a639 babe 1bee 823d
000000e0: 2fe5 0a3d 13d5 21b9 eb21 8abd 9ba9 45bd
000000f0: c3c1 97bd 4c68 50bc 1337 493c 36e8 293d
00000100: 4272 08bb da36 2dbd 539e 453d 875c 6ebc
00000110: ffca c13b 6cb8 5dbc 9528 a0bd 19db 543c
00000120: e4f9 afbd eefd 2ebd 137c 643c 978b 493c
00000130: 5d8e 15bc 1a8f 0dbd 0d6d e93d 3346 9c3c
00000140: 7e8e 99bd 0111 983d bcd4 f7bc c8be e73d
00000150: 2e32 85bd 4db8 97bd bff9 86bb e7f4 aebd
00000160: 97c6 91bd 1fd7 0bbc e82b 223c 5ce6 c03c
00000170: 08b1 ec3b f6d3 66be 2c63 8abd f7d6 6ebc
00000180: c939 02be 8105 593d 04b0 2b3c e72c 9bbc
00000190: 1fc6 75bd 5d8b 343d 7821 163d da08 d93b
000001a0: ec20 6a3d ff32 e03d 3088 903c 9034 403d
000001b0: 0c68 29bd c9fd 8939 0bda 923c 59f4 f83a
000001c0: 9c07 9ebc 41a3 e23b 6447 13bd f514 e83c
000001d0: 6b2c d43b 489d 1e3a 1b16 abbc f5c2 2d3c
000001e0: 5291 babc 71ac b2bb 44c2 56bd 11ba 1bbd
000001f0: 78fa ac3c 9edc dcbe 5b45 4cbd dd18 8ebe

dst_mlp.weight f4 [128, 256]
0.16682921 0.11354024 0.1548029 0.20609707 -0.03294176 0.08683128 -0.011240359 0.05701614
0.15528925 0.14124769 0.12248545 0.13889183 0.08531767 0.096727304 0.103854604 0.120880276
0.15038005 0.06822268 0.025893288 0.063404664 0.07304539 0.0038594387 0.04051025 0.076530494
0.05824969 0.042787578 0.13765702 0.12627997 0.1584178 0.1642102 -0.0050971936 0.06928018
0.05289176 0.13206081 0.021385401 0.07932284 0.094736025 0.00042216037 0.03952941 0.07730762
0.1451236 0.11445586 0.01871285 0.13112327 0.16994277 0.07307548 0.0645351 0.11852149
0.17113 0.10435053 0.07480667 0.118193984 0.13902016 -0.050647277 0.13169147 0.09320145
0.058533978 0.114326 -0.061981354 0.07558024 -0.011511892 0.1206756 0.11197533 0.2164283
0.015198069 0.17543317 0.072428994 0.060803343 0.031820126 0.14620735 0.14233527 -0.006344841
0.03212388 -0.006151555 0.07701851 0.06650332 0.14217778 0.1186751 0.042391397 0.10536503
0.05366606 -0.0034007966 0.0037994317 0.12899499 0.042873748 0.097748876 0.11282635 0.086528294
0.1239222 0.1651337 0.10649647 0.06491215 0.108285174 -0.010617174 0.16018002 0.11149623
0.06254575 0.049022183 0.08505858 0.06829085 0.06595494 0.10952102 0.1770299 0.15952693
0.1643625 0.11420634 0.13002494 0.16322085 0.07057361 0.08803877 0.0921948 0.117823884
0.08877929 0.09150735 0.022671109 -0.030307323 -0.018191285 0.12421638 0.21343817 0.11568816
0.14412245 0.061789937 0.14582142 0.09669733 0.06896861 0.14704868 0.10764713 0.049024038
0.0505171 0.11553081 0.019852743 0.17770329 0.18084246 0.13411719 0.090186656 0.09849019
0.080170564 0.100687005 0.14414847 0.120316096 -0.018777234 0.16042073 0.06748825 0.07183999
0.039932393 0.102013685 -0.03212665 0.062110923 0.03514223 0.015460732 0.016086431 0.034627672
0.06046327 0.09531929 0.06602527 0.00054094853 0.12977165 0.011483433 0.1263905 0.044998206
-0.0022789591 -0.046920247 0.0069300225 0.06840687 0.14956175 0.17400771 0.11523059 0.08135837
0.06033856 -0.009274948 0.052839432 0.069795474 0.024266759 0.128917 0.08066739 0.12694514
0.09545544 0.112588495 0.10994022 0.106748246 0.022244807 0.08097536 0.0698157 0.21285746
0.13252655 0.07334799 0.17142932 0.15754761 -0.015582318 0.14381534 0.17226474 0.08216979
0.13131042 -0.012069758 0.07194484 0.14892945 0.06169723 -0.009278699 0.12762211 0.09186718
0.22869702 0.1145138 0.14269435 0.12631057 0.12343066 0.107844055 0.105997086 0.18795401
0.042865228 0.082107775 0.09052026 0.085384406 0.09523076 0.09647297 0.052319888 0.106258295
0.07417227 0.16992974 0.100533575 0.1369163 0.16280542 0.032335833 -0.05632737 0.15082696
0.16186513 0.13721135 -0.03493668 0.08623322 0.07048801 0.020021107 0.22143883 0.13832285
0.057304453 0.05229101 0.005266677 0.11208242 0.15660045 0.1426677 0.16307658 0.14194311
0.10425082 0.06631651 0.069830015 0.15615357 0.017216224 0.012221953 0.15048158 0.018697364
0.074154146 0.17658895 0.066974126 0.022224812 0.11492386 0.0990936 0.14758341 0.0154907275
00000000: 47d5 2a3e c987 e83d a784 1e3e 1c0b 533e
00000010: f0ed 06bd 99d4 b13d 7c29 38bc c289 693d
00000020: 2504 1f3e 3ca3 103e a7d9 fa3d a939 0e3e
00000030: 08bb ae3d f718 c63d b9b1 d43d 1490 f73d
00000040: 3afd 193e 55b8 8b3d 291e d43c 4eda 813d
00000050: d298 953d a3ee 7c3b 13ee 253d 05bc 9c3d
00000060: 3a97 6e3d 0742 2f3d f6f5 0c3e 894f 013e
00000070: 4738 223e b826 283e 5c06 a7bb c4e2 8d3d
00000080: 08a5 583d f33a 073e 7030 af3c 0374 a23d
00000090: f604 c23d 6855 dd39 97e9 213d 7553 9e3d
000000a0: 489b 143e d567 ea3d b14b 993c 2e45 063e
000000b0: 7a05 2e3e 99a8 953d fa2a 843d 65bb f23d
000000c0: b43c 2f3e bbb5 d53d 3d34 993d b00f f23d
000000d0: 4d5b 0e3e 8573 4fbd 21da 063e 67e0 be3d
000000e0: 53c1 6f3d c023 ea3d 29e0 7dbd d0c9 9a3d
000000f0: 609c 3cbc c524 f73d 5253 e53d 619f 5d3e
00000100: 5201 793c c1a4 333e a755 943d ed0c 793d
00000110: d255 023d 61b7 153e 56c0 113e 62e8 cfbb
00000120: 5494 033d fc92 c9bb e1bb 9d3d e532 883d
00000130: 0d97 113e ee0b f33d 9aa2 2d3d 9fc9 d73d
00000140: f1d0 5b3d e6df 5ebb e3ff 783b 4317 043e
00000150: 629c 2f3d 9030 c83d 8011 e73d bf35 b13d
00000160: ecca fd3d cf18 293e d21a da3d a9f0 843d
00000170: 9ec4 dd3d a8f3 2dbc 3b06 243e 2358 e43d
00000180: fc17 803d 7ccb 483d 3133 ae3d 13dc 8b3d
00000190: 6213 873d 8e4c e03d 5347 353e 075b 233e
000001a0: a54e 283e 03e5 e93d 4225 053e 5e23 273e
000001b0: e688 903d ac4d b43d a1d0 bc3d a64d f13d
000001c0: ebd1 b53d 3568 bb3d c3b8 b93c 1047 f8bc
000001d0: e405 95bc 2865 fe3d 898f 5a3e eaed ec3d
000001e0: d694 133e 7217 7d3d 3652 153e 4009 c63d
000001f0: 6a3f 8d3d ee93 163e 1976 dc3d 6ecd 483d
00000200: 05eb 4e3d 6b9b ec3d 38a2 a23c daf7 353e
00000210: c42e 393e 0456 093e c8b3 b83d 3ab5 c93d
00000220: 7730 a43d fd34 ce3d a89b 133e 4968 f63d
00000230: b7d2 99bc 5545 243e 4837 8a3d d820 933d
00000240: 2690 233d 8dec d03d 3c97 03bd 0668 7e3d
00000250: 4df1 0f3d 034f 7d3c b1c7 833c bfd5 0d3d
00000260: 55a8 773d c336 c33d 4238 873d 71ce 0d3a
00000270: dce2 043e 0225 3c3c 836c 013e 0a50 383d
00000280: 975a 15bb 722f 40bd 3e15 e33b e718 8c3d
00000290: b726 193e 142f 323e 04fe eb3d 389f a63d
000002a0: 9125 773d f4f5 17bc 296e 583d eef0 8e3d
000002b0: 15cb c63c d102 043e f234 a53d e8fd 013e
000002c0: 247e c33d cc94 e63d 5728 e13d d39e da3d
000002d0: be3a b63c 69d6 a53d 89fb 8e3d 4ef7 593e
000002e0: 0ab5 073e 7937 963d 2b8b 2f3e 2954 213e
000002f0: fb4c 7fbc 5444 133e 2b66 303e a348 a83d
00000300: 3d76 063e 3cc0 45bc d157 933d f680 183e
00000310: 3cb6 7c3d af05 18bc 5faf 023e dc24 bc3d
00000320: 8d2f 6a3e 3686 ea3d 781e 123e 8f57 013e
00000330: 37c9 fc3d 58dd dc3d 0015 d93d 0477 403e
00000340: 7393 2f3d 1f28 a83d b062 b93d 05de ae3d
00000350: 5808 c33d 9f93 c53d 614d 563d f39d d93d
00000360: a2e7 973d 1002 2e3e 8ce4 cd3d c933 0c3e
00000370: 77b6 263e 9472 043d 87b7 66bd 6272 1a3e
00000380: f9bf 253e 2281 0c3e c419 0fbd 0b9b b03d
00000390: 055c 903d 4e03 a43c dcc0 623e 81a4 0d3e
000003a0: 13b8 6a3d 192f 563d 1794 ac3b 788b e53d
000003b0: de5b 203e 7b17 123e 8cfd 263e 8959 113e
000003c0: 7481 d53d f3d0 873d 0a03 8f3d b9e6 1f3e
000003d0: 0a09 8d3c 963e 483c d817 1a3e 372b 993c
000003e0: 21de 973d bcd3 343e bb29 893d cf10 b63c
000003f0: 335d eb3d 96f1 ca3d 1b20 173e d2cc 7d3c
