checkpoint/voxceleb_sampler.ckpt (torch, 602897 bytes, 15 tensors)

conv.0.bias f4 [1, 256]
0	0xbd0ff454	-0.03514512
1	0xbceb38a6	-0.028713536
2	0xbc8d6471	-0.017259808
3	0xbd949b13	-0.072561406
4	0xbc0b171b	-0.0084893955
5	0xbd877f64	-0.06616095
6	0xbd46ae67	-0.048506167
7	0xbd97385a	-0.07383795
8	0xbd5e4204	-0.054262176
9	0xbd4b10a1	-0.049576405
10	0x3c4093ae	0.01175396
11	0xbce6087f	-0.028080223
12	0xbcd874a4	-0.026422806
13	0xbbf1826f	-0.007370285
14	0xbbce7cd8	-0.0063015036
15	0xbd79ffb9	-0.06103489
16	0xbd77fa93	-0.0605417
17	0xbd0c6b33	-0.03428192
18	0xbd3d055f	-0.0461477
19	0xbcc6007f	-0.024170158
20	0xbca2ddfe	-0.019881245
21	0xbcc159cd	-0.02360239
22	0xbcdf7ebe	-0.027282115
23	0xbd121772	-0.03566689
24	0xbcf10301	-0.029420378
25	0xbd5d34e5	-0.054005522
26	0xbcb1a9b3	-0.021687364
27	0xbd1c1d95	-0.03811415
28	0xbcfecc55	-0.031103292
29	0xbd595ac5	-0.05306508
30	0xbd3edb9f	-0.046596166
31	0xbcfcaa89	-0.030843036
32	0xbd047bdb	-0.03234468
33	0xbc212c03	-0.009837153
34	0xbce38d73	-0.02777741
35	0xbd898efb	-0.067167245
36	0xbbd6ecc6	-0.0065589873
37	0xbd03050e	-0.031987242
38	0xbcf8fa4d	-0.03039279
39	0xbc628e13	-0.013827818
40	0xbd4926a0	-0.0491091
41	0xbd5ec670	-0.054388463
42	0xbd26744d	-0.040638257
43	0xbd48a237	-0.048982825
44	0xbc9ec576	-0.019381266
45	0x3c8741ab	0.016510805
46	0xbd0b2163	-0.033967387
47	0xbb69d183	-0.0035677857
48	0xbcf440e5	-0.0298161
49	0xbd028c7f	-0.03187227
50	0xbcd51868	-0.026012614
51	0xbcbb9d46	-0.022902142
52	0xbd4b0057	-0.04956087
53	0xbd523022	-0.051315434
54	0xbceab1b0	-0.028649181
55	0x3b40ae2f	0.0029400697
56	0xbd0df02a	-0.034652866
57	0xbd6f140b	-0.058368724
58	0xbd4bb079	-0.049728844
59	0xbce23633	-0.027613735
60	0xbc877587	-0.016535534
61	0xbd6e88ae	-0.058235817
62	0xbc94c6be	-0.018161174
63	0xbcf329cf	-0.029683022
64	0xbccf9aad	-0.02534231
65	0xbc2191ad	-0.009861392
66	0xbd26e57a	-0.04074619
67	0xbc826596	-0.01591758
68	0xbc424d64	-0.011859272
69	0xbd121913	-0.035668444
70	0xbd2d9754	-0.042380646
71	0xbd0aaefb	-0.03385828
72	0xbd109e3d	-0.035307158
73	0xbbf7a65e	-0.0075576743
74	0xbc9433f8	-0.018091187
75	0xbcfe18d3	-0.031017696
76	0xbc2dccce	-0.010607911
77	0xbd384b35	-0.044993598
78	0xbcef14e4	-0.029184766
79	0xbcba38ed	-0.022732222
80	0xbb966fac	-0.004590949
81	0xbc7b21f3	-0.015327918
82	0xbc9887fb	-0.018619528
83	0xbd3eacc1	-0.04655147
84	0xbcfdd010	-0.030983001
85	0xbd1c4cd5	-0.03815921
86	0xbd3b175c	-0.045676574
87	0xbc18cd2b	-0.00932626
88	0xbcdf9b20	-0.027295649
89	0xbd3bdf89	-0.045867477
90	0xbc2130bf	-0.009838282
91	0xbd2c9018	-0.042129606
92	0xbc56a4c1	-0.013100804
93	0xbd8d7acb	-0.069081865
94	0xbcfaa2c4	-0.03059519
95	0xbca10c56	-0.019659203
96	0xbce79423	-0.02826888
97	0xbc99d5f6	-0.018778782
98	0xbd101ec3	-0.035185587
99	0xbc94e55a	-0.01817577
100	0xbcc4e460	-0.024034679
101	0xbc92e399	-0.017930793
102	0xbaa811a6	-0.0012822642
103	0xbd45cc09	-0.048290286
104	0xbaba87e0	-0.0014231168
105	0xbc995bc0	-0.018720508
106	0xbd80aa87	-0.062825255
107	0xbd227072	-0.039658017
108	0xbcad3cd6	-0.021147173
109	0xbc71461a	-0.014726186
110	0xbd4c7f77	-0.049926247
111	0xbd2f7439	-0.042835448
112	0x3b31ee28	0.0027150009
113	0xbd0d1201	-0.034440998
114	0xbd0b5ff5	-0.03402706
115	0xbc66414c	-0.014053654
116	0xbd2314e9	-0.039814863
117	0x3c5669ac	0.013086718
118	0xbd0e24e2	-0.034703143
119	0xbc8ee696	-0.017443936
120	0xbc496096	-0.012291094
121	0xbba6c7f3	-0.005089754
122	0xbd1c757b	-0.038197976
123	0xbca5c0e2	-0.020233575
124	0xbd62c813	-0.055366587
125	0xbcd68a36	-0.026188951
126	0xbd63e9f2	-0.05564303
127	0xbcbb4f96	-0.022865098
128	0xbd5b8ec0	-0.053602934
129	0xbcaf9f88	-0.021438375
130	0x3cf20486	0.029543173
131	0xbcef95e0	-0.02924627
132	0xbd3a7a17	-0.04552659
133	0xbd2eca26	-0.042673253
134	0xbc8e629d	-0.017381007
135	0xbc672d61	-0.01410994
136	0x3b6cc7f8	0.0036129933
137	0xbd5ffb71	-0.054683153
138	0xbce91359	-0.028451608
139	0xbc251deb	-0.010077934
140	0xbce7f7a9	-0.028316336
141	0xbd44abb0	-0.048015296
142	0xbd0c1567	-0.0342001
143	0xbd27e714	-0.040991858
144	0xbcfc8581	-0.030825378
145	0xbb963621	-0.0045840894
146	0xb9a99e24	-0.00032352016
147	0xbd355ea2	-0.044279702
148	0xb9f56bba	-0.00046810304
149	0xbcbb654a	-0.022875447
150	0xbce2d0dc	-0.027687483
151	0xbbfd6927	-0.0077334824
152	0xbc075109	-0.008259066
153	0xbcecabab	-0.028890451
154	0xbcedba62	-0.029019538
155	0x3ba01b6e	0.0048860824
156	0xbb7505ab	-0.0037387412
157	0xbc9ba242	-0.018998269
158	0xbcba06b1	-0.022708269
159	0xbc9df267	-0.019280626
160	0xbc6e6cb9	-0.014552289
161	0xbcd28fc6	-0.025703322
162	0xbcd3d23f	-0.02585709
163	0xbc8090a7	-0.015693976
164	0xbbfd723c	-0.007734565
165	0xbc7ea68f	-0.01554264
166	0xbc47a06e	-0.0121842455
167	0xbd6957b2	-0.0569684
168	0xbce67c82	-0.028135542
169	0xbd54e233	-0.051973533
170	0xbc508f54	-0.012729485
171	0xbcd47dbb	-0.02593886
172	0xbd1a9104	-0.037735954
173	0xbd405585	-0.046956558
174	0xbd4172ee	-0.047228746
175	0xbd082210	-0.03323561
176	0xbd8c4cd7	-0.068505935
177	0xbd1a7ab2	-0.037714668
178	0xba9d1b23	-0.0011986237
179	0xbd410ae9	-0.047129545
180	0xbc7b1bb1	-0.015326426
181	0xbd211fb8	-0.03933689
182	0xbd11a266	-0.035555266
183	0xbd393c80	-0.045223713
184	0xbcbbca25	-0.022923538
185	0x3d54a872	0.051918454
186	0xbbbffb2d	-0.0058588
187	0xbd0bd1d8	-0.03413567
188	0xbc357535	-0.011075308
189	0xbd207bbc	-0.039180502
190	0xbc26e788	-0.010187037
191	0xbd157b74	-0.036494687
192	0xbd3c71bf	-0.046006914
193	0x3b62d129	0.0034609532
194	0xbd26270b	-0.040564578
195	0xbb62febf	-0.0034636704
196	0xbd5a585c	-0.053306922
197	0x3a60cb3a	0.0008575205
198	0xbd306ffc	-0.043075547
199	0xbc7ea7be	-0.015542923
200	0xbcb6d56f	-0.02231857
201	0xbcb83fff	-0.022491453
202	0xbd29b4be	-0.041432135
203	0xbb8bb8ad	-0.0042639584
204	0xb848ba6f	-4.7857346e-05
205	0xbd2b17ef	-0.04177087
206	0xbceae6e1	-0.028674545
207	0xbcda2fd7	-0.02663414
208	0xbd08cd2d	-0.033398796
209	0xbd024fe7	-0.031814482
210	0xbcb8e89b	-0.022571852
211	0xbcc32374	-0.023820616
212	0xbd9cbd5c	-0.07653305
213	0xbcb6d038	-0.022316083
214	0xbd0f5e54	-0.035002068
215	0xbccc7794	-0.024959363
216	0x3c26c7df	0.010179489
217	0x3c677cef	0.014128908
218	0xbc85b457	-0.016321344
219	0xbd371df0	-0.044706285
220	0xbcb3fc8a	-0.021971006
221	0xbb4f8b01	-0.0031668546
222	0xbd26af7f	-0.04069471
223	0xbd51900e	-0.051162772
224	0xbce34beb	-0.027746161
225	0xbcd500d5	-0.026001373
226	0xbd5df117	-0.054185
227	0xbce6978f	-0.02814844
228	0xbd599220	-0.05311787
229	0xbd01100a	-0.031509437
230	0x3b740805	0.0037236225
231	0xbd394af5	-0.0452375
232	0xbd10e539	-0.035374854
233	0xbd4ccb9b	-0.04999886
234	0xbd4af2c9	-0.049547944
235	0x3c40629e	0.011742262
236	0xbc4c8c17	-0.012484572
237	0xbcaadce2	-0.020857278
238	0xbcedacb2	-0.029013012
239	0xbce9cf20	-0.028541148
240	0xbd345c56	-0.04403337
241	0xbc5c23b1	-0.013436244
242	0x3aaef59c	0.0013348344
243	0xbcae699b	-0.021290591
244	0xbcbc76a6	-0.023005795
245	0xbc80342f	-0.015649883
246	0xbd09a09c	-0.033600435
247	0xbd077300	-0.033068657
248	0xbc6068a5	-0.013696824
249	0xbc404646	-0.0117355045
250	0xbbac082c	-0.0052499976
251	0xbce38954	-0.027775444
252	0x3c034bc9	0.008013674
253	0x3b19649d	0.0023405917
254	0xbd543f32	-0.05181808
255	0xbc44561e	-0.011983423

conv.0.gcn_layer.attn_l f4 [1, 1, 256]
0	0x3d8d8c5c	0.06911537
1	0x3cfd5857	0.030925913
2	0xbe16ae7b	-0.14714997
3	0x3c864321	0.016389431
4	0xbb01b6c7	-0.0019792782
5	0xbd77d5bd	-0.06050657
6	0x3d5bf3ea	0.05369941
7	0x3d4df9de	0.05028712
8	0xbd642c1c	-0.05570613
9	0x3cd95677	0.026530487
10	0xbcfcc769	-0.030856805
11	0xbc31d069	-0.0108529115
12	0x3de025fa	0.109447435
13	0xbe509fe0	-0.20373487
14	0x3d425f6a	0.047454275
15	0xbd47d635	-0.048788268
16	0x3e7b13d2	0.2451928
17	0x3c5d78b0	0.013517544
18	0x3d52c585	0.0514579
19	0x3c94baca	0.018155474
20	0x3c3f6da9	0.01168386
21	0xbbeebcf2	-0.0072857076
22	0xbe0da399	-0.13831939
23	0xbd70a89b	-0.058754545
24	0x3c06c70d	0.008226168
25	0xbe0141d9	-0.12622775
26	0x3b7eaed4	0.003886153
27	0xbd182f7c	-0.03715466
28	0x3d9e39ae	0.07725845
29	0x3dc14570	0.09437072
30	0xbdd1a3d4	-0.10236326
31	0x3e1e192d	0.15439291
32	0x3c629b4f	0.013830974
33	0xbde05597	-0.10953825
34	0x3e125f21	0.14294101
35	0x3d06c4a6	0.032902382
36	0xbe58b966	-0.21164474
37	0x3e0bd854	0.13656741
38	0xbda392d0	-0.07986987
39	0xbda0d0b9	-0.07852311
40	0x3cde472f	0.027133552
41	0x3d9a818e	0.07544242
42	0x3e56a5e9	0.20961727
43	0xbcef3db0	-0.02920422
44	0xbe1e40f0	-0.15454459
45	0x3d865dc5	0.06560854
46	0x3cc818ed	0.024425948
47	0xbe35a0c7	-0.17737113
48	0xbd2150ed	-0.039383817
49	0x3d4b32c4	0.04960896
50	0x3e0dc801	0.13845827
51	0xbe143d8a	-0.144766
52	0xbd0c9931	-0.034325782
53	0xbb4df56b	-0.0031426798
54	0x3d577cd2	0.052609272
55	0xbdf55735	-0.11979524
56	0xbd27b863	-0.04094733
57	0xbd86a086	-0.06573586
58	0x3d4a71d7	0.049424972
59	0xbe5dce88	-0.21660817
60	0x3e0f721c	0.14008373
61	0xbe24ac1b	-0.16081278
62	0xbd273051	-0.040817562
63	0x3c69abe4	0.014262173
64	0xbd1f1bb7	-0.03884479
65	0x3d876f0a	0.06612976
66	0xbd286140	-0.04110837
67	0xbcf069ca	-0.02934732
68	0xbca4707b	-0.020073166
69	0xbb9cd9c5	-0.0047867023
70	0xbcd3dcd4	-0.025862135
71	0xbd764905	-0.06012823
72	0xbd66a394	-0.056308344
73	0x3e4183d3	0.18897943
74	0x3db24bf0	0.0870589
75	0x3e4952f5	0.19660552
76	0xbb05aa0c	-0.0020395545
77	0x3d6deefa	0.058089234
78	0x3d015157	0.031571712
79	0xbc574914	-0.013139982
80	0x3b85bcd1	0.0040813466
81	0x3cdaf0d2	0.02672616
82	0xbd8e86f6	-0.069593355
83	0x3ca38861	0.019962491
84	0x3e27f8b4	0.16403466
85	0xbd600626	-0.054693364
86	0x3daf45a3	0.08558204
87	0xbdd84727	-0.10560446
88	0xbddfba97	-0.10924261
89	0x3dc4c180	0.0960722
90	0x3d168f2c	0.036757633
91	0x3d66f023	0.056381356
92	0xbdc37df5	-0.09545509
93	0x3df0325e	0.11728357
94	0xbd182796	-0.037147127
95	0x3c40cf4a	0.011768172
96	0x3dde6437	0.10858958
97	0xbc19d099	-0.009388112
98	0xbc7984fe	-0.015229462
99	0xbc21ca45	-0.009874885
100	0x3db6d115	0.08926598
101	0xbdbc0fa1	-0.091826685
102	0xbdc8935f	-0.09793734
103	0xbca20b97	-0.019780917
104	0xbaeeb4f4	-0.0018211887
105	0xbd6dae96	-0.058027826
106	0x3d3572dd	0.044298995
107	0xbd186f12	-0.0372153
108	0xbdd5ffb8	-0.10449165
109	0x3e1028d9	0.14078082
110	0x3dbd4e54	0.092434555
111	0x3e03eccb	0.12883298
112	0xbb52a49b	-0.003214157
113	0xbcba188a	-0.02271678
114	0x3d98b6cd	0.074567415
115	0xbd84dc0b	-0.06487282
116	0xbe0fe7dc	-0.14053291
117	0xbdba1571	-0.09086121
118	0xbd6c79c7	-0.057733323
119	0xbdd6de56	-0.10491626
120	0x3dcb9ade	0.09941648
121	0xbc6022fe	-0.013680218
122	0xbe16c00e	-0.147217
123	0x3de09c95	0.10967366
124	0xbdf7b8f8	-0.12095827
125	0x3d4b13be	0.049579374
126	0xbd448ad0	-0.047983944
127	0xbdacd1ba	-0.0843844
128	0x3b78c5fd	0.0037959807
129	0x3d8d12df	0.06888365
130	0xbd0ec236	-0.034853183
131	0x3db98df5	0.09060279
132	0xbca786f5	-0.020450095
133	0xbe518398	-0.20460355
134	0xbc484fdd	-0.012226072
135	0xbd959a16	-0.0730478
136	0x3c8b7a8c	0.017026208
137	0x3cb2b4df	0.021814762
138	0xbd037ccd	-0.03210144
139	0xbd2897a7	-0.041160252
140	0x3c25f69b	0.010129596
141	0x3e158126	0.14600047
142	0x3d89dfb5	0.06732122
143	0x3e4858b0	0.19565082
144	0xbe6e9f5c	-0.23302978
145	0x3d07e275	0.03317495
146	0xbd828fa3	-0.06375053
147	0xbc98d43a	-0.018655885
148	0xbd23a16c	-0.039948866
149	0xbddd7edb	-0.108152114
150	0xbbc93d37	-0.0061413306
151	0xbd8335d0	-0.06406748
152	0xbdca65eb	-0.098827206
153	0x3dc9bd7a	0.09850593
154	0x3cad114a	0.021126408
155	0xbe2d24c1	-0.16908552
156	0x3c5ed73b	0.01360112
157	0xbe5669b7	-0.20938765
158	0x3bdcacf4	0.006734485
159	0x3de413db	0.111366
160	0xbe4b919d	-0.19879766
161	0xbd271b98	-0.0407978
162	0x3d0cb75f	0.034354564
163	0x3ded5759	0.11588926
164	0x3d9802ee	0.07422434
165	0x3d711394	0.05885656
166	0xbcc76552	-0.024340305
167	0x3d9335f0	0.07188022
168	0x3cec4153	0.028839743
169	0xbd6fe7b6	-0.058570586
170	0xbd887347	-0.066626124
171	0x3cd37c4e	0.025816109
172	0x3d44caa3	0.048044812
173	0xbd34f1ee	-0.044176035
174	0x3cbcfd97	0.02307014
175	0x3e208911	0.15677287
176	0xbc4502b0	-0.0120245665
177	0xbc8745f8	-0.016512856
178	0xbd327d79	-0.04357669
179	0xbd5e8d26	-0.05433383
180	0xbbd158c2	-0.0063887546
181	0x3d125397	0.03572425
182	0x3b1e8dd8	0.0024193432
183	0xbd1fd9ba	-0.039026
184	0x3d359703	0.04433347
185	0x3cb48714	0.022037067
186	0x3dc13f3a	0.09435888
187	0x3bb35a8b	0.00547344
188	0x3de500af	0.11181771
189	0x3da46849	0.08027703
190	0x3e04a2f2	0.12952784
191	0x3c821ab4	0.015881874
192	0xbda47ceb	-0.08031639
193	0xbd9643da	-0.073371604
194	0x3e01a234	0.12659532
195	0x3d0a5dba	0.03378079
196	0x3d5d8140	0.05407834
197	0x3d07ec19	0.033184145
198	0x3ceae73f	0.02867472
199	0x3c924319	0.01785426
200	0x3be057c0	0.006846398
201	0xbdc6c1b2	-0.09704913
202	0x3dea22bf	0.114324085
203	0x3d155c11	0.036464754
204	0x3d77a398	0.06045875
205	0x3c9529c5	0.018208394
206	0xbd983dcf	-0.07433664
207	0x3c82d094	0.015968598
208	0xbbee635f	-0.0072750296
209	0xbdeadbc3	-0.114676975
210	0x3d6b14c2	0.057392843
211	0xbdee0558	-0.11622113
212	0x3d99d9eb	0.07512268
213	0x3e41bb9c	0.18919224
214	0x3c67627b	0.014122601
215	0xbc73d46f	-0.014882191
216	0x3cda6bae	0.026662674
217	0x3da19e46	0.078915164
218	0x3bb49e16	0.0055120094
219	0x3da90402	0.082527176
220	0x3d64ea95	0.055887777
221	0x3940cf39	0.00018387743
222	0x3decba30	0.1155895
223	0x3d449b01	0.047999386
224	0x3e0e33f8	0.13887012
225	0xbcffb97f	-0.031216381
226	0xbcb2eb33	-0.021840667
227	0xbe07bbb7	-0.13255201
228	0x3d79b1c6	0.060960554
229	0x3daf380e	0.085556135
230	0x3bb3e661	0.00549011
231	0xbdd48042	-0.10376026
232	0xbc15f8b3	-0.009153533
233	0xbdf36914	-0.118852764
234	0x3ce07d9d	0.027403647
235	0x3d05e59c	0.032689676
236	0x3e93ca7c	0.2886542
237	0xbbfcdc69	-0.0077167046
238	0x3a8ec451	0.0010892247
239	0xbd0c6dca	-0.03428439
240	0x3c114c49	0.008868285
241	0x3d766a3d	0.06015991
242	0x3cf78255	0.030213514
243	0xbd0be0fb	-0.034150105
244	0xbd00c72b	-0.03143994
245	0x3d8c7e08	0.06859976
246	0xbbc25dd6	-0.0059315963
247	0xbca18bf6	-0.019720059
248	0x3d32a811	0.043617312
249	0xbdc391fd	-0.095493294
250	0x3bd0dbc9	0.0063738567
251	0x3d52a1f6	0.05142399
252	0x3d870d09	0.06594283
253	0x3cad0649	0.021121161
254	0x3e18253e	0.14857957
255	0x3d085798	0.03328666

conv.0.gcn_layer.attn_r f4 [1, 1, 256]
0	0x3c99f049	0.018791335
1	0x3d1ba7cc	0.03800182
2	0x3d9ada74	0.07561198
3	0x3cc6be98	0.024260804
4	0x3cb78fae	0.022407379
5	0x3b8eba93	0.0043557375
6	0x3d82a99e	0.06380008
7	0xbe43086d	-0.19046183
8	0x3bad32de	0.005285605
9	0xbd80bc7a	-0.06285949
10	0xbdc0041a	-0.09375782
11	0xbda0c65b	-0.07850333
12	0x3c9c79ce	0.01910105
13	0x3d230e3e	0.039808504
14	0xbd11b321	-0.03557122
15	0x3d832569	0.0640362
16	0xbc840147	-0.01611389
17	0xbdcb1e4e	-0.099178895
18	0xbcf5bc94	-0.029997148
19	0x3d87218c	0.065981954
20	0x3e2e3936	0.17014012
21	0xbe5eb136	-0.21747288
22	0xbdabd840	-0.08390856
23	0x3df92b2b	0.12166437
24	0x3d415210	0.0471974
25	0x3c5324ce	0.012887193
26	0x3ddfd804	0.109298736
27	0x3e1b94ae	0.15193436
28	0x3dfa5636	0.12223475
29	0x3d6be0b0	0.057587326
30	0xbdbbb5fa	-0.09165569
31	0x3e119316	0.14216265
32	0xbdbc73c2	-0.092017666
33	0x3d587fcb	0.052856248
34	0xbd43742c	-0.047718212
35	0xbe332dff	-0.17498015
36	0xbdd5aba6	-0.1043313
37	0x3db59c30	0.08867681
38	0xbde4a521	-0.11164308
39	0xbe27b5e8	-0.16377985
40	0x3c910b13	0.017705476
41	0xbdd182e6	-0.10230045
42	0xbc03f60c	-0.008054268
43	0xbc86c9c1	-0.016453626
44	0x3d9897f3	0.07450857
45	0x3cefdc31	0.0292798
46	0x3dba1444	0.090858966
47	0x3beaff5f	0.007171556
48	0x3e27501d	0.16339155
49	0x3a4ef66e	0.0007894997
50	0xbdb6d22d	-0.089268066
51	0xbe5c49cb	-0.21512525
52	0xba9d50b6	-0.0012002203
53	0x3d673128	0.056443363
54	0xbc2b2141	-0.01044494
55	0x3d55c46c	0.052189276
56	0x3dc47244	0.09592107
57	0xbd969d58	-0.0735423
58	0x3c5682f6	0.013092747
59	0x3dca38b0	0.098740935
60	0xbe3e17a6	-0.18563709
61	0xbd301479	-0.042988274
62	0x3deb8ec2	0.11501838
63	0x3dadb469	0.08481676
64	0xbd9d1fc3	-0.07672074
65	0xbdd41ac8	-0.103566706
66	0x3dd441bc	0.103641
67	0xbc9b11a5	-0.018929312
68	0x3c9f566a	0.019450385
69	0xbd6c2593	-0.05765302
70	0x3c84364f	0.016139178
71	0xbdc9e026	-0.09857206
72	0x3d27eed7	0.04099926
73	0x3e446755	0.19180043
74	0x3dfde467	0.1239708
75	0x3d8ccc7a	0.06874938
76	0xbd115383	-0.035480034
77	0xbe047b75	-0.1293772
78	0x3d76c942	0.06025053
79	0x3da8b80e	0.08238231
80	0x3da44913	0.0802175
81	0x3d41c469	0.047306452
82	0xbe3b655b	-0.18300383
83	0xbc309e23	-0.01077989
84	0x3d2286a5	0.03967919
85	0xbda91791	-0.08256448
86	0x3db2d50a	0.0873204
87	0x3db44b32	0.08803405
88	0xbce6fe4f	-0.028197436
89	0xbd34ee7c	-0.04417275
90	0x3e03038c	0.12794322
91	0xbd400143	-0.046876203
92	0xbc34f15e	-0.011043875
93	0x3e8bfb10	0.27339983
94	0x3e93ba43	0.28853044
95	0xbdc7fef8	-0.09765428
96	0xbd695da0	-0.056974053
97	0xbe2a536e	-0.16633388
98	0xbdcfeab4	-0.10152188
99	0xbce63303	-0.028100496
100	0xbd9deb6b	-0.07710918
101	0x3d4cd2be	0.050005667
102	0xbb237e02	-0.0024946933
103	0x3e246983	0.16055875
104	0x3d8a8d8a	0.06765278
105	0xbdb7c23b	-0.089725934
106	0xbd71691e	-0.05893814
107	0xbccf8d55	-0.025335947
108	0xbbbcf16d	-0.005766085
109	0xbca44bd5	-0.02005569
110	0xbd4cd6a2	-0.050009377
111	0xbd841649	-0.06449563
112	0x3c0d402e	0.008621259
113	0xbd84e8ac	-0.06489691
114	0x3e155c9b	0.14586107
115	0xbe081580	-0.13289452
116	0x3db2805e	0.0871589
117	0x3b818229	0.003952284
118	0xbc53734a	-0.012905905
119	0x3df9419e	0.121707186
120	0x3c096b12	0.008387344
121	0xbc5a22c5	-0.013313954
122	0x3d9ca222	0.07648112
123	0xbc2e492f	-0.0106375655
124	0xbc8711a7	-0.01648791
125	0xbbcca6b2	-0.0062454576
126	0xbe120580	-0.1425991
127	0xba1f0026	-0.0006065391
128	0xbc5518bf	-0.013006388
129	0xbdbfc8ae	-0.093644485
130	0xbdee4624	-0.11634472
131	0x3d26b683	0.0407014
132	0xbe17d005	-0.14825447
133	0xbd9541fd	-0.07287977
134	0xbd0c33bd	-0.03422903
135	0x3dab927f	0.08377551
136	0xbd0c83e9	-0.034305487
137	0x3d154d1a	0.036450483
138	0x3c6b4f26	0.014362132
139	0xbd69ee50	-0.057112038
140	0xbde27c85	-0.110589065
141	0xbd2bbde9	-0.04192916
142	0x3e2a08ac	0.1660487
143	0x3c8569bb	0.016285768
144	0x3cf7b75e	0.030238803
145	0xbe0a3c79	-0.13499631
146	0x3d55a182	0.05215598
147	0xbbbafe6f	-0.0057066004
148	0x3e07878f	0.13235305
149	0xbcb92281	-0.02259946
150	0xbcc07549	-0.023493426
151	0x3cf04a7e	0.029332396
152	0xbd0a4693	-0.03375871
153	0xbc332b39	-0.010935598
154	0x3e817aac	0.25288904
155	0xbcd585ad	-0.026064718
156	0x3dda43af	0.10657441
157	0xbe6d0617	-0.23146854
158	0x3cf87150	0.03032747
159	0x3d55a68b	0.05216078
160	0xbc09b1a8	-0.008404173
161	0x3cf6522e	0.030068483
162	0x3d2076ec	0.039175913
163	0x3db0678c	0.086135
164	0x3dc1083a	0.09425397
165	0x3e3bc8bd	0.18338294
166	0x3dacb98e	0.08433829
167	0xbdae7b18	-0.08519572
168	0xbe05b545	-0.1305743
169	0x3e2dce5e	0.16973254
170	0xbe3e599b	-0.1858887
171	0xbdf08470	-0.117440104
172	0x3dfb7be0	0.12279487
173	0xbd256f32	-0.040389247
174	0x3dccc170	0.09997833
175	0xbd00a807	-0.031410243
176	0x3d0b70a9	0.034042988
177	0x3e081797	0.13290249
178	0xbcbfdcd1	-0.023420723
179	0x3d4664f3	0.048436116
180	0xbd956a26	-0.07295637
181	0x3d5a1f21	0.053252343
182	0xbe5efbd7	-0.21775757
183	0xbda11fa3	-0.07867362
184	0x3e3315f6	0.17488846
185	0x3d8e77ff	0.06956481
186	0xbd8531dd	-0.06503651
187	0xbd971aa3	-0.073781274
188	0x3e38e67d	0.18056674
189	0x3de1db06	0.110281035
190	0xbe2154dc	-0.15755028
191	0xbdd2b530	-0.10288465
192	0xbe0f2c54	-0.13981754
193	0x3da9ebd3	0.08296933
194	0x3bdc7eff	0.0067290063
195	0x3ace735b	0.0015750931
196	0x3d948069	0.07251055
197	0x3e1c5d0f	0.15269874
198	0x3e00c55e	0.1257529
199	0x3cf432cf	0.029809384
200	0x3e0c58f1	0.13705803
201	0xbdbc0e4e	-0.09182416
202	0x3c49909e	0.012302546
203	0xbe1c1ddc	-0.15245765
204	0x3d382a6b	0.044962328
205	0x3d143d53	0.036191296
206	0xbde33ff1	-0.1109618
207	0x3d32bcc8	0.043637067
208	0x3aa44045	0.0012531361
209	0x3dd4459b	0.10364839
210	0xbdd43ff4	-0.103637606
211	0x3aab1fcc	0.0013055741
212	0x3c2e006d	0.010620219
213	0x3d9917cb	0.07475241
214	0xbc2cdd8c	-0.010550868
215	0xbcbb81cc	-0.02288904
216	0x3e03ba96	0.12864146
217	0x3d86cf60	0.065825224
218	0x3cdfae2c	0.027304731
219	0xbd00f160	-0.031480193
220	0xbb58667b	-0.0033020067
221	0xbe2902fc	-0.16505045
222	0xbd8e92e9	-0.06961615
223	0x3c69feba	0.014281923
224	0x3dd3a101	0.103334434
225	0x3d4ef326	0.050524853
226	0x3de657d6	0.11247222
227	0xbe1c73de	-0.15278575
228	0xbd453b50	-0.048152268
229	0xbd34d2bb	-0.04414628
230	0x3daff2c2	0.08591224
231	0xbe897573	-0.2684742
232	0x3e2c6f4c	0.16839331
233	0x3daf6144	0.08563474
234	0x3d98572c	0.07438502
235	0xbde15e20	-0.11004281
236	0x3e1ba8a2	0.15201047
237	0xbd75b6bf	-0.059988733
238	0xbce3c6a9	-0.02780469
239	0x3deff202	0.11716081
240	0xbe218378	-0.15772808
241	0xbdc1ab23	-0.0945647
242	0xbc87217d	-0.01649546
243	0xbe5746c0	-0.21023083
244	0x3e092f2e	0.13396904
245	0x3d764a2a	0.060129322
246	0x3d881a01	0.06645585
247	0x3e17aebf	0.14812754
248	0xbde51931	-0.111864455
249	0x3c8bc485	0.017061481
250	0x3cc46450	0.023973614
251	0xbd74cea9	-0.0597674
252	0x3d29e656	0.04147943
253	0xbe027060	-0.1273818
254	0xba836f54	-0.0010027685
255	0xbdf6ebba	-0.1205668

conv.0.gcn_layer.bias f4 [256]
0	0xbd0ff454	-0.03514512
1	0xbceb38a6	-0.028713536
2	0xbc8d6471	-0.017259808
3	0xbd949b13	-0.072561406
4	0xbc0b171b	-0.0084893955
5	0xbd877f64	-0.06616095
6	0xbd46ae67	-0.048506167
7	0xbd97385a	-0.07383795
8	0xbd5e4204	-0.054262176
9	0xbd4b10a1	-0.049576405
10	0x3c4093ae	0.01175396
11	0xbce6087f	-0.028080223
12	0xbcd874a4	-0.026422806
13	0xbbf1826f	-0.007370285
14	0xbbce7cd8	-0.0063015036
15	0xbd79ffb9	-0.06103489
16	0xbd77fa93	-0.0605417
17	0xbd0c6b33	-0.03428192
18	0xbd3d055f	-0.0461477
19	0xbcc6007f	-0.024170158
20	0xbca2ddfe	-0.019881245
21	0xbcc159cd	-0.02360239
22	0xbcdf7ebe	-0.027282115
23	0xbd121772	-0.03566689
24	0xbcf10301	-0.029420378
25	0xbd5d34e5	-0.054005522
26	0xbcb1a9b3	-0.021687364
27	0xbd1c1d95	-0.03811415
28	0xbcfecc55	-0.031103292
29	0xbd595ac5	-0.05306508
30	0xbd3edb9f	-0.046596166
31	0xbcfcaa89	-0.030843036
32	0xbd047bdb	-0.03234468
33	0xbc212c03	-0.009837153
34	0xbce38d73	-0.02777741
35	0xbd898efb	-0.067167245
36	0xbbd6ecc6	-0.0065589873
37	0xbd03050e	-0.031987242
38	0xbcf8fa4d	-0.03039279
39	0xbc628e13	-0.013827818
40	0xbd4926a0	-0.0491091
41	0xbd5ec670	-0.054388463
42	0xbd26744d	-0.040638257
43	0xbd48a237	-0.048982825
44	0xbc9ec576	-0.019381266
45	0x3c8741ab	0.016510805
46	0xbd0b2163	-0.033967387
47	0xbb69d183	-0.0035677857
48	0xbcf440e5	-0.0298161
49	0xbd028c7f	-0.03187227
50	0xbcd51868	-0.026012614
51	0xbcbb9d46	-0.022902142
52	0xbd4b0057	-0.04956087
53	0xbd523022	-0.051315434
54	0xbceab1b0	-0.028649181
55	0x3b40ae2f	0.0029400697
56	0xbd0df02a	-0.034652866
57	0xbd6f140b	-0.058368724
58	0xbd4bb079	-0.049728844
59	0xbce23633	-0.027613735
60	0xbc877587	-0.016535534
61	0xbd6e88ae	-0.058235817
62	0xbc94c6be	-0.018161174
63	0xbcf329cf	-0.029683022
64	0xbccf9aad	-0.02534231
65	0xbc2191ad	-0.009861392
66	0xbd26e57a	-0.04074619
67	0xbc826596	-0.01591758
68	0xbc424d64	-0.011859272
69	0xbd121913	-0.035668444
70	0xbd2d9754	-0.042380646
71	0xbd0aaefb	-0.03385828
72	0xbd109e3d	-0.035307158
73	0xbbf7a65e	-0.0075576743
74	0xbc9433f8	-0.018091187
75	0xbcfe18d3	-0.031017696
76	0xbc2dccce	-0.010607911
77	0xbd384b35	-0.044993598
78	0xbcef14e4	-0.029184766
79	0xbcba38ed	-0.022732222
80	0xbb966fac	-0.004590949
81	0xbc7b21f3	-0.015327918
82	0xbc9887fb	-0.018619528
83	0xbd3eacc1	-0.04655147
84	0xbcfdd010	-0.030983001
85	0xbd1c4cd5	-0.03815921
86	0xbd3b175c	-0.045676574
87	0xbc18cd2b	-0.00932626
88	0xbcdf9b20	-0.027295649
89	0xbd3bdf89	-0.045867477
90	0xbc2130bf	-0.009838282
91	0xbd2c9018	-0.042129606
92	0xbc56a4c1	-0.013100804
93	0xbd8d7acb	-0.069081865
94	0xbcfaa2c4	-0.03059519
95	0xbca10c56	-0.019659203
96	0xbce79423	-0.02826888
97	0xbc99d5f6	-0.018778782
98	0xbd101ec3	-0.035185587
99	0xbc94e55a	-0.01817577
100	0xbcc4e460	-0.024034679
101	0xbc92e399	-0.017930793
102	0xbaa811a6	-0.0012822642
103	0xbd45cc09	-0.048290286
104	0xbaba87e0	-0.0014231168
105	0xbc995bc0	-0.018720508
106	0xbd80aa87	-0.062825255
107	0xbd227072	-0.039658017
108	0xbcad3cd6	-0.021147173
109	0xbc71461a	-0.014726186
110	0xbd4c7f77	-0.049926247
111	0xbd2f7439	-0.042835448
112	0x3b31ee28	0.0027150009
113	0xbd0d1201	-0.034440998
114	0xbd0b5ff5	-0.03402706
115	0xbc66414c	-0.014053654
116	0xbd2314e9	-0.039814863
117	0x3c5669ac	0.013086718
118	0xbd0e24e2	-0.034703143
119	0xbc8ee696	-0.017443936
120	0xbc496096	-0.012291094
121	0xbba6c7f3	-0.005089754
122	0xbd1c757b	-0.038197976
123	0xbca5c0e2	-0.020233575
124	0xbd62c813	-0.055366587
125	0xbcd68a36	-0.026188951
126	0xbd63e9f2	-0.05564303
127	0xbcbb4f96	-0.022865098
128	0xbd5b8ec0	-0.053602934
129	0xbcaf9f88	-0.021438375
130	0x3cf20486	0.029543173
131	0xbcef95e0	-0.02924627
132	0xbd3a7a17	-0.04552659
133	0xbd2eca26	-0.042673253
134	0xbc8e629d	-0.017381007
135	0xbc672d61	-0.01410994
136	0x3b6cc7f8	0.0036129933
137	0xbd5ffb71	-0.054683153
138	0xbce91359	-0.028451608
139	0xbc251deb	-0.010077934
140	0xbce7f7a9	-0.028316336
141	0xbd44abb0	-0.048015296
142	0xbd0c1567	-0.0342001
143	0xbd27e714	-0.040991858
144	0xbcfc8581	-0.030825378
145	0xbb963621	-0.0045840894
146	0xb9a99e24	-0.00032352016
147	0xbd355ea2	-0.044279702
148	0xb9f56bba	-0.00046810304
149	0xbcbb654a	-0.022875447
150	0xbce2d0dc	-0.027687483
151	0xbbfd6927	-0.0077334824
152	0xbc075109	-0.008259066
153	0xbcecabab	-0.028890451
154	0xbcedba62	-0.029019538
155	0x3ba01b6e	0.0048860824
156	0xbb7505ab	-0.0037387412
157	0xbc9ba242	-0.018998269
158	0xbcba06b1	-0.022708269
159	0xbc9df267	-0.019280626
160	0xbc6e6cb9	-0.014552289
161	0xbcd28fc6	-0.025703322
162	0xbcd3d23f	-0.02585709
163	0xbc8090a7	-0.015693976
164	0xbbfd723c	-0.007734565
165	0xbc7ea68f	-0.01554264
166	0xbc47a06e	-0.0121842455
167	0xbd6957b2	-0.0569684
168	0xbce67c82	-0.028135542
169	0xbd54e233	-0.051973533
170	0xbc508f54	-0.012729485
171	0xbcd47dbb	-0.02593886
172	0xbd1a9104	-0.037735954
173	0xbd405585	-0.046956558
174	0xbd4172ee	-0.047228746
175	0xbd082210	-0.03323561
176	0xbd8c4cd7	-0.068505935
177	0xbd1a7ab2	-0.037714668
178	0xba9d1b23	-0.0011986237
179	0xbd410ae9	-0.047129545
180	0xbc7b1bb1	-0.015326426
181	0xbd211fb8	-0.03933689
182	0xbd11a266	-0.035555266
183	0xbd393c80	-0.045223713
184	0xbcbbca25	-0.022923538
185	0x3d54a872	0.051918454
186	0xbbbffb2d	-0.0058588
187	0xbd0bd1d8	-0.03413567
188	0xbc357535	-0.011075308
189	0xbd207bbc	-0.039180502
190	0xbc26e788	-0.010187037
191	0xbd157b74	-0.036494687
192	0xbd3c71bf	-0.046006914
193	0x3b62d129	0.0034609532
194	0xbd26270b	-0.040564578
195	0xbb62febf	-0.0034636704
196	0xbd5a585c	-0.053306922
197	0x3a60cb3a	0.0008575205
198	0xbd306ffc	-0.043075547
199	0xbc7ea7be	-0.015542923
200	0xbcb6d56f	-0.02231857
201	0xbcb83fff	-0.022491453
202	0xbd29b4be	-0.041432135
203	0xbb8bb8ad	-0.0042639584
204	0xb848ba6f	-4.7857346e-05
205	0xbd2b17ef	-0.04177087
206	0xbceae6e1	-0.028674545
207	0xbcda2fd7	-0.02663414
208	0xbd08cd2d	-0.033398796
209	0xbd024fe7	-0.031814482
210	0xbcb8e89b	-0.022571852
211	0xbcc32374	-0.023820616
212	0xbd9cbd5c	-0.07653305
213	0xbcb6d038	-0.022316083
214	0xbd0f5e54	-0.035002068
215	0xbccc7794	-0.024959363
216	0x3c26c7df	0.010179489
217	0x3c677cef	0.014128908
218	0xbc85b457	-0.016321344
219	0xbd371df0	-0.044706285
220	0xbcb3fc8a	-0.021971006
221	0xbb4f8b01	-0.0031668546
222	0xbd26af7f	-0.04069471
223	0xbd51900e	-0.051162772
224	0xbce34beb	-0.027746161
225	0xbcd500d5	-0.026001373
226	0xbd5df117	-0.054185
227	0xbce6978f	-0.02814844
228	0xbd599220	-0.05311787
229	0xbd01100a	-0.031509437
230	0x3b740805	0.0037236225
231	0xbd394af5	-0.0452375
232	0xbd10e539	-0.035374854
233	0xbd4ccb9b	-0.04999886
234	0xbd4af2c9	-0.049547944
235	0x3c40629e	0.011742262
236	0xbc4c8c17	-0.012484572
237	0xbcaadce2	-0.020857278
238	0xbcedacb2	-0.029013012
239	0xbce9cf20	-0.028541148
240	0xbd345c56	-0.04403337
241	0xbc5c23b1	-0.013436244
242	0x3aaef59c	0.0013348344
243	0xbcae699b	-0.021290591
244	0xbcbc76a6	-0.023005795
245	0xbc80342f	-0.015649883
246	0xbd09a09c	-0.033600435
247	0xbd077300	-0.033068657
248	0xbc6068a5	-0.013696824
249	0xbc404646	-0.0117355045
250	0xbbac082c	-0.0052499976
251	0xbce38954	-0.027775444
252	0x3c034bc9	0.008013674
253	0x3b19649d	0.0023405917
254	0xbd543f32	-0.05181808
255	0xbc44561e	-0.011983423

conv.0.gcn_layer.fc.weight f4 [256, 256]
0	0xbe201c9a	-0.1563591
1	0x38d21115	0.00010016762
2	0x3d201e01	0.039091114
3	0x3df278f2	0.11839475
4	0xbca2ee86	-0.019889127
5	0xbdbacd64	-0.091212064
6	0x3d261b7d	0.04055356
7	0xbcf358d7	-0.029705448
8	0xbe506c77	-0.20353876
9	0xbde37e4b	-0.11108073
10	0xbd13aab2	-0.03605146
11	0x3d866363	0.06561925
12	0x3c14fc6a	0.009093383
13	0xbd1fffc1	-0.039062265
14	0xbe39ea19	-0.18155707
15	0xbc2de584	-0.010613803
16	0x3e2fc354	0.17164356
17	0xbb62d0c8	-0.0034609307
18	0xbe02907f	-0.12750433
19	0xbbca20a0	-0.00616844
20	0x3e430730	0.1904571
21	0xbe10927f	-0.14118384
22	0xbd44e113	-0.04806621
23	0xbd8e0a71	-0.06935585
24	0x3d79ac9f	0.06095564
25	0x3c9e3397	0.01931171
26	0x3df3c3c8	0.11902577
27	0xbcc270c7	-0.023735417
28	0xbc0d48c6	-0.008623308
29	0xbd0d21bc	-0.034456
30	0xbdb941a6	-0.090457246
31	0xbda0a2de	-0.078435645
32	0xbd4046db	-0.046942573
33	0xbe5efedd	-0.2177691
34	0x3cd6e3ab	0.026231607
35	0xbdfe8392	-0.12427439
36	0xbd9f7593	-0.077860974
37	0x3e365496	0.17805704
38	0xbe61b802	-0.2204285
39	0xbe17484e	-0.14773676
40	0x3e8bbf16	0.27294225
41	0x3b24794f	0.002509672
42	0x3dcfc1bc	0.10144374
43	0xbe1d9aec	-0.1539113
44	0x3dd56b7f	0.10420894
45	0x3e758427	0.23976193
46	0x3e3677a8	0.17819083
47	0xbd78a4e6	-0.060704134
48	0x3dd5e5ca	0.104442194
49	0x3d90236a	0.07038005
50	0x3dc0ead1	0.09419788
51	0x3d573829	0.052543793
52	0x3d2700e6	0.04077234
53	0x3d2b733b	0.04185794
54	0x3d805757	0.06266659
55	0x3da06541	0.07831813
56	0x3cf14b50	0.029454857
57	0xbdc541c7	-0.09631687
58	0xbe3c5a2a	-0.1839377
59	0xbdfbcefd	-0.12295339
60	0xbe126ec5	-0.14300068
61	0xbe218869	-0.15774693
62	0xbe36c128	-0.17847121
63	0xbd2b0ae3	-0.04175843
64	0x3bdd849b	0.0067601926
65	0xbd162388	-0.03665498
66	0xbb0b422c	-0.0021249158
67	0xbd40c476	-0.04706236
68	0x3e834350	0.25637293
69	0x3bf839c1	0.007575244
70	0x3e0aae83	0.13543133
71	0x3d5c8be4	0.053844348
72	0xbc49a5e6	-0.01230762
73	0xbd08d805	-0.033409137
74	0xbd5853b2	-0.052814193
75	0x3d42f502	0.04759694
76	0xbde041de	-0.10950063
77	0x3d9caf22	0.076505914
78	0xbd16c957	-0.036813106
79	0xbce4dfc0	-0.027938724
80	0x3de1663c	0.11005828
81	0xbe16a1ef	-0.1471021
82	0x3e07794c	0.13229865
83	0xbdda2f59	-0.10653562
84	0xbd07848e	-0.0330854
85	0xbde6effe	-0.112762436
86	0x3d0838d1	0.03325731
87	0xbe82cd05	-0.25547042
88	0x3cf1c0b1	0.029510828
89	0x3d84cba8	0.06484157
90	0xbdfc3c89	-0.12316234
91	0xbe1c5909	-0.15268339
92	0xbdc8887a	-0.09791656
93	0xbe3f7c16	-0.18699679
94	0xbd30641d	-0.043064225
95	0x3d2a8286	0.041628383
96	0xbe23951f	-0.15974854
97	0x3d7839bd	0.06060194
98	0xbd97c098	-0.07409781
99	0xbdc14f25	-0.09438924
100	0x3e3cb507	0.18428431
101	0x3d98bf41	0.07458354
102	0x3e1d012e	0.15332481
103	0xbd40b951	-0.04705173
104	0x3cef0396	0.029176515
105	0x3da5b00a	0.080902174
106	0x3d2fa211	0.042879168
107	0xbdea3039	-0.11434979
108	0x3de228f0	0.110429645
109	0xbe154877	-0.14578424
110	0x3cb7d469	0.022440152
111	0x3ea851bd	0.3287486
112	0xbc7e36d2	-0.015516
113	0x3d71cb09	0.05903152
114	0x3c397828	0.011320151
115	0x3e632b97	0.22184597
116	0xbd67ca7e	-0.056589596
117	0xbe19bb35	-0.1501282
118	0xbaed045d	-0.0018082965
119	0x3e16bb15	0.14719804
120	0xbd923e19	-0.071407504
121	0xbc0b87c0	-0.008516252
122	0xbd6aa082	-0.05728198
123	0xbdfb2e84	-0.122647315
124	0x3e549631	0.20760418
125	0x3e3ece26	0.18633327
126	0x3c280021	0.010253937
127	0x3e014bc5	0.1262656
128	0xbbfd0b0a	-0.007722263
129	0xbe39b494	-0.18135291
130	0xbd9517d0	-0.072799325
131	0x3e1eca4a	0.15506855
132	0x3cd10e44	0.025519498
133	0xbdf2ebed	-0.118614055
134	0xbc28fa26	-0.010313546
135	0x3e088b7a	0.13334456
136	0xbd42d8f9	-0.047570202
137	0x3b8b3c2b	0.004249116
138	0x3e21c65c	0.15798324
139	0x3e25fc3a	0.16209498
140	0x3d4b0d37	0.04957315
141	0xbdffeb6b	-0.12496074
142	0x3dbadd28	0.091242135
143	0xbe044e12	-0.12920406
144	0xbdd4be07	-0.10387807
145	0xbe10e371	-0.14149262
146	0x3df72294	0.12067142
147	0xbd9df43c	-0.077126
148	0xbe7c8fb1	-0.24664189
149	0xbdb57f62	-0.08862187
150	0xbd912905	-0.07087902
151	0x3d39b3b0	0.04533738
152	0xbd7be427	-0.06149688
153	0x3c2b9459	0.010472381
154	0x3deb66fe	0.114942536
155	0x3e2428d2	0.16031197
156	0xbd2afe24	-0.041746274
157	0xbdc37294	-0.095433384
158	0xbdba63a0	-0.09101033
159	0x3ddba805	0.107254066
160	0xbcd5ee20	-0.026114523
161	0xbcd5a88a	-0.026081342
162	0xbdb79db5	-0.08965627
163	0x3e1f49fc	0.15555567
164	0x3deb372f	0.11485135
165	0x3e083326	0.13300762
166	0x3d98b81c	0.07456991
167	0x3c98d77b	0.018657437
168	0xbe513a26	-0.20432338
169	0x3d913cb2	0.07091655
170	0x3ce749e8	0.028233483
171	0xbdb8ad11	-0.09017385
172	0x3d3dbe21	0.0463239
173	0xbc78c294	-0.01518311
174	0xbc578c9a	-0.013156081
175	0x3d9fc665	0.07801513
176	0x3d589666	0.052877806
177	0xbccbefc2	-0.024894599
178	0x3d16d96c	0.036828443
179	0x3caa5995	0.02079467
180	0xbd8c2ccb	-0.06844481
181	0xbcfa03f7	-0.030519469
182	0x3e33c575	0.17555793
183	0xbe15e496	-0.1463798
184	0xbd80c00e	-0.062866315
185	0x3db9f34e	0.0907961
186	0xbdb41926	-0.08793859
187	0xbe2f16a3	-0.17098479
188	0xbe6cfc67	-0.23143159
189	0x3d2f9066	0.04286232
190	0xbdd6bb5a	-0.10484953
191	0xbcca7adc	-0.024716787
192	0x3cf7e921	0.030262532
193	0xbbe671e2	-0.007032619
194	0xbd2b8978	-0.041879147
195	0x3db4aaf0	0.08821666
196	0xbe865945	-0.26239982
197	0xbe57246f	-0.21009992
198	0xbd4016bc	-0.04689668
199	0xbe1c5fe1	-0.1527095
200	0xbdd1c989	-0.10243518
201	0x3d1bf831	0.03807849
202	0x3de200b1	0.11035288
203	0xbd580f8a	-0.052749194
204	0x3b32e608	0.0027297754
205	0xbe0a84ec	-0.13527268
206	0x3da7cd9e	0.08193515
207	0x3d0921b8	0.033479422
208	0xbc3a879a	-0.011384869
209	0x3dd2f39e	0.103003725
210	0x3dc9a52c	0.09845957
211	0xbac330ac	-0.0014891825
212	0x3e269e02	0.16271213
213	0xbdb4b384	-0.088233024
214	0x3d927286	0.0715075
215	0xbdfbcd66	-0.12295036
216	0x3d91a315	0.071111836
217	0x3da052f1	0.0782832
218	0xbc0a85d7	-0.0084547615
219	0xbdf54fba	-0.11978097
220	0x3d50fb22	0.05102075
221	0x3e07ae0f	0.13249992
222	0xbdaaeb78	-0.08345693
223	0xbd88c928	-0.066789925
224	0xbe88c0fa	-0.2670973
225	0x3dd8d066	0.10586624
226	0xbd1b2eb1	-0.037886325
227	0x3dafdd07	0.085870795
228	0xbd8e774e	-0.06956349
229	0xbd49df16	-0.049285017
230	0xbd0c5abd	-0.034266222
231	0x3d85349e	0.065041766
232	0xbd9e3940	-0.07725763
233	0x3d9d497a	0.0768003
234	0x3ce0eb86	0.027456056
235	0x3ba9f325	0.005186456
236	0x3cbdc739	0.023166286
237	0xbd575748	-0.052573472
238	0x3e340add	0.17582269
239	0xbc97a3e3	-0.018510764
240	0x3dd3f7f4	0.10350028
241	0x3e7e3801	0.24826051
242	0xbd364f64	-0.044509307
243	0xbd25af6a	-0.04045049
244	0xbdfd1aea	-0.12358649
245	0xbbd6e266	-0.0065577505
246	0x3d4a1010	0.049331725
247	0x3e252198	0.16126096
248	0x3d97316a	0.07382472
249	0x3e0bce03	0.13652806
250	0x3dadf9f0	0.084949374
251	0x3b621351	0.0034496377
252	0x3ded1d94	0.11577907
253	0x3b8e5144	0.0043431837
254	0xbd9b6e8c	-0.075894445
255	0xbc7c5934	-0.015402127

src_mlp.weight f4 [128, 256]
0	0x3d8c1db8	0.06841606
1	0xbc110b7c	-0.008852836
2	0xbdc5694c	-0.096392244
3	0x3d42e503	0.047581684
4	0x3bdeb5ca	0.0067965733
5	0xbd0e09df	-0.034677383
6	0x3d831419	0.06400318
7	0x3bd051e2	0.0063574174
8	0x3e0c6248	0.13709366
9	0xbd9df3bf	-0.077125065
10	0xbd325fde	-0.043548457
11	0xbd91fb2c	-0.07127985
12	0x3cb21db9	0.021742688
13	0xbe2e0083	-0.16992383
14	0x3da0d26b	0.07852634
15	0x3b8f98ee	0.0043822443
16	0x3d20d908	0.039269477
17	0x3dbeacb0	0.09310281
18	0x3c41457a	0.01179635
19	0xbd8dac20	-0.06917596
20	0xbd3f7229	-0.04673973
21	0x3c00d025	0.0078621255
22	0x3d227b72	0.039668508
23	0x3de1731f	0.11008286
24	0xbcdf76bc	-0.027278297
25	0x3d3602b4	0.04443617
26	0xbcc354ad	-0.023844087
27	0x3c03cd70	0.008044586
28	0x3d7d844d	0.06189375
29	0xbcaa5d43	-0.020796424
30	0x3d39ae8d	0.04533248
31	0xbdeed85c	-0.11662361
32	0x3d1c945a	0.038227417
33	0x3bde41e8	0.006782759
34	0xbc4dfb62	-0.012572141
35	0x3d5bf040	0.053695917
36	0x3d15955b	0.03651939
37	0x3d14ffd4	0.03637679
38	0xbc3d3ff9	-0.011550897
39	0xbcb8d61f	-0.022563038
40	0x3d111dc1	0.035428766
41	0xbd8752c5	-0.06607584
42	0x3d2832ff	0.04106426
43	0x3c2e1a1e	0.010626344
44	0x3a8ece69	0.0010895255
45	0xbe015199	-0.12628783
46	0x3d3f3790	0.046683848
47	0xbd003ecb	-0.031309884
48	0x3d333541	0.04375196
49	0xbb738d08	-0.0037162919
50	0x3d662eaa	0.056196846
51	0x3c36bb3f	0.011153041
52	0xbd2b9774	-0.041892484
53	0x3deb079f	0.11476063
54	0x3d0f714e	0.035020165
55	0xbc93dfb4	-0.018051006
56	0x3d3f583b	0.046715003
57	0x3db9fdf3	0.0908164
58	0x3bbbe2a5	0.0057338052
59	0x3cd1d7b5	0.025615552
60	0x3c8959f2	0.016766522
61	0x3d0a7392	0.033801623
62	0x3d2e0092	0.042481013
63	0x3cc3e661	0.023913564
64	0xbc205bbc	-0.009787496
65	0xbdb1fc81	-0.086907394
66	0x3dd12ae9	0.102132626
67	0x3d50a7eb	0.05094139
68	0xbd2a0a40	-0.04151368
69	0xbe00710f	-0.12543128
70	0x3d4513b3	0.04811449
71	0x3cc34eec	0.023841344
72	0x3db9c2e6	0.09070377
73	0xbdba32a6	-0.09091692
74	0xbaeb95ba	-0.0017973699
75	0x3d07e27a	0.03317497
76	0xbbc4b338	-0.00600281
77	0x3cf10689	0.029422062
78	0xbd08426b	-0.033266466
79	0xbd8f2ebb	-0.06991335
80	0x3cab5195	0.020912925
81	0xbd4dba1b	-0.050226312
82	0xbe030d18	-0.12797964
83	0xbd880114	-0.06640831
84	0x3d69331b	0.056933504
85	0x3d29e7a4	0.041480675
86	0x3c7c7366	0.0154083725
87	0xbda3756f	-0.07981383
88	0x3c82a39d	0.015947158
89	0xb9e6a5f4	-0.00043992663
90	0xbd8d5096	-0.06900136
91	0x3e14c4e9	0.1452824
92	0x3d5a3ae1	0.053278808
93	0xbc9811d5	-0.01856319
94	0xbd130417	-0.035892572
95	0xbcd465e5	-0.025927493
96	0xbe04487d	-0.12918277
97	0xbcbc224e	-0.022965576
98	0xbdaeb76e	-0.0853108
99	0xbdb6bf55	-0.089232124
100	0x3c15d854	0.009145815
101	0xbdb96223	-0.09051921
102	0x3ca02afd	0.019551748
103	0x3d94c075	0.07263271
104	0xbd5488e2	-0.051888354
105	0xbe488c12	-0.19584683
106	0x3d190561	0.037358645
107	0x3cc715bc	0.024302356
108	0xbd660647	-0.05615833
109	0xbdc028ed	-0.09382806
110	0xbceb33b2	-0.028711174
111	0xbd3f607d	-0.046722878
112	0xbd088c6a	-0.033337034
113	0x3d1ba68a	0.03800062
114	0xbce339df	-0.027737556
115	0xbd565a0c	-0.05233197
116	0xbd63b442	-0.05559183
117	0xbd91b8cb	-0.071153246
118	0xbd49879e	-0.0492016
119	0x3c15b70e	0.009137882
120	0xbd826bd1	-0.063682206
121	0xbe144de6	-0.14482841
122	0x3d09cbca	0.033641614
123	0xbcf3a632	-0.029742334
124	0x3dacfe91	0.08446992
125	0xbd7f1b35	-0.062281806
126	0xbc21211a	-0.009834552
127	0x3db4fa43	0.08836796
128	0x3be4c217	0.006981145
129	0x3cbb955c	0.022898369
130	0xbd296626	-0.041357182
131	0xbd2a1adc	-0.04152952
132	0xbc8970c7	-0.01677741
133	0x3b91cc56	0.0044494076
134	0xbc5f58df	-0.013632028
135	0xbd4469d3	-0.047952484
136	0xbce3fb8e	-0.027829912
137	0x3d4239b0	0.047418296
138	0x3c94b104	0.018150814
139	0x3c178f6a	0.009250501
140	0x3bd9ee46	0.006650719
141	0xbb6fe871	-0.0036607052
142	0x3d285ce3	0.04110421
143	0x3b9a3648	0.004706178
144	0xbba68730	-0.0050820336
145	0xbdb25cb4	-0.08709088
146	0xbd3a01f0	-0.045412004
147	0x3c763b26	0.0150287505
148	0xbda22023	-0.07916286
149	0xbdaeef6f	-0.08541762
150	0xbc8596f9	-0.016307341
151	0x3b898fa0	0.0041980296
152	0xbdcbe1cf	-0.09955179
153	0xbd3de5b1	-0.04636163
154	0xbc39efe3	-0.011348697
155	0xbdd25939	-0.10270924
156	0xbcfccce3	-0.030859416
157	0xbd18e6aa	-0.037329353
158	0x3bc3caa7	0.005975086
159	0xbd889daa	-0.06670697
160	0xbd46d3ea	-0.04854194
161	0x3cde184f	0.0271112
162	0xbd250695	-0.04028948
163	0xbbcfe923	-0.0063449307
164	0xbdafca32	-0.085834876
165	0xbcbbe655	-0.02293698
166	0x3e01d3e9	0.12678494
167	0x3ddb98e5	0.10722522
168	0x3d37358c	0.0447288
169	0x3cf20754	0.02954451
170	0xbdcfb8e3	-0.10142686
171	0x3bf5704c	0.0074901935
172	0x3ce21f7c	0.027602904
173	0x3d46b1c3	0.04850937
174	0x3dc0c06e	0.09411703
175	0x3d1b99c9	0.037988458
176	0x3c8b81d0	0.017029673
177	0x3d89403c	0.06701705
178	0xbd30f521	-0.043202523
179	0x3d01543f	0.031574484
180	0xbb85136d	-0.0040611536
181	0x3c29edd9	0.010371649
182	0x3b44e407	0.0030043141
183	0x3c9a6d72	0.018851016
184	0x3d78dd5d	0.060757983
185	0x3c949a69	0.018140035
186	0x3d208bd7	0.03919586
187	0xbdc6debf	-0.09710454
188	0xbcb01295	-0.021493236
189	0xbd9bfbdb	-0.07616397
190	0xbd60d74c	-0.054892823
191	0xbd91096c	-0.07081875
192	0x3d14f1b2	0.03636331
193	0x3c33d304	0.010975603
194	0xbd913f21	-0.07092119
195	0xbdafea64	-0.08589628
196	0x3cf038b4	0.029323913
197	0xbc29e47f	-0.010369419
198	0xbd178a22	-0.036996968
199	0x3c3ae5a7	0.011407292
200	0x3cdb650a	0.026781578
201	0x3d1fcf89	0.03901628
202	0x3d99b421	0.0750506
203	0x3d0fe5e7	0.03513136
204	0x3cae59f3	0.021283126
205	0xbd528a58	-0.051401466
206	0xbd986c2d	-0.07442508
207	0xbdcb778b	-0.099349104
208	0xbd5537ea	-0.052055277
209	0x39b33c2b	0.0003418637
210	0x3c5c32c2	0.013439836
211	0xbbb0c909	-0.005395059
212	0xbcdb99a9	-0.02680667
213	0x3dbbc0a3	0.09167602
214	0x3d2f7528	0.04283634
215	0xbbf4231e	-0.0074504754
216	0xbce4de00	-0.02793789
217	0xbdb89b81	-0.09014035
218	0x3dc28ed1	0.09499896
219	0x3d9645ef	0.073375575
220	0x3dc47410	0.0959245
221	0x3ca9520e	0.02066901
222	0x3cc8451c	0.024447016
223	0xbb123ec8	-0.0022315253
224	0xbca3e400	-0.02000618
225	0x3d2b80c2	0.04187084
226	0xbbb57b7d	-0.0055384026
227	0xbd62e5e8	-0.055395037
228	0x3d22d960	0.039758086
229	0x3d7cfe02	0.06176568
230	0xbdaac2da	-0.08337946
231	0xbc9bc6f0	-0.01901576
232	0xbdad62fb	-0.08466145
233	0x3de7231f	0.11285996
234	0xbca31e68	-0.01991196
235	0xbd2afe2a	-0.041746296
236	0xbbd37027	-0.0064525786
237	0xbda47070	-0.08029258
238	0x3d0975e9	0.033559714
239	0xbcd092b9	-0.025460588
240	0x3df36a33	0.1188549
241	0xbd3238bf	-0.04351115
242	0x3d4aefb5	0.04954501
243	0xb9858bbd	-0.0002547185
244	0xbd92636a	-0.07147868
245	0x3cfed37c	0.031106703
246	0xbd9ca98f	-0.07649528
247	0x3d05c109	0.032654796
248	0xbd1b292a	-0.037881054
249	0xbdc1523f	-0.09439515
250	0xbc63ccfb	-0.013903852
251	0xbd7f79ca	-0.062372006
252	0xbd3e9343	-0.04652716
253	0xbd2581bc	-0.040406927
254	0xbc872734	-0.016498186
255	0x3ce995a0	0.02851373

src_mlp.bias f4 [128]
0	0xbda50105	-0.08056835
1	0xbc39b4fe	-0.011334656
2	0x3cf58b10	0.029973537
3	0x3cd1f61d	0.025630051
4	0x3cb4f344	0.022088654
5	0xbc42c194	-0.011886973
6	0xbd51943b	-0.051166754
7	0xbd152ac2	-0.03641773
8	0x3ce3d16c	0.027809821
9	0xbd0fffd2	-0.03515608
10	0xbcef6eb2	-0.029227588
11	0xbc9842e6	-0.018586587
12	0xbcf301bd	-0.029663915
13	0xbd0dfb06	-0.034663223
14	0xbca991e2	-0.020699445
15	0xbbf992ea	-0.0076163905
16	0x3b7be1d4	0.0038434165
17	0x3d08d308	0.03340438
18	0xbe20c369	-0.15699543
19	0xbc83ef4a	-0.016105313
20	0xbcd1ee87	-0.025626434
21	0x3d079dcf	0.033109482
22	0xbc9900d6	-0.018677156
23	0xbcdb654c	-0.0267817
24	0x3c1823e9	0.009285905
25	0x3c88c646	0.016696107
26	0xbcd9e06e	-0.026596274
27	0xbda46147	-0.08026367
28	0xbcc4f123	-0.024040764
29	0xbb52d46a	-0.0032170066
30	0x3d46b777	0.04851481
31	0xbeab847b	-0.33499512
32	0x3d7d9791	0.061912123
33	0x3d81172f	0.0630325
34	0xbcbc25b7	-0.022967203
35	0x3c00a3b1	0.007851527
36	0xbccad25f	-0.024758516
37	0xbc98c5fb	-0.018649092
38	0xbd5bff6d	-0.05371039
39	0xbc9ce88a	-0.019153852
40	0xbc71a439	-0.014748626
41	0xbd156923	-0.03647722
42	0xbe010bec	-0.12602204
43	0x3cca7d2a	0.024717886
44	0xbd979926	-0.074022576
45	0x3d8848c0	0.06654501
46	0xbd94a40f	-0.07257854
47	0xbc36f249	-0.011166164
48	0x3d3eb915	0.046563227
49	0x3b6cbc20	0.0036122873
50	0x3c939a14	0.018017806
51	0xbd505835	-0.05086537
52	0x3d041a34	0.03225155
53	0xbb76af38	-0.003764106
54	0x3cb89a94	0.022534646
55	0x3ca2c191	0.01986769
56	0xbcc4fda3	-0.024046725
57	0xbd3517b9	-0.044212077
58	0x3cbfb220	0.023400366
59	0xbd407d0c	-0.046994254
60	0xbcabfc35	-0.020994285
61	0xbd93eac4	-0.07222512
62	0xbccbbc82	-0.024870161
63	0x3d3cdafc	0.046107277
64	0xbb4fb9c5	-0.003169642
65	0xbcf93484	-0.03042055
66	0x3d643659	0.055715892
67	0xbd094d19	-0.03352079
68	0xbcbb968c	-0.022898935
69	0xbd1a8417	-0.037723627
70	0x3cda165e	0.026621994
71	0xbdbfe6d5	-0.093701996
72	0x3cc68ca4	0.024236985
73	0x3d44e645	0.048071165
74	0xbd49e0aa	-0.049286522
75	0xbbfec256	-0.0077746315
76	0x3c9af3c6	0.018915068
77	0xbd95eb1b	-0.073202334
78	0x3d07fd3c	0.033200487
79	0x3d951f43	0.07281353
80	0x3d49d57a	0.049275853
81	0xbcd55da0	-0.02604562
82	0xbd67a5b7	-0.056554522
83	0x3d4c87ca	0.049934186
84	0xbcbba2d7	-0.022904797
85	0xbce3d317	-0.027810616
86	0xbc449c82	-0.012000205
87	0x3cd03240	0.025414586
88	0xbd151854	-0.036400154
89	0xbc5823d1	-0.013192133
90	0x3d25a151	0.040437046
91	0x3bb96e0c	0.0056588706
92	0xbb448c06	-0.0029990687
93	0xbb4e6e4f	-0.0031498855
94	0xbcf084e7	-0.029360248
95	0xbc84b6d3	-0.016200459
96	0xbd393c2c	-0.0452234
97	0xbd41b248	-0.047289163
98	0x3cfdef1c	0.030997805
99	0xbbd0c31e	-0.006370916
100	0xbc1a3a85	-0.009413366
101	0x3c3bd95c	0.011465397
102	0xbaedf3b4	-0.0018154294
103	0xbca4cace	-0.020116236
104	0xbc91ac89	-0.017782466
105	0xbd25ca88	-0.040476352
106	0x3db83df7	0.08996194
107	0x3b768abd	0.0037619316
108	0x3cdf90cd	0.027290726
109	0x3d20e1ed	0.03927796
110	0xbaa9229d	-0.0012903992
111	0xbd04b32c	-0.032397434
112	0x3d3613ba	0.044452406
113	0x3c3f755d	0.011685696
114	0xbdad2656	-0.084545776
115	0x3b954938	0.0045558475
116	0xbbe84da2	-0.0070893327
117	0xbd4078fa	-0.046990372
118	0x3c742260	0.014900774
119	0xbd7d2277	-0.061800446
120	0x3b8e36c8	0.0043400265
121	0xbcf3bf03	-0.029754167
122	0x3d0db4c6	0.034596227
123	0x3cca8b98	0.024724767
124	0x3c7a58f5	0.015279998
125	0xbc9e0c3e	-0.019292947
126	0x3963c2c6	0.00021720966
127	0x3c4888ea	0.012239674
