checkpoint/voxceleb_sampler_epoch500_whole.pth (torch, 602982 bytes, 15 tensors)

conv.0.bias f4 [1, 256]
00000000: 5a84 40be bb22 0ebd eede 52bb fd4a 503c
00000010: 81d9 b7bd e655 b6bd 5c85 b6bc 4d6f f3bc
00000020: 792d 7fbe b20d 94bd b9ce 52bd b841 083d
00000030: eb74 babd 6d64 75bd a38e b1be c89e e93c
00000040: 7f5f 6bbb 84eb 36bd 44f2 07bd d2b1 38be
00000050: fe9a 99be fedf cebe c401 a1be f65d 94bc
00000060: 6ac9 5bbe b210 8cbe 5993 4fbe c3cf 9f3c
00000070: a176 b8be c7ed ae3b 0cc2 4fbd d107 22bd
00000080: 1adc 793c ae67 96be 6917 30bc 49a7 55bd
00000090: f303 ee3c a580 c7bd a24b 9abe 37eb 9dbd
000000a0: 7189 bebe acf0 9fbd 3ddf 5dbd 9c66 28be
000000b0: 4efe 39bd 4a6c f7bc 08cd dcbd 2050 a9be
000000c0: ac6e 32bc 2ad0 46bc bfe4 90be ee12 e6bc
000000d0: bf4e 36bc 42d4 3abd 2f13 9dbe 3253 203d
000000e0: 2339 cbbb a6fe 75be 0e6c e5be 0f73 6abe
000000f0: 7f88 96be 42a2 9bbd 768a 73be a735 9dbe
00000100: e85f febe 20ad 71bd ea8e a2bd 707d 8fbd
00000110: b270 88bc 41e4 c43b aab8 3ebb 5310 a4bd
00000120: ed62 953c a688 32bd d982 cabc 6cc4 86be
00000130: 54c5 1ebe 7af5 8d3a 1633 56be d70a a3be
00000140: dac0 50be 7d79 93be 0f6a 56bd 70eb 0bbd
00000150: 610b 343b 6623 15be 588b f4bc 90e4 9abc
00000160: ee42 3fbd feec 83bb a642 6abc 3902 e8bc
00000170: 55e7 61be 450c a9be 59db d6be cc20 3abe
00000180: 902a 13bc 0ffb 19bd fb19 94bd a45e e3bd
00000190: c4a7 8cbe 13f8 87bd 373f 0fbd a28f 1dbc
000001a0: d226 a5be 8354 76be 9769 64be ebba 61be
000001b0: 7d95 12bd 38e2 a9be 9175 b2be 951a acbe
000001c0: 40a7 51be 4caf 6a3a 6966 993d 12f7 debc
000001d0: 27a6 85be fdd4 36bd 4eba 92bd 0dca ccbe
000001e0: 39ba 01be 9cb6 cbbe 0a23 74be a020 e1be
000001f0: 6516 eabe 1d45 9dbd fbb3 87be 9fcb 86bd
00000200: 35cd a4be 583c 85bb c979 67bc beba a9bd
00000210: af97 38be c747 ebbc 8da4 a5be 31f1 debe
00000220: e7b9 90be ecb3 63be 8ab7 dcbc ca7f d93c
00000230: 53da afbd a3af 45be b8fb ea3c afb8 afbc
00000240: 3d60 eebe d438 3dbd b0a6 66be a01a 8abe
00000250: 6b54 fdbd 9381 93be c09c 5a3c 4c58 dfbe
00000260: e0f3 7ebe 4181 33bd 7b86 0d3c cac9 09bc
00000270: 2ce0 7abe 2627 aabe 3730 aabe a4c5 21bd
00000280: d4fb e03c 45c3 3bb9 b7c6 98bc 24cf 21be
00000290: 0d0d 9dbd 38ea 65be 9c06 72be 233e c5bc
000002a0: adba 04bd c917 9ebc dc99 c4be b0f0 95be
000002b0: 79a6 b7be b505 98be 3ab1 083c e12d 38bb
000002c0: 638f 34bd a867 75bd ebfe 32bd c02a 1abc
000002d0: b1bb d6bc eeff 06bd b4f0 dbbc 7de3 aabc
000002e0: f0d1 d4ba 10c0 51be 6cff 55be 44b4 d3be
000002f0: 94fb 3cbd 9050 13bb a2af 41be 7843 96bc
00000300: 7f1e 26be 43b9 d0bd 849b 54be 2e71 5bbe
00000310: fa4b 1cbd e9b1 f6bc dac4 d7be a923 5fbd
00000320: 0eb6 b5bc cb91 b73c 6c9b 3dbe 056f 63be
00000330: b039 55bc fad5 31bd 5ff0 70bb 1bf4 fdba
00000340: d531 a4bd ac0b 4bbd ebb2 a2be bc38 283a
00000350: c572 9abe 95ff 09bf 0a15 27bd f755 40be
00000360: 7f0f 72bd dbdd 74bd 2c10 c4be e4a4 adbe
00000370: 37d3 1abd 20e3 d1bd eae1 2abd 91d0 6bbe
00000380: 3f0e 58be b957 27bd a06f 3bbd f1a0 94bd
00000390: 4c3f bfbe 1f46 3abe d2a6 ed3c 1e66 a0be
000003a0: 65af 18be 268c e4bb a884 943b 7627 c1be
000003b0: 6c0d c4bc f332 c3bc 96cb 02bc a205 c7be
000003c0: 7214 a8be 988f 7cbe 0126 4cbd 3b03 a4bd
000003d0: f51c 09bd 6e0c 68be 447e 19be 5200 a5be
000003e0: f167 44bd 2caf 613b d0bf bbbe fc70 36bd
000003f0: beee 27be 881e ccbc 8547 c93c 1e96 44bd
-0.18800488 -0.03470109 -0.0032176333 0.012713191 -0.089770325 -0.089031026 -0.022280388 -0.029716158
-0.2491969 -0.07229175 -0.051466677 0.0332658 -0.091043316 -0.059910227 -0.34679136 0.028518096
-0.0035915074 -0.0446582 -0.033190027 -0.18036583 -0.30001062 -0.40405267 -0.3144666 -0.01811121
-0.21463552 -0.27356488 -0.20271052 0.019508248 -0.36028007 0.005338404 -0.050722167 -0.039558236
0.01525023 -0.29375976 -0.010747769 -0.05216149 0.029054618 -0.09741334 -0.30135828 -0.07710879
-0.37214234 -0.078095764 -0.054167975 -0.16445392 -0.04540854 -0.030203003 -0.10781294 -0.33068943
-0.010890644 -0.012134591 -0.2829952 -0.028085198 -0.011127173 -0.04561258 -0.30678698 0.03914184
-0.0062018796 -0.24022922 -0.44809002 -0.22895454 -0.29401013 -0.075993076 -0.23783287 -0.30704996
-0.49682546 -0.059002995 -0.07937415 -0.07006347 -0.0166553 0.0060086553 -0.0029101768 -0.08010926
0.018235648 -0.04358735 -0.024720596 -0.26321733 -0.15504962 0.0010830604 -0.20917925 -0.31844208
-0.20386067 -0.28803626 -0.05234724 -0.034160078 0.0027472603 -0.14564285 -0.0298516 -0.018907815
-0.04669469 -0.0040260544 -0.014298117 -0.028321372 -0.22060902 -0.33017173 -0.41964224 -0.18176574
-0.008982316 -0.037592944 -0.07231518 -0.11102036 -0.27471745 -0.06639113 -0.034972396 -0.009616764
-0.3225618 -0.24055676 -0.22305904 -0.2204396 -0.035787094 -0.33180404 -0.3485532 -0.3361403
-0.20473957 0.0008952513 0.07490236 -0.027217422 -0.26103327 -0.044636715 -0.07164441 -0.39997903
-0.12668695 -0.39787757 -0.23841491 -0.43970203 -0.4572021 -0.07679198 -0.26504502 -0.065818064
-0.3218781 -0.0040660314 -0.014128157 -0.08287571 -0.18026613 -0.02872075 -0.32352105 -0.4354339
-0.28266832 -0.22236603 -0.026942987 0.026550192 -0.08586564 -0.19305281 0.028684482 -0.021450369
-0.465578 -0.046196774 -0.22524524 -0.26973438 -0.12369617 -0.28809795 0.013343036 -0.43622053
-0.24897718 -0.043824438 0.00863802 -0.008409927 -0.24499577 -0.33232993 -0.3323991 -0.039495125
0.027463831 -0.00017906453 -0.018649442 -0.15801674 -0.07668505 -0.22452629 -0.23635334 -0.02407748
-0.03240459 -0.019298451 -0.38398635 -0.29285192 -0.35869196 -0.29691854 0.008343035 -0.0028103518
-0.044082057 -0.059913307 -0.04370014 -0.009409606 -0.026212545 -0.032958917 -0.026848175 -0.020860428
-0.0016236883 -0.20483422 -0.20898217 -0.4134847 -0.04613836 -0.002247844 -0.18914655 -0.018342718
-0.16222571 -0.10191586 -0.2076245 -0.21429893 -0.038158394 -0.030114131 -0.42142373 -0.054477368
-0.022181537 0.022408387 -0.1851632 -0.2221032 -0.013014242 -0.043416955 -0.0036764366 -0.0019375117
-0.08017317 -0.049571678 -0.3177713 0.00064171455 -0.30165687 -0.5390561 -0.04079155 -0.18782793
-0.05909681 -0.05978189 -0.38293588 -0.33914864 -0.037799086 -0.10248399 -0.041719355 -0.2302878
-0.21099184 -0.040855143 -0.04576075 -0.0725726 -0.3735298 -0.18190812 0.02901021 -0.3132791
-0.14910658 -0.006974715 0.0045324154 -0.3772542 -0.023932181 -0.023828005 -0.007983109 -0.38871485
-0.328281 -0.24664152 -0.04984093 -0.08008429 -0.03347488 -0.22660992 -0.14989573 -0.32226807
-0.04795069 0.0034436686 -0.3666978 -0.044541344 -0.16399667 -0.024916902 0.024570236 -0.047994725

conv.0.gcn_layer.attn_l f4 [1, 1, 256]
00000000: 8d1a 07be 833b 3f3d ac03 02bd 2e4c 8dbd
00000010: fea7 a2bd 45b3 d6bc b8c6 d83c 136d 04bd
00000020: f73f 0c3d f713 80bd 06c4 92bd 5407 6a3d
00000030: 07cc bcbc 5185 793d b8c9 bdbd 2da3 273e
00000040: 5d83 a23d f57c 7a3c 7f0f 0dbe 8388 4abd
00000050: b3b4 0f3d 8139 9e3c 6199 bf3d c4ec dfbd
00000060: 523e 22bd e9d6 0fbd 3056 32bc d3d5 97bc
00000070: 628d fc3d b45c 2dbd c6ae a73b d12f 46be
00000080: 446d 223e fea9 c63d 9564 11be e0a6 d3bb
00000090: 6ac2 10bd c610 4f3d 844f 113e 6eeb 6dbd
000000a0: 8b59 613d 2c0b 103e 1e28 a23d f57d 9b3c
000000b0: 5f78 15bd 252b f63d 823b a93d 8eb6 adbd
000000c0: de70 1e3e bbf2 ad3c 2803 8fbd 3c22 d7bc
000000d0: 0624 f8bc fb15 063e 97d9 16bd a7d7 393e
000000e0: f037 b03d f96a 593d 1e80 1f3d 6faa 12bd
000000f0: 9a07 bd3d 9843 e6bd 0fba 803d d5ae 1c3d
00000100: ca81 96bd e928 09bd 54a7 7cbd 024c 2a3d
00000110: 2324 a43d ff20 fa3d 028f b83c 896a 853c
00000120: 8dde b0bc a796 4cbd 1c2c e23d bf0b 3dbd
00000130: cf6f d13d 87f4 0bbb e809 ed3d f698 c53c
00000140: b909 20bd bfee c7bd 27af a33d 12e6 063d
00000150: 5714 f63c bacd a93c 974c f6bc cd0a de3b
00000160: 7877 b1bd 3f4e 0f3d ef8a 853d c8ba 263c
00000170: 30bf 8f3c 9505 0aba 0ec9 d3bd 2874 34bd
00000180: f0fc a93d 781a 0ebd 0e44 cb3d c493 093e
00000190: 2bfa 603d d928 0d3c 4ef0 333d 261e 383b
000001a0: 799c 203d a4c1 82bd 726b 08bc 5f33 88bc
000001b0: a29f 483d 672b 0abd ae17 d73c 3a85 d9bd
000001c0: 636b 98bd 70ae 5a3d 0213 12bd 3677 b53c
000001d0: a00d a4bc 335c 0fbd f1cd b33d 68ae 55bd
000001e0: 8b22 17bd 1f2c 83be 8515 2b3d d18e e33d
000001f0: 7904 88bd 2183 883c ef07 263e 326a 94bd
00000200: 8033 4bbd 1146 4d3d b325 4d3e eb72 b1bd
00000210: 1cd4 fe3c adc7 bdbc 1c38 e33c e5ee 6d3d
00000220: 6133 0dbd 9bbf babc 0e2e 273d 2688 ba3d
00000230: f715 00be 5944 8f3d 0f08 6d3d 6b6f 163d
00000240: 6ca8 053d 549d f8bd 0c8a 11bd abb3 2dbd
00000250: 44e8 a8bd b676 d63c fa1a b53d a0a9 57bb
00000260: ad82 b5bc 44c0 993d ffda 8b3d e365 423e
00000270: a255 0e3d 91d8 c6bc 403e 34bd d92e 1d3d
00000280: 2a61 9f3c 6788 3bbd 8848 99bd 0c8a d13c
00000290: 7533 0dbd 075d 73bc b9cf 8abc 3bf8 c73d
000002a0: 77b1 2c3b adbe 40bc 3080 b53c e152 823d
000002b0: a681 a3bc 0410 423e 8b7a c73d 1e47 0cbd
000002c0: 0312 74bd 8665 48be 195a d83d 69bc 863c
000002d0: 8b68 0a3e 4181 093c 329c 30bd 1292 7e3c
000002e0: c90f 143c 11b8 4dbd 4414 c93d eaf9 333e
000002f0: 4b53 b83b 8e8d 153d 4e02 ee3b 719e 393d
00000300: 501c 833c 368e aa3d a89f cdbd dd03 38bd
00000310: e288 9dbc e28b c43d d2a9 85bc a63f 203e
00000320: 923a abbc df55 843c 72d8 a4bd 0c20 893d
00000330: 2c79 a9bd 9470 71bd 61a0 573b 132c 4e3d
00000340: 4fed 1cbe 64d3 a53c 0f71 26be 28a7 913d
00000350: 3721 70bc 12fc 8abd daa7 e23d 29c4 1d3d
00000360: 35aa 123c 39bb 2c3d 56a3 a53d ee14 173e
00000370: e15e 353d eb57 353d 3435 bcbc 863f 2bbe
00000380: dd02 893d e66b 2fbc 914c 833d ecab 81bd
00000390: bbac a73c 1d36 59bc 0efa 943d 8965 103d
000003a0: af99 1f3d 9718 9a3d 4c97 6dbc 71f4 85bd
000003b0: 7dd0 ea3d 111d 313d be23 5fbd 40c1 cabd
000003c0: c400 90bd 0d0f dd3d 2a99 82bd eee3 3ebd
000003d0: 4f1e a1ba a3c2 7cbd a0b3 00bd 4fee d3bd
000003e0: 40a1 8ebd 9e4d f83d 6c43 293d c66d 02bb
000003f0: a200 853d b27a 043c b9b6 c53d f38a a3bc
-0.13193722 0.046687614 -0.031741783 -0.06899296 -0.07942198 -0.02620853 0.026461944 -0.032330584
0.03424069 -0.06253808 -0.07166295 0.057135895 -0.023046507 0.060918156 -0.092669904 0.1637084
0.07935212 0.015288581 -0.13775443 -0.049446594 0.035084438 0.01931453 0.093554266 -0.10933831
-0.039610215 -0.035117064 -0.0108848065 -0.018534577 0.12331654 -0.042324737 0.00511727 -0.19354178
0.15861994 0.09700392 -0.14198525 -0.006459102 -0.035341658 0.050553106 0.14190489 -0.05808585
0.055017035 0.14066762 0.07917808 0.01898096 -0.036491748 0.12019948 0.08263303 -0.08482085
0.15472743 0.021233907 -0.06983024 -0.026261441 -0.030290615 0.13094322 -0.036828604 0.18148671
0.08604419 0.053080533 0.03894054 -0.03580707 0.092299655 -0.11243361 0.06285488 0.03825267
-0.07348974 -0.03348628 -0.061683014 0.041576393 0.08014705 0.12213325 0.022529129 0.016286151
-0.021590495 -0.04994836 0.110435694 -0.04615378 0.10226404 -0.0021355466 0.11574155 0.024120789
-0.039071772 -0.09762334 0.07992392 0.032934256 0.030038996 0.02072798 -0.030065818 0.00677619
-0.08665365 0.03498673 0.0652064 0.010176368 0.01754722 -0.0005265114 -0.103410825 -0.044056088
0.08300197 -0.03469321 0.0992509 0.13435274 0.05492608 0.008615696 0.043930344 0.0028094142
0.039211724 -0.0638459 -0.008326398 -0.016626058 0.048980363 -0.033732798 0.026256409 -0.10621114
-0.074423574 0.053389013 -0.03566266 0.02215157 -0.020026028 -0.035000037 0.087795146 -0.05216828
-0.036898177 -0.256196 0.04176857 0.111112244 -0.06641478 0.01666409 0.16213964 -0.07246818
-0.04960966 0.05011565 0.20033912 -0.08664497 0.031107001 -0.023166502 0.027736716 0.058089156
-0.034472827 -0.022796443 0.040815406 0.091079995 -0.12508379 0.06995458 0.057869013 0.03672735
0.032631323 -0.12139383 -0.035532042 -0.042407673 -0.08247426 0.026179653 0.08843036 -0.00329075
-0.022157038 0.07507375 0.068288796 0.18984179 0.034749635 -0.024273189 -0.04400468 0.038374756
0.019455511 -0.04578438 -0.07484537 0.025578521 -0.0344729 -0.014853722 -0.016944753 0.09764143
0.0026350894 -0.011764211 0.022155851 0.06363464 -0.019959282 0.18951422 0.0974017 -0.03424751
-0.05958749 -0.19569978 0.1056406 0.016447263 0.13516442 0.008392633 -0.04311771 0.015537756
0.009036967 -0.050224368 0.098183185 0.17575803 0.0056251637 0.03651195 0.0072634583 0.045317117
0.016004711 0.08327906 -0.10040218 -0.04492556 -0.01923031 0.09596993 -0.016316328 0.1564928
-0.020901952 0.016154228 -0.08049096 0.066955656 -0.08275065 -0.058945253 0.003290199 0.050335
-0.15324901 0.0202424 -0.16254066 0.07111961 -0.014656357 -0.0678636 0.110671714 0.03851715
0.008951713 0.042170737 0.080877945 0.14754078 0.044279937 0.0442733 -0.022974588 -0.16723451
0.06689999 -0.010706877 0.06411088 -0.063316196 0.020468106 -0.0132575305 0.07274257 0.03525308
0.038964923 0.075242214 -0.014501404 -0.06540764 0.11465547 0.04324061 -0.054477446 -0.09900141
-0.07031396 0.10793886 -0.0637687 -0.04660409 -0.0012292358 -0.061709058 -0.031421304 -0.10348188
-0.0696435 0.12124179 0.041324064 -0.0019901856 0.06494261 0.0080858935 0.09653992 -0.019963717

conv.0.gcn_layer.attn_r f4 [1, 1, 256]
00000000: 444e 4abe 7e90 033f e370 24be b187 89be
00000010: a1c8 56be ddd4 92be 365e 1d3e 74ea 82be
00000020: 30f9 84bd 9e0d ebbd ba68 11be 9fe1 873e
00000030: b392 20be 9dd1 edbd c567 b6bd daba 21be
00000040: 2972 a2bd 5bff 5ebd 64b0 66be 5671 2fbe
00000050: 7a80 953e b132 86be 76be 5f3e d8e6 01be
00000060: 189a 92bd 1d77 4ebe cc5e ff3d 19dd 73bc
00000070: dc44 143e 124c ad3d 239b 373e af7e 173c
00000080: eb7e 633e 5f73 f23e 9d60 443e 65d5 2cbe
00000090: d9f7 ed3d 484a 9c3e bd61 233e cd95 9bbe
000000a0: 6146 d43d c797 8bbe 308c 00be 4d78 41bd
000000b0: 5df5 6f3a 1f6d c93d f91a 023d 2186 93bd
000000c0: 0997 6b3d e58a 883d 94ac 7ebe 20a1 0f3e
000000d0: fc79 51be 2ffb a3bc 87dc 59be fbcf ae3e
000000e0: 3639 b2be 7560 64bc 0cd4 c3bd 0e7e 5abe
000000f0: d6c0 a93e 9c1a 943d 467e 7ebe d999 ef3d
00000100: 5836 52be f71d a03e 3795 15be 49c2 0fbe
00000110: 7b14 933d 5690 33be cf9d cd3e 4d37 433e
00000120: f8e1 c53d 91b9 813e 64b0 4c3d 48b6 063d
00000130: 5051 bcbd 24e8 94bd 9f04 b4bd 8ec0 16be
00000140: d637 8e3d 7518 9ebe 466d 613e d231 63bd
00000150: 8508 16be bf6b 84bd f69f 12be 2d9a bf3d
00000160: 9b7f 3f3c d107 033d 89f3 d43e 5b39 93be
00000170: 0779 d3bd 67ed 60bb 5cc9 81be 2136 a43e
00000180: 9fd7 0dbe 90e8 e13e fd4f c83d e839 c83d
00000190: a560 03be 11e5 a63e 903a 433e 27be 62be
000001a0: ea2b 8abe 850c 3abd 483d bc3e 4d4d ed3d
000001b0: 009e 8bbe 5143 06be 0355 0bbe 0690 36be
000001c0: 5e5e ccbe a2da 43bd 394b e73d 084d 6cbe
000001d0: 01ad 673c 4b05 c0bd 8466 8a3e 1b5d 41be
000001e0: 9df1 2b3b aa5b 2cbf 42d9 1b3e f0b2 c83e
000001f0: e618 233e 3088 16be 2c5a 893d 38db 84be
00000200: e99e 513e e82d 503e f08e d43e 8506 023d
00000210: 69a9 113e e7a6 8c3e 16a2 b53c 0eb9 92be
00000220: 0949 87bd c37d 46bc ddb7 363e 42fe 00bc
00000230: 27fa 16be f6b4 b23e 7001 003b 7778 373d
00000240: 1ed1 a43c 3dc9 673d 7a31 313e e269 7dbe
00000250: 3a8e 8dbe 2e65 b9bd 4158 95be 954a 37be
00000260: a0c3 833e 98bf 5a3d 6212 c73e 4712 3f3e
00000270: a8c7 b13e cc1e 59be 331a 0bbe 190d 49be
00000280: cec3 bd3e 92b9 963d d3d2 a73d 324d 2c3e
00000290: 6b54 76be 1761 363e 8fbb dbbd 7428 02bd
000002a0: e368 103e a671 3b3e d79e 09bc 8c21 a83e
000002b0: bb75 dfbe a5fd 3ebc be47 1e3f 8e09 cdbe
000002c0: 8097 ccbe 9a20 05bd 3c6b 423e 9f9b da3d
000002d0: 402a d63e af73 073e 2183 8cbd cdcd 41be
000002e0: 63a6 8fbe 1da8 39be 188c 1f3e d29b 733e
000002f0: 8c40 cf3d e445 233d de38 133e 4c64 0bbe
00000300: 9d56 1c3e 88d0 3b3e 077f c63c 4a15 6ebe
00000310: 3766 eebd 1d64 be3c 574c 103d f5ae 113e
00000320: 4b23 4abe e750 4c3e 1c6a 65bf 3fea 2f3e
00000330: ed83 8e3a a4f7 4b3e c444 263c d333 e33d
00000340: c36d b1be 67dc 32be 4add 2fbe a740 873e
00000350: c48e 71be 7bc6 81be 146c 413e f6c6 a83d
00000360: ce2b 73bd f45a 8cbe e104 87be 702b ee3e
00000370: 6887 73be 96dd 73be d437 3dbd f8f4 b4bd
00000380: 43e0 203e 703c a3bc c7b2 7b3e 907b 703e
00000390: 6d03 91bd c312 00be deda 53bd 350c 32bd
000003a0: f33a 51be 80b0 413c f059 1e3e 6c27 aa3c
000003b0: 99d5 ac3e 796a 923e 867d 193d c96a e53d
000003c0: 1c15 c9be e58e e2bd 80d0 5fbd 29a1 6dbe
000003d0: 288e 07bd f79a 8abd 7792 1d3d 1e58 e5bc
000003e0: e516 d43d 83ba 993e 1db7 5c3e fa64 3cbd
000003f0: 0f27 b9bd 184a 2dbe 0c4c 3ebd 808e 743e
-0.19756418 0.5139235 -0.16058688 -0.26861337 -0.20974971 -0.28678027 0.1536797 -0.255695
-0.06492841 -0.11477207 -0.14200106 0.26539323 -0.15680961 -0.11612246 -0.08906511 -0.15793934
-0.079319306 -0.054442745 -0.22528225 -0.17133078 0.29199582 -0.2621055 0.21849999 -0.12685716
-0.07158297 -0.20162626 0.12469253 -0.014884257 0.14479393 0.08461775 0.17930274 0.009246512
0.22216384 0.47353646 0.1917748 -0.16878279 0.11619539 0.30525422 0.15955253 -0.30387726
0.10364986 -0.27264234 -0.12553477 -0.04723387 0.00091536884 0.09835266 0.031764004 -0.072033174
0.057517085 0.06667117 -0.24870521 0.14026308 -0.2045669 -0.020017235 -0.21275531 0.34143052
-0.34809273 -0.013939013 -0.09561929 -0.21337149 0.33154935 0.07231638 -0.24852857 0.11699266
-0.20528543 0.3127286 -0.14607702 -0.14038958 0.07181641 -0.17535529 0.4015946 0.19064064
0.09662241 0.25336888 0.049972907 0.03288868 -0.09195197 -0.0727084 -0.08789944 -0.14721891
0.069442436 -0.30878034 0.22014341 -0.055467434 -0.14651687 -0.064658634 -0.14318833 0.093555786
0.011688138 0.031989876 0.41592053 -0.28754696 -0.103258185 -0.003432119 -0.25348938 0.32072547
-0.13851784 0.44122744 0.097808816 0.0977667 -0.12829836 0.3259664 0.19065309 -0.2214285
-0.2698663 -0.045422096 0.36765504 0.115870096 -0.27268982 -0.13111617 -0.13606648 -0.17828378
-0.39915746 -0.047815926 0.112936445 -0.2307626 0.014140368 -0.093760096 0.27031338 -0.18883173
0.0026236542 -0.6732737 0.15219596 0.39199018 0.15927467 -0.14700389 0.06706652 -0.259485
0.20470776 0.20330012 0.41515303 0.0317445 0.14224781 0.27471086 0.022172015 -0.2865681
-0.06605727 -0.012114945 0.17843576 -0.00787312 -0.14743863 0.34903687 0.0019532107 0.04479262
0.020119246 0.0565884 0.1730403 -0.24747422 -0.27647573 -0.090525016 -0.29168895 -0.17899545
0.25735188 0.053405374 0.38881212 0.18659316 0.34722638 -0.21203154 -0.13584213 -0.19633903
0.3706345 0.073596135 0.081945084 0.16826323 -0.2405564 0.17810474 -0.10729133 -0.03177686
0.14102511 0.18305072 -0.008399687 0.32838094 -0.4364451 -0.011657153 0.6182822 -0.40046352
-0.39959335 -0.032501794 0.18986219 0.106742136 0.4182911 0.13227724 -0.06860948 -0.18926163
-0.2805663 -0.18130536 0.15580785 0.2378991 0.10119733 0.039861575 0.14377162 -0.13612479
0.15267415 0.18341267 0.024230493 -0.23250309 -0.1164059 0.023241097 0.035229053 0.14226897
-0.19740026 0.19952737 -0.89615035 0.17179202 0.0010873057 0.19918686 0.010148231 0.11093869
-0.34654054 -0.1746689 -0.17174259 0.26416513 -0.23589617 -0.2534674 0.18888885 0.08241074
-0.059367947 -0.27413142 -0.2637091 0.46517515 -0.23782122 -0.23814997 -0.04619582 -0.088357866
0.15710549 -0.01992628 0.24579917 0.23484635 -0.070807315 -0.12507157 -0.0517224 -0.043468673
-0.20432644 0.011821866 0.15463996 0.020770751 0.33756712 0.28596857 0.037473224 0.11202008
-0.39273918 -0.11062411 -0.0546422 -0.23206009 -0.033094555 -0.067678384 0.038469758 -0.02799612
0.10355929 0.3002511 0.21554227 -0.045994736 -0.09040653 -0.16922796 -0.046459243 0.23882484

conv.0.gcn_layer.bias f4 [256]
00000000: 5a84 40be bb22 0ebd eede 52bb fd4a 503c
00000010: 81d9 b7bd e655 b6bd 5c85 b6bc 4d6f f3bc
00000020: 792d 7fbe b20d 94bd b9ce 52bd b841 083d
00000030: eb74 babd 6d64 75bd a38e b1be c89e e93c
00000040: 7f5f 6bbb 84eb 36bd 44f2 07bd d2b1 38be
00000050: fe9a 99be fedf cebe c401 a1be f65d 94bc
00000060: 6ac9 5bbe b210 8cbe 5993 4fbe c3cf 9f3c
00000070: a176 b8be c7ed ae3b 0cc2 4fbd d107 22bd
00000080: 1adc 793c ae67 96be 6917 30bc 49a7 55bd
00000090: f303 ee3c a580 c7bd a24b 9abe 37eb 9dbd
000000a0: 7189 bebe acf0 9fbd 3ddf 5dbd 9c66 28be
000000b0: 4efe 39bd 4a6c f7bc 08cd dcbd 2050 a9be
000000c0: ac6e 32bc 2ad0 46bc bfe4 90be ee12 e6bc
000000d0: bf4e 36bc 42d4 3abd 2f13 9dbe 3253 203d
000000e0: 2339 cbbb a6fe 75be 0e6c e5be 0f73 6abe
000000f0: 7f88 96be 42a2 9bbd 768a 73be a735 9dbe
00000100: e85f febe 20ad 71bd ea8e a2bd 707d 8fbd
00000110: b270 88bc 41e4 c43b aab8 3ebb 5310 a4bd
00000120: ed62 953c a688 32bd d982 cabc 6cc4 86be
00000130: 54c5 1ebe 7af5 8d3a 1633 56be d70a a3be
00000140: dac0 50be 7d79 93be 0f6a 56bd 70eb 0bbd
00000150: 610b 343b 6623 15be 588b f4bc 90e4 9abc
00000160: ee42 3fbd feec 83bb a642 6abc 3902 e8bc
00000170: 55e7 61be 450c a9be 59db d6be cc20 3abe
00000180: 902a 13bc 0ffb 19bd fb19 94bd a45e e3bd
00000190: c4a7 8cbe 13f8 87bd 373f 0fbd a28f 1dbc
000001a0: d226 a5be 8354 76be 9769 64be ebba 61be
000001b0: 7d95 12bd 38e2 a9be 9175 b2be 951a acbe
000001c0: 40a7 51be 4caf 6a3a 6966 993d 12f7 debc
000001d0: 27a6 85be fdd4 36bd 4eba 92bd 0dca ccbe
000001e0: 39ba 01be 9cb6 cbbe 0a23 74be a020 e1be
000001f0: 6516 eabe 1d45 9dbd fbb3 87be 9fcb 86bd
00000200: 35cd a4be 583c 85bb c979 67bc beba a9bd
00000210: af97 38be c747 ebbc 8da4 a5be 31f1 debe
00000220: e7b9 90be ecb3 63be 8ab7 dcbc ca7f d93c
00000230: 53da afbd a3af 45be b8fb ea3c afb8 afbc
00000240: 3d60 eebe d438 3dbd b0a6 66be a01a 8abe
00000250: 6b54 fdbd 9381 93be c09c 5a3c 4c58 dfbe
00000260: e0f3 7ebe 4181 33bd 7b86 0d3c cac9 09bc
00000270: 2ce0 7abe 2627 aabe 3730 aabe a4c5 21bd
00000280: d4fb e03c 45c3 3bb9 b7c6 98bc 24cf 21be
00000290: 0d0d 9dbd 38ea 65be 9c06 72be 233e c5bc
000002a0: adba 04bd c917 9ebc dc99 c4be b0f0 95be
000002b0: 79a6 b7be b505 98be 3ab1 083c e12d 38bb
000002c0: 638f 34bd a867 75bd ebfe 32bd c02a 1abc
000002d0: b1bb d6bc eeff 06bd b4f0 dbbc 7de3 aabc
000002e0: f0d1 d4ba 10c0 51be 6cff 55be 44b4 d3be
000002f0: 94fb 3cbd 9050 13bb a2af 41be 7843 96bc
00000300: 7f1e 26be 43b9 d0bd 849b 54be 2e71 5bbe
00000310: fa4b 1cbd e9b1 f6bc dac4 d7be a923 5fbd
00000320: 0eb6 b5bc cb91 b73c 6c9b 3dbe 056f 63be
00000330: b039 55bc fad5 31bd 5ff0 70bb 1bf4 fdba
00000340: d531 a4bd ac0b 4bbd ebb2 a2be bc38 283a
00000350: c572 9abe 95ff 09bf 0a15 27bd f755 40be
00000360: 7f0f 72bd dbdd 74bd 2c10 c4be e4a4 adbe
00000370: 37d3 1abd 20e3 d1bd eae1 2abd 91d0 6bbe
00000380: 3f0e 58be b957 27bd a06f 3bbd f1a0 94bd
00000390: 4c3f bfbe 1f46 3abe d2a6 ed3c 1e66 a0be
000003a0: 65af 18be 268c e4bb a884 943b 7627 c1be
000003b0: 6c0d c4bc f332 c3bc 96cb 02bc a205 c7be
000003c0: 7214 a8be 988f 7cbe 0126 4cbd 3b03 a4bd
000003d0: f51c 09bd 6e0c 68be 447e 19be 5200 a5be
000003e0: f167 44bd 2caf 613b d0bf bbbe fc70 36bd
000003f0: beee 27be 881e ccbc 8547 c93c 1e96 44bd
-0.18800488 -0.03470109 -0.0032176333 0.012713191 -0.089770325 -0.089031026 -0.022280388 -0.029716158
-0.2491969 -0.07229175 -0.051466677 0.0332658 -0.091043316 -0.059910227 -0.34679136 0.028518096
-0.0035915074 -0.0446582 -0.033190027 -0.18036583 -0.30001062 -0.40405267 -0.3144666 -0.01811121
-0.21463552 -0.27356488 -0.20271052 0.019508248 -0.36028007 0.005338404 -0.050722167 -0.039558236
0.01525023 -0.29375976 -0.010747769 -0.05216149 0.029054618 -0.09741334 -0.30135828 -0.07710879
-0.37214234 -0.078095764 -0.054167975 -0.16445392 -0.04540854 -0.030203003 -0.10781294 -0.33068943
-0.010890644 -0.012134591 -0.2829952 -0.028085198 -0.011127173 -0.04561258 -0.30678698 0.03914184
-0.0062018796 -0.24022922 -0.44809002 -0.22895454 -0.29401013 -0.075993076 -0.23783287 -0.30704996
-0.49682546 -0.059002995 -0.07937415 -0.07006347 -0.0166553 0.0060086553 -0.0029101768 -0.08010926
0.018235648 -0.04358735 -0.024720596 -0.26321733 -0.15504962 0.0010830604 -0.20917925 -0.31844208
-0.20386067 -0.28803626 -0.05234724 -0.034160078 0.0027472603 -0.14564285 -0.0298516 -0.018907815
-0.04669469 -0.0040260544 -0.014298117 -0.028321372 -0.22060902 -0.33017173 -0.41964224 -0.18176574
-0.008982316 -0.037592944 -0.07231518 -0.11102036 -0.27471745 -0.06639113 -0.034972396 -0.009616764
-0.3225618 -0.24055676 -0.22305904 -0.2204396 -0.035787094 -0.33180404 -0.3485532 -0.3361403
-0.20473957 0.0008952513 0.07490236 -0.027217422 -0.26103327 -0.044636715 -0.07164441 -0.39997903
-0.12668695 -0.39787757 -0.23841491 -0.43970203 -0.4572021 -0.07679198 -0.26504502 -0.065818064
-0.3218781 -0.0040660314 -0.014128157 -0.08287571 -0.18026613 -0.02872075 -0.32352105 -0.4354339
-0.28266832 -0.22236603 -0.026942987 0.026550192 -0.08586564 -0.19305281 0.028684482 -0.021450369
-0.465578 -0.046196774 -0.22524524 -0.26973438 -0.12369617 -0.28809795 0.013343036 -0.43622053
-0.24897718 -0.043824438 0.00863802 -0.008409927 -0.24499577 -0.33232993 -0.3323991 -0.039495125
0.027463831 -0.00017906453 -0.018649442 -0.15801674 -0.07668505 -0.22452629 -0.23635334 -0.02407748
-0.03240459 -0.019298451 -0.38398635 -0.29285192 -0.35869196 -0.29691854 0.008343035 -0.0028103518
-0.044082057 -0.059913307 -0.04370014 -0.009409606 -0.026212545 -0.032958917 -0.026848175 -0.020860428
-0.0016236883 -0.20483422 -0.20898217 -0.4134847 -0.04613836 -0.002247844 -0.18914655 -0.018342718
-0.16222571 -0.10191586 -0.2076245 -0.21429893 -0.038158394 -0.030114131 -0.42142373 -0.054477368
-0.022181537 0.022408387 -0.1851632 -0.2221032 -0.013014242 -0.043416955 -0.0036764366 -0.0019375117
-0.08017317 -0.049571678 -0.3177713 0.00064171455 -0.30165687 -0.5390561 -0.04079155 -0.18782793
-0.05909681 -0.05978189 -0.38293588 -0.33914864 -0.037799086 -0.10248399 -0.041719355 -0.2302878
-0.21099184 -0.040855143 -0.04576075 -0.0725726 -0.3735298 -0.18190812 0.02901021 -0.3132791
-0.14910658 -0.006974715 0.0045324154 -0.3772542 -0.023932181 -0.023828005 -0.007983109 -0.38871485
-0.328281 -0.24664152 -0.04984093 -0.08008429 -0.03347488 -0.22660992 -0.14989573 -0.32226807
-0.04795069 0.0034436686 -0.3666978 -0.044541344 -0.16399667 -0.024916902 0.024570236 -0.047994725

conv.0.gcn_layer.fc.weight f4 [256, 256]
00000000: 4f13 f33d d4f6 cebd 2907 cd3b e830 13be
00000010: 8931 c1bd 0863 a23d af74 363e b877 b73d
00000020: 4509 73bd 7f59 e4bc 82ac 04bc 0e7b 753d
00000030: 84c6 40be 96ad 3fbe f08d c7bc 46d4 6bbd
00000040: 0f8f d03d 94a5 53bd 2222 ed3d 3585 29bd
00000050: dcb5 9dbc e586 d1bc 8292 d03c 5925 c1bc
00000060: a0c3 1fbc 9c6c 6fbc f594 963d fee9 2a3b
00000070: a195 903c 4276 d2bd 77cb f73c e155 2a3d
00000080: 0f0e eabd 176d 2cbd dc72 c03d 5ed5 70bd
00000090: 0fcd 5abd 16a0 00bc ac04 fe3d 7539 8abb
000000a0: d706 eb3d aa33 19be 77aa 0bbd 46be e83c
000000b0: 5daf 963d 5561 4abd a8b2 573d 37d2 59bc
000000c0: 5da2 a4bd cbd7 aa3c 1716 843c 6e39 11bd
000000d0: 4f93 b1bd 6ddd 58bd ccfb 433d e11e f33b
000000e0: 51c2 afbc 8739 413d 3c7c 023e 9ebf 29bc
000000f0: 6a81 d03d 5e5a 0cbc 9363 603c c2b7 4dbb
00000100: 81fc 853d e7d1 7fbd 47e3 1bbd 8a9b 0d3d
00000110: 06b1 0bbe a9dd 9fbd fdb0 5b3d 44ce d8bc
00000120: 4b88 7ebd 8cce 96bd 02ae 3dbd 0db9 9fbd
00000130: 5ff3 513d 6b9c b23d fbc9 8a3e b266 cabc
00000140: 6b90 1b3d 378c 0e3e b692 183d 5aba dd3d
00000150: 3b15 afbc 1898 8bbd 2689 fd3c 7861 04bd
00000160: 2fd4 07bc 59b8 403e 2dec f73c df67 6dbd
00000170: 4209 7abd dd8d 3abd 81d5 713b 81fb fe3d
00000180: 61aa ab3d eba9 553d 0a14 5b3c 289c dc3d
00000190: a6da 373e 0754 26bc 0ab1 b93c 45ad 053e
000001a0: 09b6 87bd b621 a53d 0f05 973d 8842 ad3d
000001b0: e4fa 433d f9f4 813a 2876 1dbe 8a62 0e3e
000001c0: e197 20bc 184c 893d a941 4a3d d9da 843d
000001d0: 7833 59be b0c0 2dbd 4ba8 2d3e 82d9 c43c
000001e0: 6f0b 5abc 4de5 243d b0a8 283c 98c1 843d
000001f0: 035d 06bc da5a 0f3d 8cdc 55bc 03e2 6d3c
00000200: 0e4a d6bd a7c6 e53c 443c 113d 11c7 7f3d
00000210: 4771 71bc a3f7 28bd bc77 f93d d6ce f53b
00000220: c181 6ebd fdf7 fa3d a21e 803c b9fa 62bd
00000230: cb0e bc3d f634 0cbc f9b4 4fbd 0362 0e3c
00000240: 3f82 143e 0d97 3e3c dab2 3e3d e2c6 9e3b
00000250: df40 f7bd d180 173d e186 033d 935e d43c
00000260: f55d 123d 5f59 2c3c 08eb 123d d050 99bd
00000270: 54aa 173e 1256 ea3d da65 eebd b548 733d
00000280: 1110 5fbd 4f16 ecbd 6921 31bd 4900 0fbd
00000290: 5d59 e13b 3afb c7bd 5e5c e9bd 9f46 a03c
000002a0: 91ef 39be 36fd a93c bad5 abbc 3dd1 39bd
000002b0: 8c96 7d3e 01fe 98bd e654 50be d030 053e
000002c0: 49ff 2cbc 10f5 053e 5f27 cdba 5041 f9bd
000002d0: af39 14be 0f7e ae3d b174 5c3d ec48 6a3e
000002e0: 1411 673d 67fd b3bc 6968 61bd 992f df3a
000002f0: 37b9 0ebe ae8b 883d a9b2 343c 914c bcbd
00000300: 2f80 d03c 9771 6abd 31ec 6bbd 7b5a 66bb
00000310: 1138 1f3b f699 623e 459f bcbc 9f60 263d
00000320: 985e 30bd 4cd6 a43d a679 9dbd 3fc3 a3bd
00000330: 56bf 353d 9305 b13d e58c 59bd 7b2d 7b3d
00000340: 2134 0abd c67e 223d 6326 84bd 3293 823c
00000350: c558 193d a293 96bc e5ca 6c3d bb1b b6bd
00000360: 2458 003e e20f 013e daeb c6bd bef9 c2bd
00000370: c50b cbbd eefa 80bd 226c 18be e03a 853d
00000380: 27e4 b8bd 9323 c43c 79cd 443d 30a7 a43c
00000390: 3935 41bd d17d c63c 3da6 47bc 8b0a ea3c
000003a0: c0eb 50bd 42d3 de3c 0c06 c5bd 0b4e 1cbe
000003b0: f4e9 91bb f2cb ebbd fe52 953c 5820 32bd
000003c0: bfe4 8f3d 32d8 8abd eb3b 34bd 2821 2fbd
000003d0: 9f89 8e3d 34b8 d63b ed86 ac3d 0b73 463d
000003e0: 05ba 4ebd f117 5bbc a684 db3d 9441 bd3d
000003f0: a0d7 28bd 997e 923d b2fe 9ebc 7a6e 96bd
0.11868917 -0.101056725 0.006256957 -0.14374125 -0.09433276 0.07929045 0.17817949 0.089583814
-0.059335012 -0.027874706 -0.00809777 0.059931807 -0.18825728 -0.18718562 -0.024359673 -0.057575487
0.10183536 -0.05167158 0.11578776 -0.0413868 -0.019251756 -0.025577018 0.025460485 -0.023577379
-0.0097512305 -0.014613297 0.0735263 0.0026079412 0.017649474 -0.10276462 0.030248387 0.041585807
-0.11428463 -0.042096224 0.09396908 -0.058797233 -0.053418215 -0.007850667 0.12403235 -0.004218275
0.11475914 -0.14961115 -0.034098115 0.028411042 0.07357667 -0.04940923 0.052660614 -0.013294748
-0.08038781 0.020854851 0.016123815 -0.03545516 -0.08670675 -0.052945543 0.047847554 0.0074194525
-0.021454962 0.047174003 0.12742704 -0.0103606265 0.10180934 -0.008566467 0.013695615 -0.0031390046
0.06542302 -0.062456038 -0.038058545 0.03457216 -0.13641748 -0.0780595 0.053635586 -0.026465543
-0.062141698 -0.073636144 -0.046308525 -0.077989675 0.051257487 0.087212406 0.27107224 -0.024707172
0.037979525 0.13920675 0.03724929 0.10826559 -0.021372428 -0.06816119 0.030949187 -0.032319516
-0.008290335 0.18820323 0.030263985 -0.057960387 -0.061043985 -0.045545448 0.003690094 0.12450314
0.083821066 0.052164 0.013371477 0.10771972 0.17954502 -0.01015187 0.022667427 0.13054378
-0.06626517 0.080630705 0.07374012 0.084599555 0.04784669 0.0009914926 -0.15377104 0.13904777
-0.009801836 0.06703967 0.049379025 0.064870544 -0.2121104 -0.04242009 0.1695873 0.024029497
-0.01330839 0.04025774 0.0102941245 0.064822376 -0.008200887 0.034998752 -0.013053071 0.014519217
-0.104633436 0.028048826 0.035457864 0.062445704 -0.01473648 -0.04125179 0.12181041 0.0075014634
-0.05822921 0.12254331 0.015639607 -0.05541489 0.09182509 -0.008557549 -0.0507097 0.00869036
0.1450281 0.011632693 0.046557285 0.004845486 -0.1207292 0.036988083 0.032111052 0.025924003
0.035734136 0.010519355 0.035868675 -0.07486117 0.14811069 0.11442198 -0.116405204 0.05939551
-0.05445868 -0.115276925 -0.043244753 -0.03491238 0.006877108 -0.097647145 -0.11394571 0.019564925
-0.18157794 0.020750623 -0.020975936 -0.04536556 0.2476446 -0.074703224 -0.20344886 0.13006902
-0.010558912 0.13081765 -0.0015651992 -0.121706605 -0.1447513 0.085201375 0.053822223 0.2287938
0.05641277 -0.021971418 -0.055031214 0.0017027735 -0.13937841 0.06667267 0.011028924 -0.091942914
0.025451748 -0.057237234 -0.057598297 -0.0035149145 0.0024294893 0.22129044 -0.023025164 0.04061949
-0.04305896 0.080486864 -0.07689218 -0.079962246 0.044371925 0.08643641 -0.053112883 0.06132267
-0.03374112 0.03967168 -0.06452634 0.015939329 0.037438173 -0.018380944 0.057810683 -0.08892008
0.12533623 0.12603715 -0.09712954 -0.09520291 -0.09914354 -0.06297861 -0.14885 0.0650537
-0.090278916 0.023942744 0.048047516 0.020099252 -0.047169898 0.024229916 -0.01218563 0.02856948
-0.05100608 0.027200345 -0.09620294 -0.15264146 -0.004452938 -0.11513509 0.01822805 -0.043487877
0.07026052 -0.06779517 -0.044002455 -0.04275623 0.06959843 0.0065527204 0.084241726 0.048449557
-0.05047037 -0.013372407 0.1071866 0.09241024 -0.04122126 0.07153053 -0.019408558 -0.073452905

src_mlp.weight f4 [128, 256]
00000000: 34f5 02bd 1198 153e fca8 003e fac6 2abd
00000010: 2acc 5d3d 219c 9e3c a217 80be b948 b53d
00000020: 9e3a b2bd 4402 2f3e cb1a 06be 3ae5 633b
00000030: 188d 5fbd 3aab 61bb 49c4 9cbc d4f9 98bc
00000040: 862e f6bc d652 a23d 915c 17be 839d 103d
00000050: e8b2 e63c 3e7f a4bc 7c0a 28bd e001 74be
00000060: 55b2 93bd 2951 06bd c2a1 02be 6650 31be
00000070: c642 25be 0f0a 92bd 2b42 7e3d 1f5e 273d
00000080: 61cb 663d e2b7 a63d 7b9d f2bd a5eb 093e
00000090: 1489 123e 50b2 84be 4e46 d03d 0bcc 013d
000000a0: 81e0 36be ee32 da3a 39bb 78bc 6f8f 01bd
000000b0: 65e2 2dbe caad 163d 462f 683e a90f 08bd
000000c0: 4bfc f6bc 0d04 f93c be13 febc 4d60 19bd
000000d0: 86af 7b3d 3cd7 f9bd b076 c8bc 9057 b2be
000000e0: 9834 62bd e3f7 fabc 59d7 e13c f35b 2c3d
000000f0: 4c3c 3fbe 8aab 4abe 2af7 ddbb 1715 223d
00000100: 5e75 9f3d e185 8e3e b163 0f3e 4156 113e
00000110: 7cc0 f7bd 6df5 77be cfa6 6bbe 9d3f 6e3d
00000120: cd0f 72be 2e5c 933d 5e7e 183e 24c5 e13c
00000130: 2a7a 81bd 6019 183e 53fa de3c fe82 30be
00000140: d934 c2bc a993 953c 8bc1 14be dac1 50be
00000150: 3233 623d 4a87 353d 2e1e 5cbe 3ea4 aabd
00000160: 81eb 1bbe 7cdf 16bc dc98 4fbd b60e db3b
00000170: 168f 29bc 4f4b ad3d d3dd ca3c ed24 143e
00000180: 5a4e 66be bff5 babe fb87 24bc 6e96 7e3d
00000190: 8470 e2bc 0e62 073e 08e1 5fbe 1c4b 0a3d
000001a0: aed1 32bd dc57 b8bc b503 ae3d 4c9c 46be
000001b0: 5ef1 043e a361 753a 847a a33c 0026 933c
000001c0: 9de5 553d 841c 61be be03 813d 98d2 ec3b
000001d0: acd0 21bc fe0f 17bd 19a3 003e 5bb8 b2bd
000001e0: b735 cabd 1caa b43c 238c a43d 50fe d8bd
000001f0: 940a 393d 7f23 453d 24d6 44bd bb64 a73d
00000200: a183 28be 4553 c3bc 2f1d c03d f619 8e3d
00000210: 6dc5 5dbd eeed 06be 103f 18bd 7f08 4cbe
00000220: 5547 77bd 7de9 6ebd 8282 963d e4d8 50bd
00000230: 14b9 d7bc 8d41 323d 0d07 82bb e0fb d43c
00000240: 3436 12be 00af 7d3b 445a cabc f127 8b3d
00000250: abca 8fbd 465c aebd 284d 93bd c8e2 bb3c
00000260: dbbb b6bc e7ed b03d 567f 64bd 5107 c6bd
00000270: 8976 8fbd 7b00 5d3d 3a1a 4c3e 456c 17bc
00000280: 3e19 0cbd 2954 103e 83d8 a43d 85a5 2e3d
00000290: 8ca0 efbd 122d 713c 6bc8 6ebd c22c 74bd
000002a0: 9e37 81bc 4e6f c0bd f0b7 febd f016 be3d
000002b0: 4098 623d 4727 f4bb 07b9 b3bc 931f b33d
000002c0: 308d 583d 9189 5d3d 8cee 8c3d f62b 63be
000002d0: 5337 aa3d 12ea 3f3e ad19 8bbd 7c6c 1fbd
000002e0: b4ac 0b3e 9e0a d5bc 74ce f6bd 4621 113e
000002f0: 30d6 1cbd 9f9f 093e a5a3 81bc c7b7 f23d
00000300: b94b 48bd 4c23 423d 996c c2bd 2752 053c
00000310: 9a8c 94be d0cf 4b3e 7b0a 97bd f127 f8bc
00000320: 9077 e9bd 6eab c0bd 29e2 d8bd 44e9 943d
00000330: 48ee 8cbd 624a 9d3c b147 023e 36b7 113d
00000340: 651e 29be d6b1 453e ede6 983d 764a 00be
00000350: 81c0 953c 5411 be3c daa8 cc3c 7439 ad3b
00000360: 185e bfba 77f0 71bd 1dc7 e7bd a8d6 9c3d
00000370: 1de0 573c fa52 7fbd cf7c eabd 7675 5b3c
00000380: 3434 90bd 5b11 30bd 98a3 993d 8264 943d
00000390: 1331 c53d 1da1 4d3d 788b 023d bc05 3d3e
000003a0: 61a7 67bd f1fd 07be 4a05 cfbe a520 e1bd
000003b0: 6d9f 873d 2a9c 29bd c721 86be 2572 963c
000003c0: 4485 283d e849 52bd b2a4 d0bd 3fab e9bb
000003d0: 8ca0 88bd b8ef 453d a29a c9bc 8e31 5f3d
000003e0: 02bc aa3c 7ecb b63d fd80 41bd 490e fabd
000003f0: 3580 f8bd 56fc cd3d 1e55 fdbd 9f11 133e
-0.031972125 0.1460879 0.12564462 -0.041693665 0.054149784 0.019361557 -0.2501803 0.08851761
-0.087025866 0.17090708 -0.13096158 0.003477408 -0.054577917 -0.0034434334 -0.019136565 -0.018673815
-0.030051481 0.07925956 -0.14781405 0.035306465 0.028161481 -0.020080205 -0.041025624 -0.2382884
-0.072117485 -0.032792244 -0.12757018 -0.17315826 -0.16138753 -0.07130825 0.06207482 0.040861245
0.0563463 0.081405416 -0.11846443 0.13468798 0.14310104 -0.25917292 0.101696596 0.03168873
-0.17859079 0.0016647258 -0.015181356 -0.03163093 -0.16980894 0.036786832 0.22674283 -0.03321806
-0.0301496 0.03039744 -0.031015273 -0.037445355 0.06144669 -0.12199256 -0.024470657 -0.3483243
-0.05522594 -0.03063578 0.027568506 0.042079877 -0.18675345 -0.19792 -0.006773849 0.039570894
0.07786058 0.27836516 0.14002873 0.1419306 -0.1209726 -0.24214716 -0.23012851 0.058166135
-0.2363884 0.07195316 0.14891955 0.027559824 -0.06322129 0.1485343 0.027218973 -0.1723747
-0.02370684 0.018258886 -0.14526956 -0.20386449 0.055224605 0.044318475 -0.21495888 -0.08332108
-0.15226556 -0.009208556 -0.050682887 0.0066851033 -0.010349056 0.084616296 0.024763977 0.14467211
-0.22490826 -0.36515614 -0.010042186 0.06215518 -0.027641542 0.13220999 -0.21863186 0.033763036
-0.043656997 -0.022502832 0.08496801 -0.1939556 0.129827 0.00093605573 0.019955881 0.017962456
0.05222093 -0.21983534 0.06299542 0.007227253 -0.009876411 -0.036880486 0.12562217 -0.08726569
-0.098735265 0.02205377 0.080345415 -0.10595381 0.045176104 0.048129555 -0.048055783 0.0817351
-0.16456462 -0.023843417 0.09380566 0.069385454 -0.054143358 -0.131767 -0.037169516 -0.19925116
-0.060370762 -0.05832814 0.07349111 -0.050988093 -0.02633337 0.043519545 -0.0039681257 0.02599901
-0.1427849 0.0038709044 -0.024701245 0.067947276 -0.07021078 -0.085136935 -0.07192451 0.022935286
-0.022306373 0.08639126 -0.0557855 -0.09669364 -0.07005031 0.053955536 0.1993188 -0.009242122
-0.03420376 0.14094605 0.08049109 0.04263832 -0.11700544 0.014720218 -0.058296602 -0.059612997
-0.01577359 -0.0939623 -0.12437427 0.09281719 0.05532098 -0.0074509713 -0.021938814 0.08746257
0.052869022 0.05408627 0.06881437 -0.22184739 0.083113335 0.18741634 -0.06792007 -0.038921818
0.136401 -0.02600604 -0.120510966 0.14172849 -0.038290203 0.13439797 -0.015825102 0.11851459
-0.04890034 0.047396943 -0.094933696 0.008137262 -0.2901352 0.19903493 -0.07375046 -0.030292483
-0.11399758 -0.094076976 -0.105900116 0.072710544 -0.06881386 0.019200508 0.1272266 0.035575114
-0.16515501 0.1930612 0.074659206 -0.12528405 0.01828027 0.023201622 0.024982858 0.00528639
-0.0014600186 -0.059067216 -0.11317275 0.0765813 0.013175991 -0.062334992 -0.114495866 0.013394704
-0.07041207 -0.0429853 0.07501906 0.07245733 0.09628501 0.050202478 0.03187129 0.18459219
-0.05655611 -0.13280465 -0.40433723 -0.109925546 0.06622205 -0.041408695 -0.26197645 0.018364975
0.041142717 -0.051340014 -0.10187663 -0.00713101 -0.06671247 0.048324317 -0.024609867 0.05449062
0.020841602 0.08925532 -0.047242153 -0.12209756 -0.121338286 0.10057895 -0.123697504 0.1436219

src_mlp.bias f4 [128]
00000000: e2a8 353d abba 4e3c 2565 76bc 2f07 ebbc
00000010: d4b2 a83c b566 303a 8689 b2bb 2f51 08bd
00000020: 565b 4abc b41b 0b3c 0905 9f3c d29a 19bb
00000030: 9644 babc 969a 97be 4d62 be3c 659c 353c
00000040: bbff 6ebd d54d ccbd 4f01 36ba b49d 843a
00000050: e161 c1bc d520 9ebc c034 3e3d 98f5 ae3b
00000060: e99a a63c 2c32 ce3c 2e6c 08bd 00ee 6e3c
00000070: 27e6 9cbc d63e d7bc f588 efbc 8aa1 933d
00000080: 3917 063d 072e 12bf 9efa c63c b719 f43c
00000090: f2ff a03d e2e0 8f3d bd0a 573c 24d8 40bc
000000a0: 884b 403d 0b58 52bd 8214 ba3c cedc 953d
000000b0: be90 eb3b f042 09bf fcc1 8f3c 4e7c 05be
000000c0: 140c 313c d4eb c9bd 2465 a03d 2450 cdbc
000000d0: c09a 28bd 57af 693b ed74 a9bd e2e4 3fbd
000000e0: 216c 8f3d d55a b93d 6e49 1bbe 2e0d 10bd
000000f0: 6c71 60bc 6aea 433e ee2a 6c3c bfd4 1f3d
00000100: d26b 963a 85d8 95bc c3ef 3e3d 363d bc3c
00000110: fc7a 25be 2b17 23bc c804 0ebd bbc0 d4ba
00000120: c5e3 2a3d 1219 5cbf 775d 4bbd 0b45 563d
00000130: 56b9 b4bc fbca 1fbe 9d45 81bd a624 b43b
00000140: ffcf 0ebd c25f a13c 2404 973e 0334 b03a
00000150: ecc5 8fba 25eb 873d 097e ba3c 03fa c7bb
00000160: ba32 ab3c 6d78 9cbd adef 453d e691 0bbd
00000170: b034 25bd e1fa 87bd 59ce bb3b 851d 26bc
00000180: f60a 76bd 5f88 333e 9111 f5bc 9437 f5bd
00000190: 6e0a d8bc 8e97 313d c89e a53c 3017 e93c
000001a0: 846d c4bd 4f72 da3c ae2c 2db8 141e 923d
000001b0: 5d79 283e f942 9abd e8b3 46bd b699 b13c
000001c0: f0fd 4e3d dba8 8abe 53ff a9bc 642d 3b3c
000001d0: 2c80 d33c 7570 d4bc 3879 cd3d 4e24 1a3d
000001e0: 57f7 683c a73c 973b d225 46bd 5299 a23d
000001f0: 06ce e43d 1552 a63b 7e16 35bf 94d4 7f3a
0.044350512 0.012617747 -0.015038763 -0.028689949 0.020593084 0.0006729172 -0.005448523 -0.033280548
-0.012350878 0.008490492 0.01941158 -0.0023438227 -0.022737782 -0.29610127 0.023240233 0.011084651
-0.058349352 -0.09975783 -0.0006942944 0.00101178 -0.023606243 -0.019302765 0.046437025 0.0053393357
0.020337539 0.025170408 -0.033306293 0.014583111 -0.019152714 -0.02627508 -0.02924011 0.072085455
0.03273699 -0.5710148 0.024289425 0.029797418 0.07861318 0.07025315 0.013125119 -0.011770282
0.046947032 -0.051353496 0.022714857 0.07317506 0.0071888855 -0.53617764 0.017548554 -0.130357
0.010806102 -0.09859434 0.07831791 -0.025062628 -0.041163206 0.003565749 -0.08274255 -0.04684914
0.07003046 0.09050528 -0.1516473 -0.03516882 -0.013698917 0.1913239 0.014414532 0.03902125
0.0011476225 -0.018291721 0.046615373 0.022978406 -0.16160196 -0.009954254 -0.03467253 -0.0016231755
0.041721124 -0.85975754 -0.049649682 0.05231194 -0.022061031 -0.15604775 -0.06312106 0.005497533
-0.03486633 0.019698981 0.29495347 0.0013443235 -0.001096902 0.06636647 0.022765176 -0.0061028018
0.020898212 -0.07640157 0.048324276 -0.034074686 -0.04033345 -0.06639648 0.0057313857 -0.010138874
-0.060069047 0.1753249 -0.029915603 -0.11973491 -0.02637216 0.043357424 0.020217314 0.02845344
-0.09591201 0.026665835 -4.1288025e-05 0.07134643 0.16452546 -0.07532305 -0.048511416 0.02167974
0.050535142 -0.27081951 -0.02075163 0.011424396 0.025817953 -0.02593253 0.10032886 0.03763228
0.014219127 0.0046153846 -0.048375912 0.079394 0.11172108 0.005075703 -0.70737445 0.00097591546

dst_mlp.weight f4 [128, 256]
00000000: a285 9a3c 84a0 433d 4862 f3bd f131 ccbd
00000010: 90db 81bd a298 913d ce95 1dbe 5fd5 b5bc
00000020: 6186 493d 4454 c1bc 7193 2f3e f4c9 72be
00000030: 327c a33d f6a0 46be b571 833c 46fb a3bb
00000040: 8bae 1a3e f5e3 fe3d f137 a7bc 012d a83d
00000050: a6ee ab3d 4f2f 863e e7e1 da3c de19 39bd
00000060: de75 b03c fbb4 07be d284 37bd d389 febd
00000070: 3494 01be d82b 8c3d a2ad 4a3d a009 78bc
00000080: 1461 0cbd 877c 10bc 51ed c73d 80d1 843d
00000090: bf25 4e3e 6d4b 47bd 8437 353e 4a4b 033c
000000a0: 969f ea3d fbfc ab3e de03 153e 3f3c 143b
000000b0: c27a 10bd 9cb1 8abd 253a 183e f360 d4bc
000000c0: 8c48 333e edd2 203d e5ee 20bc 80c9 eebc
000000d0: f848 4f3d 45da a13c 95d8 bdbc 919b f83d
000000e0: dce4 663e f720 2fbe 56e0 d0bc 1ca1 133d
000000f0: 1d55 413d 5d90 6dbe 05d2 183d 6810 be3d
00000100: c5a6 02be 7304 06bd 48be 613d 31c0 4e3e
00000110: d2be c2bd 1996 19be 9af7 633e 4051 a63e
00000120: efef 1dbc 1b7b ae3e bfd9 f9bc 7c6a 86bc
00000130: 959f 92bd 70af 7abe 0029 7a3d e111 893d
00000140: 8f8f 0cbc 31fe 9bbc 9f35 3bbe a1bc b0bd
00000150: 6a71 3d3d 4393 813d 5767 e6bd 6581 82be
00000160: 709c e0bd 52cf d63c ae42 703d 266a c33d
00000170: afd6 153c f989 673d fcac 8a3e 1c39 043e
00000180: 3b76 ad3c 9c8d e5bd 7e56 99bb f62f 4a3d
00000190: 2ddd 813e c81b 5d3e 1397 3ebe 7f8c 583e
000001a0: ec22 8d3e 4fc4 05bd 1f44 dc3d 2df2 a03d
000001b0: 4d46 7dbb ba74 e8bc 7e4c 813e 36ec 253d
000001c0: f5ea 993c 07ad 78be 89e9 97bc 819d 563e
000001d0: 99c7 18bd 28b8 9ebd 5f49 8dbd 7d60 afbd
000001e0: 319b ad3c 36a3 073e 8fa9 0e3e 4f2b 4cbc
000001f0: 3d64 1fbb 2f6a 603d da3f bdbd 68e6 503d
00000200: 2b0d 13be a5a2 b03d 19ef ae3d 40a8 57be
00000210: 3a46 4bbc b220 12be 0f8d 83bd 390a 80be
00000220: 86ac 0d3d 3a6d 123c 060e e43d 5219 14bd
00000230: 4509 b43d 3e2f 27bd 8c88 3abd b17d b4bd
00000240: 9e64 0bbe cd9f ff3d 1098 3c3d fc06 183e
00000250: a128 1abe 3a26 30bd 9402 773d 522a 5e3d
00000260: 3c9b 8a39 0baa 743d f332 72bd 0d03 c0bc
00000270: 10d8 9f3d ae13 db3c 0bef 2c3e 5ace 9f3d
00000280: 1a1f 073e 4434 a63e ee5d 253e e5bc 2d3d
00000290: 55b6 6cbd 0591 e33d 85bf 10be 68b8 0bbe
000002a0: 2fbd 72bd cd9a 32be 69d0 a9bc 1513 c53d
000002b0: cfd3 1ebc 297a 243d 3207 6f3d 61a9 573e
000002c0: bbc4 473e b384 adbd a8cc e43d 34bd 26be
000002d0: 17f5 c03e 4e1a 693d af48 023e ed9e 0f3e
000002e0: 0a66 223e a76e a0bc 2ff7 a4bd c049 073e
000002f0: 00e1 0cbe 0824 173e 039d dcbd ef2d e9bb
00000300: 0134 a2bd b443 453d 34ea bebd 971f 053e
00000310: 873a 45bd 38ef 733c c097 1ebe 6458 30bd
00000320: b6c0 aabd ce11 4f3e c36d d9bd 6976 db3d
00000330: b2ce 373d d4a0 9ebd 28a4 4d3e 5cd6 acbd
00000340: 0b80 1abd 158f 113d c105 bc3d ea6e 5f3d
00000350: 46f9 eb3d c6f4 023e 7502 2a3e c970 ec3d
00000360: 482a 813c 24f3 a83e 40d6 703d 337c d13d
00000370: 75f4 b33d 2fc4 403e 0929 0bbb e1f2 fc3d
00000380: acb5 173c 12de 2f3a 76b2 603d ff44 5f3e
00000390: 1f84 963d e139 67bd 882c 543d f2a4 193e
000003a0: d7cd 6bbd f18e 93be ac1d f0be 883d 3c3d
000003b0: 66f5 6cbd eb4b a1bd d34a 7bbe 9d16 bbbd
000003c0: 44e0 cc3c 3bbe 483e 019b 0dbe f455 813d
000003d0: d159 ef3d fdc0 ae3d 736a c03c f626 ef3d
000003e0: 9387 5d3e a0c4 92bd bd4c a53c fc52 073c
000003f0: 54df b7bd 83e9 1fbc 6fab 7bbd 0fb9 333e
0.01886255 0.0477605 -0.1188398 -0.09970463 -0.06340706 0.071091905 -0.15389177 -0.02219647
0.04920042 -0.023599751 0.17146088 -0.23709852 0.07982673 -0.19397339 0.01604543 -0.0050043194
0.15105645 0.12445823 -0.020412417 0.08211709 0.08395128 0.2620797 0.026719047 -0.045190684
0.021540578 -0.13252632 -0.0448044 -0.12428632 -0.12654191 0.068443 0.049481995 -0.0151390135
-0.03427227 -0.008818752 0.097620614 0.064852715 0.20131586 -0.048655916 0.17696959 0.008013556
0.1145622 0.33591446 0.14552256 0.0022618917 -0.03527332 -0.067721575 0.1486593 -0.025925135
0.17508143 0.039263655 -0.009822582 -0.029148817 0.050606698 0.0197574 -0.023174563 0.12139047
0.2254824 -0.17102419 -0.025497597 0.036042318 0.04720031 -0.23199601 0.037309665 0.09280473
-0.1275893 -0.032719087 0.055113107 0.20190503 -0.09509052 -0.14998664 0.22262421 0.32483864
-0.009639724 0.34078297 -0.030499337 -0.016408198 -0.07159344 -0.24480987 0.061074257 0.06692863
-0.008579149 -0.019042106 -0.18282174 -0.08629728 0.04625074 0.06326916 -0.11250179 -0.25489345
-0.10967338 0.026221905 0.05865734 0.095417306 0.009145423 0.056528065 0.27085102 0.1291241
0.02117454 -0.112086505 -0.0046795 0.049362145 0.25364056 0.21592629 -0.18612318 0.21147345
0.27565706 -0.032657918 0.107551806 0.07858691 -0.003864664 -0.028375972 0.2525367 0.04050847
0.018788794 -0.24284755 -0.018543975 0.2095852 -0.037299726 -0.07749969 -0.0689876 -0.085633256
0.021192165 0.13245854 0.13931869 -0.012461497 -0.0024321221 0.054788765 -0.09240694 0.051000983
-0.14360492 0.08624772 0.08541698 -0.21060276 -0.01240688 -0.14270285 -0.06423389 -0.250078
0.03458836 0.008937174 0.11135487 -0.03615696 0.087908305 -0.040816538 -0.045540377 -0.08813036
-0.13612601 0.124816515 0.046043456 0.14846414 -0.15054561 -0.043005206 0.060305193 0.05423958
0.0002643707 0.059732478 -0.05913062 -0.023438955 0.078048825 0.026742782 0.16888063 0.0780303
0.13195458 0.3246175 0.16149113 0.042416472 -0.057791073 0.11111645 -0.14135559 -0.13644564
-0.05926245 -0.17441864 -0.02072926 0.0962278 -0.009694054 0.040155564 0.05835647 0.21060707
0.1950864 -0.08472576 0.111718476 -0.16283113 0.3768699 0.05690985 0.12723039 0.14025469
0.15859237 -0.019584013 -0.08054959 0.13211727 -0.13757706 0.14759839 -0.10772135 -0.0071160714
-0.07920075 0.04816027 -0.093220145 0.13000332 -0.04815152 0.014888577 -0.15487576 -0.043053046
-0.08337538 0.20221636 -0.106166385 0.10715944 0.044874854 -0.07745519 0.20082152 -0.08439323
-0.037719768 0.035536844 0.09180785 0.054549135 0.115221545 0.12788686 0.166025 0.115449496
0.015767232 0.32998002 0.058798075 0.10228767 0.08786861 0.18824838 -0.0021234176 0.12351013
0.009259623 0.0006708811 0.054857694 0.21803664 0.07349419 -0.056451682 0.05180028 0.15004328
-0.05756935 -0.28819993 -0.46897638 0.04595712 -0.057851218 -0.07875808 -0.24540262 -0.091351725
0.025009282 0.19603817 -0.1382866 0.063152224 0.11687053 0.08532903 0.023488259 0.11677353
0.21633749 -0.071664095 0.020178193 0.008259531 -0.08978143 -0.009760263 -0.06144279 0.17551063
