checkpoint/voxceleb_sampler_0718.pth (torch, 602982 bytes, 15 tensors)

conv.0.bias f4 [1, 256]
0	0xbe576f6f	-0.21038602
1	0xbd36a5a8	-0.044591576
2	0xbc42dbc4	-0.0118932165
3	0x3bb79546	0.0056025116
4	0xbdd71bb0	-0.10503328
5	0xbe5815bf	-0.21102045
6	0xbce6a0ac	-0.028152786
7	0xbd0e30b1	-0.034714404
8	0xbe8f67d8	-0.28008914
9	0xbda49294	-0.0803577
10	0xbd5ef797	-0.05443534
11	0x3cdea56e	0.027178492
12	0xbe11194f	-0.1416981
13	0xbd787efb	-0.060667973
14	0xbec713c6	-0.38882273
15	0x3cc1e4a0	0.023668587
16	0xbbf0caa4	-0.0073483754
17	0xbe3e53d6	-0.18586668
18	0xbd0395dc	-0.03212534
19	0xbe89064c	-0.26762617
20	0xbeab3a36	-0.3344285
21	0xbee7fe07	-0.45310995
22	0xbeb2b73e	-0.34905428
23	0xbc91edc4	-0.01781357
24	0xbe71421f	-0.2356038
25	0xbe9cdd62	-0.30637652
26	0xbe782540	-0.2423296
27	0x3cb40065	0.021972844
28	0xbececf8d	-0.40392724
29	0xbd9f9677	-0.07792371
30	0xbd5b2d26	-0.053509854
31	0xbd1ae340	-0.03781438
32	0x3c8e0bed	0.017339671
33	0xbea9c018	-0.33154368
34	0xbc38cf75	-0.01127993
35	0xbe3e179a	-0.18563691
36	0x3d0991c3	0.033586275
37	0xbdcce522	-0.10004641
38	0xbeacf483	-0.33780298
39	0xbda4dda1	-0.08050085
40	0xbed2a0fe	-0.41138452
41	0xbda88cd2	-0.08229984
42	0xbd7131d2	-0.058885403
43	0xbe3bfb1f	-0.18357514
44	0xbd2d1c76	-0.04226347
45	0xbd154345	-0.036441106
46	0xbde62e41	-0.11239291
47	0xbeb96f28	-0.36217618
48	0xbb403a85	-0.0029331755
49	0xbc256802	-0.010095598
50	0xbea15796	-0.31512135
51	0xbce1a1c5	-0.027542958
52	0xbc7a0645	-0.015260284
53	0xbd4e8105	-0.05041601
54	0xbeb01117	-0.3438804
55	0x3d16ca23	0.036813866
56	0xbb6af62b	-0.0035852294
57	0xbe8abcf5	-0.27097288
58	0xbf0098ff	-0.50233454
59	0xbe83614f	-0.25660178
60	0xbea8fed5	-0.3300692
61	0xbdb54b38	-0.088522375
62	0xbe891eaf	-0.26781222
63	0xbeaff418	-0.34365916
64	0xbdae2db6	-0.085048124
65	0xbd6f8e09	-0.058485065
66	0xbda7dc38	-0.081963
67	0xbd989403	-0.07450106
68	0xbcb4e2ab	-0.02208074
69	0xbb5e4f89	-0.0033921918
70	0xbb3850d3	-0.0028124347
71	0xbd9d2d3f	-0.07674646
72	0x3cd9190c	0.026501201
73	0xbd62e03b	-0.055389624
74	0xbd03028c	-0.03198485
75	0xbe913e5c	-0.2836789
76	0xbe2f10c4	-0.1709624
77	0xbb2a95f2	-0.0026029316
78	0xbe702ba1	-0.23454143
79	0xbebbf41f	-0.36709687
80	0xbe6a1812	-0.22860745
81	0xbea74398	-0.32668757
82	0xbd5d67ad	-0.05405395
83	0xbd233b1f	-0.039851304
84	0xbb06bc23	-0.0020558916
85	0xbcbeabfa	-0.023275364
86	0xbcf1bb51	-0.029508265
87	0xbca184eb	-0.0197167
88	0xbd4ab30f	-0.04948717
89	0x3a8ccb8c	0.0010741814
90	0xbcbc9188	-0.023018613
91	0xbd034844	-0.03205134
92	0xbe7d5bb0	-0.24742007
93	0xbebd79c7	-0.3700697
94	0xbef200ce	-0.4726624
95	0xbe8a9e44	-0.27073872
96	0xbbce2fb7	-0.006292309
97	0xbd13b73f	-0.03606343
98	0xbd979429	-0.07401306
99	0xbe335979	-0.175146
100	0x3d22b045	0.039718885
101	0xbd887ebc	-0.06664798
102	0xbd1a0775	-0.037604768
103	0xbc498dea	-0.012301901
104	0xbc14af96	-0.009075066
105	0xbe879840	-0.26483345
106	0xbe839c2b	-0.25705084
107	0xbe7f7bc9	-0.24949564
108	0xbd433baf	-0.04766434
109	0xbebe65b1	-0.3718696
110	0xbec90e40	-0.39268684
111	0xbec0ef11	-0.37682393
112	0xbe69c6ef	-0.22829793
113	0x3b9126ca	0.004429673
114	0x3d9c864a	0.07642801
115	0xbe06148f	-0.1309378
116	0xbe9b151d	-0.30289546
117	0xbd302cea	-0.043011583
118	0xbd968012	-0.07348646
119	0xbee5a706	-0.4485399
120	0xbe1bfb01	-0.15232469
121	0xbee4728a	-0.44618636
122	0xbe88eeb7	-0.26744625
123	0xbefc7bff	-0.49313352
124	0xbf032f62	-0.51244175
125	0xbd928b22	-0.07155444
126	0xbe97efb1	-0.29675058
127	0xbd85667c	-0.06513688
128	0xbebcd441	-0.36880687
129	0xbb3c39d7	-0.0028720999
130	0xbcb0ff28	-0.021606043
131	0xbdbcb68b	-0.09214505
132	0xbe4f08c0	-0.20218182
133	0xbd0c26d5	-0.03421672
134	0xbec0a8ff	-0.37628934
135	0xbd2177e3	-0.039420974
136	0xbea217c7	-0.31658766
137	0xbe850e89	-0.25987652
138	0xbd03a1d5	-0.032136757
139	0x3cd3e50d	0.025866056
140	0xbdb8709e	-0.09005855
141	0xbe62efc2	-0.22161773
142	0x3cd9786d	0.026546681
143	0xbcbf4dd2	-0.023352537
144	0xbf05b881	-0.52234656
145	0xbd4558c6	-0.048180364
146	0xbe807d4e	-0.250956
147	0xbe9b4c6a	-0.30331737
148	0xbd9723ee	-0.073799
149	0xbea55046	-0.32287806
150	0x3bcbacf1	0.0062156846
151	0xbc7289e3	-0.014803383
152	0xbe8eadfc	-0.27867115
153	0xbd340f34	-0.04395981
154	0x3c3a9542	0.011388125
155	0xbc4ceee6	-0.01250813
156	0xbe92bd2e	-0.28659958
157	0xbebeb9ac	-0.3725103
158	0xbd7584d6	-0.059941135
159	0xbd37db77	-0.044887032
160	0x3cef6d7a	0.029227007
161	0x3a412344	0.0007367621
162	0xbcadc17c	-0.021210425
163	0xbe3550a7	-0.17706548
164	0xbdb3b5ae	-0.08774887
165	0xbe80db7c	-0.25167453
166	0xbe884803	-0.2661744
167	0xbce92acc	-0.02846279
168	0xbcd6bf04	-0.02621413
169	0xbcf8959f	-0.030344782
170	0xbedc701b	-0.4305428
171	0xbea81bcb	-0.32833704
172	0xbecde784	-0.40215695
173	0xbeaa673f	-0.33281896
174	0x3c193c8b	0.0093528135
175	0xbaa50148	-0.0012588883
176	0xbd42b791	-0.047538344
177	0xbd987d87	-0.074458174
178	0xbd251882	-0.040306576
179	0xbc10872f	-0.008821293
180	0xbcec686f	-0.028858392
181	0xbd48a4dd	-0.04898535
182	0xbcfec577	-0.031100018
183	0xbc88fef7	-0.01672314
184	0xbb9625cf	-0.004582144
185	0xbe640b50	-0.2226994
186	0xbe6cc7b6	-0.23123059
187	0xbeed63b4	-0.4636513
188	0xbd5940ef	-0.05304044
189	0x3c301cef	0.010749086
190	0xbe562bd8	-0.20915163
191	0xbcc65c2f	-0.024213878
192	0xbe3c8a68	-0.18412173
193	0xbe5305eb	-0.20607726
194	0xbc9bf72d	-0.019038761
195	0xbe73cd93	-0.23808889
196	0xbd1a75ae	-0.037709884
197	0xbd097ffd	-0.033569325
198	0xbd9785da	-0.07398577
199	0xbd7c6389	-0.06161836
200	0xbcb465c0	-0.022021174
201	0x3cb6bbb3	0.022306299
202	0xbe608e39	-0.21929254
203	0xbe8361c3	-0.25660524
204	0xbc81db1d	-0.015851552
205	0xbd49129b	-0.04909001
206	0xbb454308	-0.0030099768
207	0xbb3d6bef	-0.0028903445
208	0xbe6f5303	-0.2337151
209	0xbd60bfa0	-0.054870248
210	0xbeb65d78	-0.35618186
211	0x3b593d19	0.003314799
212	0xbead2064	-0.33813775
213	0xbf1a9365	-0.60381156
214	0xbd2d9255	-0.04237588
215	0xbe538318	-0.20655477
216	0xbd756f01	-0.059920315
217	0xbd7c24a6	-0.06155839
218	0xbedb74c6	-0.4286253
219	0xbc92ef98	-0.017936513
220	0xbd1a6c94	-0.037701204
221	0xbdcb623f	-0.09930848
222	0xbd198dbf	-0.037488695
223	0xbe845581	-0.25846484
224	0xbe78918d	-0.24274273
225	0xbd286c07	-0.041118648
226	0xbd2fee32	-0.04295177
227	0xbe6f7bcd	-0.2338707
228	0xbed662a1	-0.41872123
229	0xbe669a25	-0.22519739
230	0x3ce02160	0.027359664
231	0xbeb3913c	-0.35071743
232	0xbe2c0f96	-0.1680282
233	0xbbc9db99	-0.0061602113
234	0x38da80b1	0.00010419021
235	0xbed889a5	-0.42292514
236	0xbd744d50	-0.059644043
237	0xbccda0cb	-0.025101086
238	0xbc10bc5d	-0.008833972
239	0xbedfaa65	-0.43684688
240	0xbebc60b8	-0.3679254
241	0xbe952163	-0.29127035
242	0xbd78faa3	-0.0607859
243	0xbdaaeaae	-0.08345543
244	0xbd00fdd6	-0.031492077
245	0xbe7e4cca	-0.2483398
246	0xbe26396b	-0.1623284
247	0xbeb8e440	-0.3611164
248	0xbd4fb458	-0.0507091
249	0xbb699de7	-0.0035647096
250	0xbed279c2	-0.4110852
251	0xbd38e263	-0.045137774
252	0xbe4da969	-0.20084156
253	0xbccf9216	-0.025338214
254	0x3cbef9f7	0.023312552
255	0xbd7c4585	-0.061589736

conv.0.gcn_layer.attn_l f4 [1, 1, 256]
0	0xbe037aac	-0.12839764
1	0x3d908c32	0.0705799
2	0xbcf5d598	-0.030009076
3	0xbda9c73f	-0.08289956
4	0xbdbdf485	-0.09275154
5	0xbc47f82c	-0.012205165
6	0x3cb8f6c9	0.022578614
7	0xbd02d56a	-0.03194181
8	0x3c6f66f0	0.014611945
9	0xbd48f5aa	-0.04906241
10	0xbdc7b669	-0.09751589
11	0x3d62b40a	0.05534748
12	0xbcc75047	-0.024330271
13	0x3cd4339f	0.025903521
14	0xbde2d440	-0.1107564
15	0x3e311a3e	0.17295167
16	0x3d926e8d	0.07149992
17	0x3caa20bc	0.020767562
18	0xbe0d3842	-0.13790992
19	0xbd822438	-0.063545644
20	0x3d305c27	0.043056633
21	0x3ba06c51	0.004895725
22	0x3da8b110	0.08236897
23	0xbddce7d7	-0.107864074
24	0xbcbab1c6	-0.022789847
25	0xbd49f292	-0.0493036
26	0xbcd73b3f	-0.026273368
27	0xbcdafd47	-0.0267321
28	0x3de85b41	0.1134553
29	0xbd7213ff	-0.0591011
30	0x3c6273ec	0.013821583
31	0xbe4ab6df	-0.19796322
32	0x3e23f667	0.16011964
33	0x3e04fdd4	0.12987453
34	0xbe0cb32d	-0.13740225
35	0x3cb7644c	0.022386692
36	0xbd3a2cd2	-0.0454529
37	0x3d27bdbc	0.04095243
38	0x3df73b0f	0.120718114
39	0xbd8df5b4	-0.0693163
40	0x3d18730e	0.0372191
41	0x3e097ddb	0.13426916
42	0x3dcb98f2	0.099412814
43	0x3c65aeb2	0.014018701
44	0xbd09abf5	-0.033611257
45	0x3df07370	0.11740768
46	0x3d80f8aa	0.06297429
47	0xbdb91e97	-0.09039038
48	0x3e3098e4	0.17245823
49	0x3d5ecb1b	0.054392915
50	0xbdb29d4b	-0.087214075
51	0x3c03aa26	0.008036172
52	0xbce4f741	-0.027949931
53	0x3df7d353	0.12100854
54	0xbd16b4f1	-0.036793653
55	0x3e31e234	0.17371446
56	0x3d8d64cf	0.06903993
57	0x3d69d51c	0.057088003
58	0x3c122356	0.008919558
59	0xbd2d7fc0	-0.04235816
60	0x3df15311	0.11783422
61	0xbdaa56b7	-0.08317321
62	0x3d8f9268	0.07010347
63	0x3cec87dc	0.028873377
64	0xbd893b20	-0.0670073
65	0xbc0e6562	-0.008691164
66	0xbd918bac	-0.071067184
67	0x3d196a12	0.037454672
68	0x3d38eb5a	0.045146324
69	0x3dc07a96	0.093983814
70	0x3d029644	0.031881586
71	0x3d26d57c	0.04073094
72	0xbc2b1084	-0.010440949
73	0xbd183c8a	-0.03716711
74	0x3da40eed	0.08010659
75	0xbd872e60	-0.06600642
76	0x3db0ca73	0.08632364
77	0x3b918e95	0.004442046
78	0x3dd9ca09	0.10634238
79	0x3ced4f88	0.028968588
80	0xba0196e0	-0.00049434416
81	0xbdad4b5d	-0.0846164
82	0x3d9fc55c	0.07801315
83	0x3d3ece27	0.04658332
84	0x3d275e2f	0.040861305
85	0xbc12fe3e	-0.008971749
86	0xbd1f4bf1	-0.038890783
87	0x3ce9f852	0.028560791
88	0xbdc417c7	-0.09574848
89	0x3d26c27f	0.04071283
90	0x3d7118d3	0.058861565
91	0x3b1cd2b9	0.0023929311
92	0x3c78e8b8	0.015192203
93	0x3c60c0d9	0.013717853
94	0xbe00ddc2	-0.12584594
95	0xbcb74df4	-0.022376038
96	0x3da2e1af	0.07953202
97	0xbd2744b1	-0.040836994
98	0x3dc0a504	0.09406474
99	0x3e08fdbe	0.13378045
100	0x3d6edf0b	0.05831818
101	0x3c16b473	0.009198296
102	0x3cf11cce	0.02943268
103	0x3cc00b73	0.02344296
104	0x3d74406e	0.059631757
105	0xbd8e28e6	-0.069413945
106	0x3b4e6489	0.003149303
107	0xbd07d951	-0.033166233
108	0x3cdada2e	0.026715364
109	0xbd0e474f	-0.034735974
110	0x3c119d60	0.008887619
111	0xbdbf4b95	-0.09340588
112	0xbdbd4c0e	-0.09243022
113	0x3d81c7ee	0.06336962
114	0xbd20f76f	-0.03929847
115	0x3c19f720	0.009397298
116	0xbd456f98	-0.048202127
117	0xbd37f624	-0.044912472
118	0x3dae2424	0.08502987
119	0xbd44276f	-0.04788917
120	0xbd20e189	-0.039277587
121	0xbe8417b8	-0.25799346
122	0x3d347c06	0.04406359
123	0x3df1ef37	0.11813205
124	0xbd0333d1	-0.032031838
125	0x3bf2eff8	0.0074138604
126	0x3e1e39b2	0.15451697
127	0xbd88541d	-0.06656668
128	0xbcfdf772	-0.03100178
129	0x3d64164f	0.055685338
130	0x3e495caa	0.19664255
131	0xbdb90508	-0.09034163
132	0x3c47fda9	0.012206473
133	0xbd123d39	-0.035702918
134	0x3d003181	0.03129721
135	0x3d96206e	0.07330404
136	0xbc8b2a49	-0.016987937
137	0xbcb17981	-0.021664383
138	0x3d084872	0.033272214
139	0x3d96d28f	0.073643796
140	0xbe04cd12	-0.12968853
141	0x3d5ccaed	0.053904463
142	0x3d6ad3f1	0.05733103
143	0x3c79cd79	0.015246742
144	0x3cd8816c	0.0264289
145	0xbde8e83c	-0.1137242
146	0xbd1742e7	-0.036929037
147	0xbcb8ef7f	-0.022575138
148	0xbda8bab6	-0.08238737
149	0x3c5a3507	0.013318307
150	0x3dcc9e1c	0.099910945
151	0x3c5718b7	0.013128451
152	0xbb751409	-0.0037395975
153	0x3db42db6	0.08797781
154	0x3da11254	0.07864824
155	0x3e3868d6	0.18008742
156	0x3d4ec6a4	0.050482407
157	0xbbf74f3f	-0.0075472887
158	0xbd31ce1e	-0.04340946
159	0x3d8c4d57	0.06850689
160	0x3cb42c08	0.021993652
161	0xbd426062	-0.0474552
162	0xbdac3b2e	-0.08409725
163	0x3c89d3f8	0.016824707
164	0xbc96098c	-0.0183151
165	0xbc5cc92b	-0.013475697
166	0xbc9ecf20	-0.019385874
167	0x3df103c1	0.11768294
168	0xbbea7159	-0.0071546254
169	0xbb87ac12	-0.0041403854
170	0x3d02448b	0.03180365
171	0x3d6f59da	0.0584353
172	0xbd3a9984	-0.04555656
173	0x3e4792a8	0.19489539
174	0x3de0e07b	0.10980316
175	0xbc306398	-0.0107659325
176	0xbd86e3a6	-0.06586389
177	0xbe3121a1	-0.17297985
178	0x3dc043a4	0.093879014
179	0xbbc55a63	-0.006022738
180	0x3de837be	0.11338757
181	0x3c2e1ae7	0.010626531
182	0xbbca3318	-0.0061706416
183	0x3cfedfd6	0.031112593
184	0x3ac6a460	0.0015155189
185	0xbd732f8d	-0.05937152
186	0x3dffa140	0.12481928
187	0x3e28494a	0.16434208
188	0xbb10d0d5	-0.002209713
189	0x3d42009a	0.047363855
190	0x3caef513	0.021357095
191	0x3d6647fb	0.05622099
192	0x3d0cc71d	0.034369577
193	0x3d50777f	0.05089521
194	0xbd735ce4	-0.05941476
195	0xbca3b486	-0.019983541
196	0xbd08ca60	-0.033396125
197	0x3e0d3793	0.13790731
198	0x3aa0746f	0.0012241731
199	0x3e142d77	0.14470468
200	0xbd2a618f	-0.041596945
201	0x3c2db3ca	0.010601947
202	0xbdb2455f	-0.08704638
203	0x3d8ad56f	0.067789905
204	0xbdb699dc	-0.08916065
205	0xbd35eae4	-0.044413462
206	0x3ac71fc5	0.0015191963
207	0x3d429d5f	0.047513362
208	0xbe30d536	-0.17268834
209	0x3c8b6f17	0.017020745
210	0xbe1163c4	-0.14198214
211	0x3da0924f	0.07840406
212	0xbd19168d	-0.03737502
213	0xbd068f91	-0.03285176
214	0x3db3fd79	0.087885804
215	0x3c69f9f9	0.0142807895
216	0x3bb879ae	0.0056297397
217	0x3d8038c2	0.06260826
218	0x3dc12c45	0.09432272
219	0x3e025b90	0.12730241
220	0x3d781c4f	0.060573872
221	0x3d310091	0.04321343
222	0xbcc8b83f	-0.024501918
223	0xbe054dc4	-0.13017946
224	0x3d897fbd	0.06713817
225	0x3a49e233	0.0007701248
226	0x3d3850f5	0.04499908
227	0xbd7fe391	-0.062472884
228	0x3cccc72e	0.02499732
229	0x3bbbf639	0.005736139
230	0x3daa5c16	0.08318345
231	0x3d1ac6e1	0.037787322
232	0x3cd28120	0.025696337
233	0x3d9745f5	0.0738639
234	0xbcc3516f	-0.023842542
235	0xbd2e6c2e	-0.042583637
236	0x3ddb8908	0.10719496
237	0x3d059100	0.032608986
238	0xbd1b5c87	-0.037930038
239	0xbda1b012	-0.07894911
240	0xbd8fe1e6	-0.070255086
241	0x3db53c06	0.08849339
242	0xbd4865f3	-0.04892535
243	0xbcfa4499	-0.030550288
244	0x3c22dc9c	0.009940293
245	0xbd845eb2	-0.06463374
246	0xbc4bb78d	-0.012433899
247	0xbdd24969	-0.10267908
248	0xbdae949a	-0.08524437
249	0x3df6a772	0.120436564
250	0x3d4b19bd	0.049585093
251	0xba52b03c	-0.0008037125
252	0x3dc10c68	0.094261944
253	0x3cc3e414	0.023912467
254	0x3db5af49	0.088713236
255	0xbd378f86	-0.04481461

conv.0.gcn_layer.attn_r f4 [1, 1, 256]
0	0xbe499989	-0.19687475
1	0x3f001fd5	0.5004857
2	0xbe242c2b	-0.16032474
3	0xbe73ccb3	-0.23808555
4	0xbe473049	-0.19452013
5	0xbea4d799	-0.32195738
6	0x3e247432	0.1605995
7	0xbe4041f2	-0.18775156
8	0xbdb0f706	-0.08640866
9	0xbe267eed	-0.16259356
10	0xbe08e02e	-0.13366768
11	0x3e8a9db0	0.2707343
12	0xbe27dda2	-0.1639314
13	0xbe0bc050	-0.1364758
14	0xbdb0cafb	-0.086324655
15	0xbe2bf88c	-0.16794032
16	0xbd89cded	-0.0672873
17	0xbd9aae11	-0.07552732
18	0xbe53753e	-0.20650193
19	0xbe453faf	-0.19262575
20	0x3e979ce6	0.29611892
21	0xbe89ec7a	-0.2693823
22	0x3e597f45	0.21239956
23	0xbdff95b1	-0.12479723
24	0xbdb7516c	-0.08951077
25	0xbe4ceb06	-0.2001153
26	0x3dfbd6c8	0.12296826
27	0xbd8ae8c7	-0.0678268
28	0x3e2c931e	0.16852996
29	0x3dad5f5c	0.08465454
30	0x3e32ea4b	0.17472188
31	0x3cb31f72	0.02186558
32	0x3e80767c	0.25090396
33	0x3efd45a4	0.49467194
34	0x3e586cb7	0.21135221
35	0xbe3d44e7	-0.18483315
36	0x3da2d2c4	0.079503566
37	0x3ea035f2	0.31291157
38	0x3e241c2f	0.16026376
39	0xbe9d0d5e	-0.3067426
40	0x3dfd9479	0.123818345
41	0xbe95e655	-0.29277292
42	0xbe2e722c	-0.1703574
43	0xbd0449d9	-0.03229699
44	0xbc188a94	-0.009310383
45	0x3de24e68	0.11050111
46	0x3d28c9a6	0.041207932
47	0xbd08becb	-0.03338508
48	0x3d6ae7b7	0.057349887
49	0x3d7ca306	0.06167891
50	0xbe6c6d9f	-0.23088692
51	0x3e12134a	0.1426517
52	0xbe7b0f1f	-0.24517487
53	0xbcc11d2d	-0.023573482
54	0xbe56eecd	-0.20989533
55	0x3ea7ef03	0.3279954
56	0xbec2ba57	-0.3803279
57	0xbca222e2	-0.019792024
58	0xbd622d95	-0.05521925
59	0xbe57bc81	-0.21068002
60	0x3ea1cf82	0.31603628
61	0x3d62e232	0.055391498
62	0xbe7a7b58	-0.24461114
63	0x3ddb936f	0.1072148
64	0xbe52b3fb	-0.2057647
65	0x3e9a0e8f	0.30089232
66	0xbe14c69d	-0.1452889
67	0xbdd3c9ef	-0.1034125
68	0x3da9482b	0.08265718
69	0xbe255548	-0.16145813
70	0x3ed06868	0.40704656
71	0x3e1f990b	0.15585725
72	0x3dfac069	0.122437306
73	0x3e8053e3	0.25064
74	0x3d58d678	0.05293891
75	0x3d9715e7	0.073772244
76	0xbda6eab4	-0.08150235
77	0xbdd0cf32	-0.10195769
78	0xbda2fc2a	-0.07958253
79	0xbe02bb74	-0.1276682
80	0x3d654248	0.055971414
81	0xbeac6ff1	-0.33679155
82	0x3e62ea21	0.22159626
83	0xbd6f998e	-0.05849605
84	0xbe3cac0c	-0.18425006
85	0xbd1cf5b7	-0.03832027
86	0xbdfc7024	-0.123260766
87	0x3db7dd95	0.0897781
88	0xbb08c4bb	-0.0020869214
89	0x3ced31ec	0.028954469
90	0x3ee2705a	0.44226342
91	0xbe934012	-0.2875982
92	0xbdfe393a	-0.12413259
93	0x3c9d0945	0.01916946
94	0xbe5da767	-0.2164589
95	0x3eb488d3	0.3526064
96	0xbdd2ebb5	-0.10298864
97	0x3edc8465	0.4306976
98	0x3de3da5a	0.11125632
99	0x3db3e1fd	0.08783338
100	0xbdfcba48	-0.12340218
101	0x3e8eef96	0.27917165
102	0x3e1484d8	0.14503801
103	0xbe6ef72f	-0.2333648
104	0xbe82d88b	-0.25555834
105	0xbd07d156	-0.033158623
106	0x3eb98eb6	0.36241692
107	0x3e01a34c	0.12659949
108	0xbe8eeaf5	-0.27913633
109	0xbe0a0c90	-0.13481355
110	0xbe0f65e0	-0.14003706
111	0xbe424cae	-0.18974563
112	0xbec0d43d	-0.37661925
113	0xbc9e43f0	-0.019319504
114	0x3e0cd709	0.13753904
115	0xbe8052c8	-0.25063157
116	0x3cc766fc	0.024341099
117	0xbda574ee	-0.08078943
118	0x3e801c54	0.25021613
119	0xbe48ebbb	-0.19621174
120	0x3c131c20	0.0089788735
121	0xbf34a6c3	-0.7056696
122	0x3e3260b6	0.17419705
123	0x3ec32a91	0.38118413
124	0x3e2e08cd	0.16995545
125	0xbe1b54b8	-0.15169036
126	0x3d7e7452	0.06212265
127	0xbe856b75	-0.26058546
128	0x3e45c9a0	0.19315195
129	0x3e46b368	0.19404376
130	0x3ed2d53a	0.41178304
131	0x3d2a8989	0.04163507
132	0x3e046008	0.12927258
133	0x3e8e8210	0.27833605
134	0x3c9be58a	0.019030351
135	0xbe855851	-0.26043943
136	0xbd2f6231	-0.042818252
137	0xbbe3e13e	-0.006954341
138	0x3e3a3980	0.18185997
139	0x3c8fb1b2	0.017540786
140	0xbe3bd5da	-0.18343297
141	0x3ead6082	0.33862692
142	0x3cde7a17	0.027157826
143	0x3d5c5b9a	0.053798296
144	0x3c937233	0.01799879
145	0x3d99f798	0.07517928
146	0x3e322483	0.1739674
147	0xbe88433c	-0.26613796
148	0xbe863a66	-0.2621643
149	0xbdc016dc	-0.0937936
150	0xbea3da16	-0.32002324
151	0xbe57ec7d	-0.21086307
152	0x3e80640b	0.25076327
153	0x3d806737	0.06269687
154	0x3eca14d1	0.39469007
155	0x3e811b2b	0.2521604
156	0x3eb8a8f0	0.3606639
157	0xbe56c0b4	-0.20971948
158	0xbddef260	-0.10886073
159	0xbe477709	-0.19479002
160	0x3eadae11	0.33921865
161	0x3dac7a8e	0.08421813
162	0x3db98608	0.090587676
163	0x3e3145cb	0.1731178
164	0xbe8710ab	-0.26379904
165	0x3e264c7b	0.16240112
166	0xbde902ba	-0.11377473
167	0xbd050349	-0.032473836
168	0x3e21e3af	0.1580951
169	0x3e555625	0.20833643
170	0xbb9c5233	-0.004770541
171	0x3eadac82	0.33920676
172	0xbedc0896	-0.429753
173	0xbac0e74b	-0.0014717368
174	0x3f261713	0.6487896
175	0xbed745ff	-0.4204559
176	0xbec2fd39	-0.3808382
177	0xbd0589aa	-0.03260199
178	0x3e4c08db	0.19925253
179	0x3e01eb25	0.12687357
180	0x3ed6952b	0.4191068
181	0x3df80fe9	0.121124096
182	0xbdbf449f	-0.0933926
183	0xbe4e66f8	-0.20156467
184	0xbe93f555	-0.2889811
185	0xbe369401	-0.17829897
186	0x3e25c5c0	0.16188717
187	0x3e6e99ea	0.23300901
188	0x3db9d11f	0.0907309
189	0x3d83c50d	0.06434069
190	0x3e08b61c	0.13350719
191	0xbe0a72d7	-0.1352037
192	0x3e1b2276	0.15149865
193	0x3e368854	0.17825443
194	0x3d7d3e9b	0.061827283
195	0xbe84888a	-0.2588542
196	0xbdcbdca2	-0.09954192
197	0x3c9ec0e2	0.019379083
198	0x3ce7ad0c	0.028280757
199	0x3df76bb1	0.120810874
200	0xbe226e75	-0.15862449
201	0x3e426609	0.18984236
202	0xbf660a7f	-0.89859766
203	0x3e21c969	0.15799488
204	0xbbf3ea8f	-0.007443733
205	0x3e43041f	0.19044541
206	0x3bb22fe3	0.0054378374
207	0x3df315e5	0.118694104
208	0xbea7d44d	-0.3277916
209	0xbe47fb97	-0.19529568
210	0xbe11bdec	-0.14232606
211	0x3e84b6e2	0.2592078
212	0xbe6a66cb	-0.22890775
213	0xbe76faaf	-0.24119066
214	0x3e3c1c03	0.1837006
215	0x3db93493	0.09043231
216	0xbd0230ea	-0.03178493
217	0xbe99de36	-0.30052346
218	0xbe8f0c5c	-0.27939117
219	0x3efe7ad8	0.49703097
220	0xbe814306	-0.25246447
221	0xbe84aaa8	-0.2591145
222	0xbd1b7c85	-0.037960548
223	0xbdc540b4	-0.09631482
224	0x3e19f64e	0.15035364
225	0xbd05b4ce	-0.032643132
226	0x3e94bf0c	0.29052007
227	0x3e773a52	0.24143341
228	0xbd911327	-0.07083731
229	0xbdfaf6c1	-0.12254096
230	0xbd985010	-0.07437146
231	0xbd4ba99c	-0.0497223
232	0xbe52ca2b	-0.20584933
233	0xbc248432	-0.010041283
234	0x3e23f905	0.16012962
235	0xbbd76316	-0.0065730913
236	0x3ebf23c7	0.37331983
237	0x3e99e947	0.3006079
238	0x3d155a28	0.036462933
239	0x3dc02f80	0.0938406
240	0xbec05479	-0.37564448
241	0xbdd8608c	-0.1056529
242	0xbd445620	-0.047933698
243	0xbe7c9dd6	-0.24669585
244	0x3cb0a551	0.021563204
245	0xbd630fc7	-0.05543497
246	0x3cc595f5	0.024119357
247	0xbd1fa6f1	-0.038977567
248	0x3dac2292	0.08405031
249	0x3eae2af9	0.3401716
250	0x3e580143	0.21094231
251	0xbd4f6a9b	-0.050638776
252	0xbdbb54dc	-0.09147045
253	0xbe02c9c5	-0.12772281
254	0xbd7c49a5	-0.06159367
255	0x3e7dd0b6	0.24786648

conv.0.gcn_layer.bias f4 [256]
0	0xbe576f6f	-0.21038602
1	0xbd36a5a8	-0.044591576
2	0xbc42dbc4	-0.0118932165
3	0x3bb79546	0.0056025116
4	0xbdd71bb0	-0.10503328
5	0xbe5815bf	-0.21102045
6	0xbce6a0ac	-0.028152786
7	0xbd0e30b1	-0.034714404
8	0xbe8f67d8	-0.28008914
9	0xbda49294	-0.0803577
10	0xbd5ef797	-0.05443534
11	0x3cdea56e	0.027178492
12	0xbe11194f	-0.1416981
13	0xbd787efb	-0.060667973
14	0xbec713c6	-0.38882273
15	0x3cc1e4a0	0.023668587
16	0xbbf0caa4	-0.0073483754
17	0xbe3e53d6	-0.18586668
18	0xbd0395dc	-0.03212534
19	0xbe89064c	-0.26762617
20	0xbeab3a36	-0.3344285
21	0xbee7fe07	-0.45310995
22	0xbeb2b73e	-0.34905428
23	0xbc91edc4	-0.01781357
24	0xbe71421f	-0.2356038
25	0xbe9cdd62	-0.30637652
26	0xbe782540	-0.2423296
27	0x3cb40065	0.021972844
28	0xbececf8d	-0.40392724
29	0xbd9f9677	-0.07792371
30	0xbd5b2d26	-0.053509854
31	0xbd1ae340	-0.03781438
32	0x3c8e0bed	0.017339671
33	0xbea9c018	-0.33154368
34	0xbc38cf75	-0.01127993
35	0xbe3e179a	-0.18563691
36	0x3d0991c3	0.033586275
37	0xbdcce522	-0.10004641
38	0xbeacf483	-0.33780298
39	0xbda4dda1	-0.08050085
40	0xbed2a0fe	-0.41138452
41	0xbda88cd2	-0.08229984
42	0xbd7131d2	-0.058885403
43	0xbe3bfb1f	-0.18357514
44	0xbd2d1c76	-0.04226347
45	0xbd154345	-0.036441106
46	0xbde62e41	-0.11239291
47	0xbeb96f28	-0.36217618
48	0xbb403a85	-0.0029331755
49	0xbc256802	-0.010095598
50	0xbea15796	-0.31512135
51	0xbce1a1c5	-0.027542958
52	0xbc7a0645	-0.015260284
53	0xbd4e8105	-0.05041601
54	0xbeb01117	-0.3438804
55	0x3d16ca23	0.036813866
56	0xbb6af62b	-0.0035852294
57	0xbe8abcf5	-0.27097288
58	0xbf0098ff	-0.50233454
59	0xbe83614f	-0.25660178
60	0xbea8fed5	-0.3300692
61	0xbdb54b38	-0.088522375
62	0xbe891eaf	-0.26781222
63	0xbeaff418	-0.34365916
64	0xbdae2db6	-0.085048124
65	0xbd6f8e09	-0.058485065
66	0xbda7dc38	-0.081963
67	0xbd989403	-0.07450106
68	0xbcb4e2ab	-0.02208074
69	0xbb5e4f89	-0.0033921918
70	0xbb3850d3	-0.0028124347
71	0xbd9d2d3f	-0.07674646
72	0x3cd9190c	0.026501201
73	0xbd62e03b	-0.055389624
74	0xbd03028c	-0.03198485
75	0xbe913e5c	-0.2836789
76	0xbe2f10c4	-0.1709624
77	0xbb2a95f2	-0.0026029316
78	0xbe702ba1	-0.23454143
79	0xbebbf41f	-0.36709687
80	0xbe6a1812	-0.22860745
81	0xbea74398	-0.32668757
82	0xbd5d67ad	-0.05405395
83	0xbd233b1f	-0.039851304
84	0xbb06bc23	-0.0020558916
85	0xbcbeabfa	-0.023275364
86	0xbcf1bb51	-0.029508265
87	0xbca184eb	-0.0197167
88	0xbd4ab30f	-0.04948717
89	0x3a8ccb8c	0.0010741814
90	0xbcbc9188	-0.023018613
91	0xbd034844	-0.03205134
92	0xbe7d5bb0	-0.24742007
93	0xbebd79c7	-0.3700697
94	0xbef200ce	-0.4726624
95	0xbe8a9e44	-0.27073872
96	0xbbce2fb7	-0.006292309
97	0xbd13b73f	-0.03606343
98	0xbd979429	-0.07401306
99	0xbe335979	-0.175146
100	0x3d22b045	0.039718885
101	0xbd887ebc	-0.06664798
102	0xbd1a0775	-0.037604768
103	0xbc498dea	-0.012301901
104	0xbc14af96	-0.009075066
105	0xbe879840	-0.26483345
106	0xbe839c2b	-0.25705084
107	0xbe7f7bc9	-0.24949564
108	0xbd433baf	-0.04766434
109	0xbebe65b1	-0.3718696
110	0xbec90e40	-0.39268684
111	0xbec0ef11	-0.37682393
112	0xbe69c6ef	-0.22829793
113	0x3b9126ca	0.004429673
114	0x3d9c864a	0.07642801
115	0xbe06148f	-0.1309378
116	0xbe9b151d	-0.30289546
117	0xbd302cea	-0.043011583
118	0xbd968012	-0.07348646
119	0xbee5a706	-0.4485399
120	0xbe1bfb01	-0.15232469
121	0xbee4728a	-0.44618636
122	0xbe88eeb7	-0.26744625
123	0xbefc7bff	-0.49313352
124	0xbf032f62	-0.51244175
125	0xbd928b22	-0.07155444
126	0xbe97efb1	-0.29675058
127	0xbd85667c	-0.06513688
128	0xbebcd441	-0.36880687
129	0xbb3c39d7	-0.0028720999
130	0xbcb0ff28	-0.021606043
131	0xbdbcb68b	-0.09214505
132	0xbe4f08c0	-0.20218182
133	0xbd0c26d5	-0.03421672
134	0xbec0a8ff	-0.37628934
135	0xbd2177e3	-0.039420974
136	0xbea217c7	-0.31658766
137	0xbe850e89	-0.25987652
138	0xbd03a1d5	-0.032136757
139	0x3cd3e50d	0.025866056
140	0xbdb8709e	-0.09005855
141	0xbe62efc2	-0.22161773
142	0x3cd9786d	0.026546681
143	0xbcbf4dd2	-0.023352537
144	0xbf05b881	-0.52234656
145	0xbd4558c6	-0.048180364
146	0xbe807d4e	-0.250956
147	0xbe9b4c6a	-0.30331737
148	0xbd9723ee	-0.073799
149	0xbea55046	-0.32287806
150	0x3bcbacf1	0.0062156846
151	0xbc7289e3	-0.014803383
152	0xbe8eadfc	-0.27867115
153	0xbd340f34	-0.04395981
154	0x3c3a9542	0.011388125
155	0xbc4ceee6	-0.01250813
156	0xbe92bd2e	-0.28659958
157	0xbebeb9ac	-0.3725103
158	0xbd7584d6	-0.059941135
159	0xbd37db77	-0.044887032
160	0x3cef6d7a	0.029227007
161	0x3a412344	0.0007367621
162	0xbcadc17c	-0.021210425
163	0xbe3550a7	-0.17706548
164	0xbdb3b5ae	-0.08774887
165	0xbe80db7c	-0.25167453
166	0xbe884803	-0.2661744
167	0xbce92acc	-0.02846279
168	0xbcd6bf04	-0.02621413
169	0xbcf8959f	-0.030344782
170	0xbedc701b	-0.4305428
171	0xbea81bcb	-0.32833704
172	0xbecde784	-0.40215695
173	0xbeaa673f	-0.33281896
174	0x3c193c8b	0.0093528135
175	0xbaa50148	-0.0012588883
176	0xbd42b791	-0.047538344
177	0xbd987d87	-0.074458174
178	0xbd251882	-0.040306576
179	0xbc10872f	-0.008821293
180	0xbcec686f	-0.028858392
181	0xbd48a4dd	-0.04898535
182	0xbcfec577	-0.031100018
183	0xbc88fef7	-0.01672314
184	0xbb9625cf	-0.004582144
185	0xbe640b50	-0.2226994
186	0xbe6cc7b6	-0.23123059
187	0xbeed63b4	-0.4636513
188	0xbd5940ef	-0.05304044
189	0x3c301cef	0.010749086
190	0xbe562bd8	-0.20915163
191	0xbcc65c2f	-0.024213878
192	0xbe3c8a68	-0.18412173
193	0xbe5305eb	-0.20607726
194	0xbc9bf72d	-0.019038761
195	0xbe73cd93	-0.23808889
196	0xbd1a75ae	-0.037709884
197	0xbd097ffd	-0.033569325
198	0xbd9785da	-0.07398577
199	0xbd7c6389	-0.06161836
200	0xbcb465c0	-0.022021174
201	0x3cb6bbb3	0.022306299
202	0xbe608e39	-0.21929254
203	0xbe8361c3	-0.25660524
204	0xbc81db1d	-0.015851552
205	0xbd49129b	-0.04909001
206	0xbb454308	-0.0030099768
207	0xbb3d6bef	-0.0028903445
208	0xbe6f5303	-0.2337151
209	0xbd60bfa0	-0.054870248
210	0xbeb65d78	-0.35618186
211	0x3b593d19	0.003314799
212	0xbead2064	-0.33813775
213	0xbf1a9365	-0.60381156
214	0xbd2d9255	-0.04237588
215	0xbe538318	-0.20655477
216	0xbd756f01	-0.059920315
217	0xbd7c24a6	-0.06155839
218	0xbedb74c6	-0.4286253
219	0xbc92ef98	-0.017936513
220	0xbd1a6c94	-0.037701204
221	0xbdcb623f	-0.09930848
222	0xbd198dbf	-0.037488695
223	0xbe845581	-0.25846484
224	0xbe78918d	-0.24274273
225	0xbd286c07	-0.041118648
226	0xbd2fee32	-0.04295177
227	0xbe6f7bcd	-0.2338707
228	0xbed662a1	-0.41872123
229	0xbe669a25	-0.22519739
230	0x3ce02160	0.027359664
231	0xbeb3913c	-0.35071743
232	0xbe2c0f96	-0.1680282
233	0xbbc9db99	-0.0061602113
234	0x38da80b1	0.00010419021
235	0xbed889a5	-0.42292514
236	0xbd744d50	-0.059644043
237	0xbccda0cb	-0.025101086
238	0xbc10bc5d	-0.008833972
239	0xbedfaa65	-0.43684688
240	0xbebc60b8	-0.3679254
241	0xbe952163	-0.29127035
242	0xbd78faa3	-0.0607859
243	0xbdaaeaae	-0.08345543
244	0xbd00fdd6	-0.031492077
245	0xbe7e4cca	-0.2483398
246	0xbe26396b	-0.1623284
247	0xbeb8e440	-0.3611164
248	0xbd4fb458	-0.0507091
249	0xbb699de7	-0.0035647096
250	0xbed279c2	-0.4110852
251	0xbd38e263	-0.045137774
252	0xbe4da969	-0.20084156
253	0xbccf9216	-0.025338214
254	0x3cbef9f7	0.023312552
255	0xbd7c4585	-0.061589736

conv.0.gcn_layer.fc.weight f4 [256, 256]
0	0x3e0886d5	0.13332684
1	0xbde3f81a	-0.11131306
2	0x3bcbb9b2	0.006217205
3	0xbe28599f	-0.16440438
4	0xbdd27677	-0.102765016
5	0x3db48a61	0.08815456
6	0x3e4c8726	0.1997343
7	0x3dc9f680	0.09861469
8	0xbd8b72e7	-0.06809025
9	0xbd0326ad	-0.032019306
10	0xbc1839b6	-0.009291103
11	0x3d8b8db1	0.06814135
12	0xbe57ec4b	-0.21086232
13	0xbe58db30	-0.21177363
14	0xbce64f71	-0.028114052
15	0xbd87c003	-0.0662842
16	0x3de2ffd3	0.11083951
17	0xbd526562	-0.051366217
18	0x3e086f3e	0.13323686
19	0xbd3e0389	-0.04639009
20	0xbcc1b01e	-0.02364355
21	0xbce1563e	-0.027506944
22	0x3cea76fc	0.02862119
23	0xbcd59368	-0.026071265
24	0xbc3232bd	-0.010876355
25	0xbc712b9d	-0.014719871
26	0x3da8c864	0.082413465
27	0x3bfcb162	0.0077115754
28	0x3c917bbc	0.017759196
29	0xbdf171c7	-0.117892794
30	0x3cfab745	0.030604968
31	0x3d48899d	0.048959363
32	0xbe032ab9	-0.12809266
33	0xbd3a88bd	-0.04554056
34	0x3dda8735	0.1067032
35	0xbd825814	-0.06364456
36	0xbd755724	-0.059897557
37	0xbc0beaa6	-0.008539831
38	0x3e099c1d	0.13438459
39	0xbb951f1d	-0.004550828
40	0x3e0187b9	0.1264943
41	0xbe2d975a	-0.16952267
42	0xbd1b6930	-0.03794211
43	0x3cf6c19c	0.030121617
44	0x3d9d7622	0.07688548
45	0xbd6ae5e0	-0.057348132
46	0x3d5d2243	0.053987753
47	0xbc818e05	-0.01581479
48	0xbdb64697	-0.08900183
49	0x3cccd448	0.025003567
50	0x3c93ff68	0.018066123
51	0xbd1fddaa	-0.039029755
52	0xbdc13934	-0.09434739
53	0xbd64e2b4	-0.055880263
54	0x3d5795a3	0.05263294
55	0xba316d9a	-0.0006768346
56	0xbcd70cb3	-0.026251173
57	0x3d4d7524	0.050160542
58	0x3e14083a	0.14456263
59	0xbc006395	-0.007836242
60	0x3de63b1c	0.11241743
61	0xbbb65ec6	-0.005565497
62	0x3c7d9fe1	0.015480013
63	0xbb66b0a8	-0.003520051
64	0x3d95f5a9	0.073222466
65	0xbd85afe3	-0.06527688
66	0xbd31c33e	-0.043399088
67	0x3d1d96ac	0.03847377
68	0xbe1d2636	-0.15346608
69	0xbdb247ad	-0.08705077
70	0x3d751ede	0.05984389
71	0xbcd88f64	-0.026435561
72	0xbd96bcbd	-0.07360218
73	0xbda506b2	-0.08057918
74	0xbd549fdb	-0.051910263
75	0xbdb6ed72	-0.08932008
76	0x3d62191f	0.05519974
77	0x3dca86df	0.09889006
78	0x3e9a72a5	0.30165592
79	0xbcdeeb5f	-0.027211843
80	0x3d3da9a3	0.046304356
81	0x3e250c51	0.1611798
82	0x3d12b85b	0.035820346
83	0x3df39bdc	0.11894962
84	0xbca70adf	-0.020390926
85	0xbd9e6f0c	-0.07736024
86	0x3d0b1e13	0.033964228
87	0xbd232e6c	-0.039839193
88	0xbc1b3e63	-0.009475323
89	0x3e50916d	0.20367976
90	0x3cf4c46b	0.029878816
91	0xbd8f947d	-0.07010744
92	0xbd8d0e98	-0.06887549
93	0xbd60df26	-0.05490031
94	0x3bda14a2	0.0066552917
95	0x3e0ab059	0.13543834
96	0x3dc0750b	0.09397324
97	0x3d6f91a3	0.0584885
98	0x3c74c108	0.0149386
99	0x3df6807b	0.120362245
100	0x3e4e6c46	0.2015849
101	0xbc31283e	-0.010812817
102	0x3ce8449c	0.028353028
103	0x3e11404f	0.14184688
104	0xbd9839d0	-0.07432902
105	0x3dbfc0ef	0.09362971
106	0x3db0c94b	0.086321436
107	0x3dbcaed1	0.09213031
108	0x3d4df3e5	0.050281424
109	0x3a5755ae	0.00082143664
110	0xbe2c8e5a	-0.16851178
111	0x3e216354	0.15760547
112	0xbc09d1fd	-0.0084118815
113	0x3d95e8c1	0.07319785
114	0x3d59ab9e	0.053142183
115	0x3d9b340f	0.07578289
116	0xbe780540	-0.24220753
117	0xbd42cb69	-0.04755727
118	0x3e42133c	0.1895265
119	0x3ce1c931	0.027561756
120	0xbc752427	-0.014962233
121	0x3d43a15a	0.0477613
122	0x3c2bb5dc	0.01048037
123	0x3d9e636f	0.07733809
124	0xbbfcb6ad	-0.0077122063
125	0x3d35c9c8	0.044381887
126	0xbc7159f6	-0.014730921
127	0x3ca3a5bc	0.01997649
128	0xbdf04568	-0.11731988
129	0x3cf54fb7	0.029945238
130	0x3d03d6e9	0.032187376
131	0x3d8ddedf	0.06927275
132	0xbc88c427	-0.016695095
133	0xbd358eab	-0.044325512
134	0x3e0dd5b3	0.13851051
135	0x3c2f6215	0.010704537
136	0xbd859698	-0.06522864
137	0x3e07a6e1	0.13247253
138	0x3c9c70ba	0.019096721
139	0xbd737899	-0.059441183
140	0x3dcef034	0.10104409
141	0xbc0d01ca	-0.008606384
142	0xbd790c70	-0.060802877
143	0x3c1477db	0.009061779
144	0x3e237b7d	0.15965076
145	0x3bbebacc	0.0058206078
146	0x3d3d0001	0.04614258
147	0x3bb06666	0.0053833006
148	0xbe0d786e	-0.13815472
149	0x3d29d1d4	0.041459873
150	0x3d20f2b5	0.039293963
151	0x3cd7d292	0.026345525
152	0x3d2aa952	0.041665383
153	0x3c45240c	0.01203252
154	0x3d24c403	0.040225994
155	0xbda64ace	-0.081197366
156	0x3e287990	0.16452622
157	0x3e0104ac	0.12599438
158	0xbe03d302	-0.12873462
159	0x3d86445e	0.06556009
160	0xbd73ffac	-0.05957
161	0xbe048d46	-0.12944517
162	0xbd46e4ad	-0.048557926
163	0xbd1b4591	-0.03790814
164	0x3bf98f1a	0.007615936
165	0xbdddef2d	-0.10836635
166	0xbe058759	-0.13039912
167	0x3ca6b398	0.020349309
168	0xbe4e7d62	-0.20165017
169	0x3c945a47	0.018109454
170	0xbccf334d	-0.025293017
171	0xbd5053c5	-0.05086114
172	0x3e8f4dda	0.27989084
173	0xbda67253	-0.08127274
174	0xbe6576f6	-0.22408661
175	0x3e18c997	0.1492065
176	0xbc4449a9	-0.011980453
177	0x3e14793f	0.14499377
178	0xbae540e0	-0.0017490648
179	0xbe0cbb01	-0.13743211
180	0xbe23f1fe	-0.16010281
181	0x3dbcf61d	0.0922663
182	0x3d7737f8	0.06035611
183	0x3e7ddc78	0.24791133
184	0x3d825c90	0.06365311
185	0xbcc4c949	-0.024021761
186	0xbd7ed460	-0.062214255
187	0x392e89f7	0.00016645329
188	0xbe1bafba	-0.15203753
189	0x3d930c93	0.07180133
190	0x3bf4872c	0.007462403
191	0xbdd5d029	-0.10440094
192	0x3ccbaa97	0.024861617
193	0xbd8362e0	-0.06415343
194	0xbd823cfa	-0.063592866
195	0xbbaa3a4e	-0.0051949387
196	0x3b3f29fe	0.0029169316
197	0x3e7fa74e	0.24966165
198	0xbcc77716	-0.024348777
199	0x3d3d7dcf	0.04626256
200	0xbd4d5381	-0.050128464
201	0x3dc1371d	0.0943434
202	0xbdb86c64	-0.09005049
203	0xbdbf49fb	-0.093402825
204	0x3d4cb2a7	0.049975064
205	0x3dcd2aaa	0.10017903
206	0xbd6f3a92	-0.058405466
207	0x3d81e15e	0.063418135
208	0xbd142316	-0.036166273
209	0x3d420b8b	0.04737429
210	0xbd94069f	-0.072278254
211	0x3c921e82	0.017836813
212	0x3d28ed16	0.041241728
213	0xbcc2dbff	-0.023786543
214	0x3d868d46	0.065699145
215	0xbdc3a7b6	-0.09553473
216	0x3e0a2c14	0.13493377
217	0x3e0f44bf	0.13991068
218	0xbde5a727	-0.112135224
219	0xbdde4270	-0.10852516
220	0xbde4a605	-0.11164478
221	0xbd97db72	-0.07414903
222	0xbe2d2b9a	-0.16911164
223	0x3d937e11	0.0720178
224	0xbdd77d68	-0.10521966
225	0x3ccdb0ce	0.025108721
226	0x3d60cf0e	0.054884963
227	0x3ca49b69	0.020093637
228	0xbd619bd1	-0.05508024
229	0x3cd947c6	0.026523482
230	0xbc4a7cdb	-0.012358869
231	0x3d0caa7c	0.034342274
232	0xbd631ff5	-0.0554504
233	0x3d04256f	0.032262262
234	0xbdec4e31	-0.11538351
235	0xbe30ec3f	-0.1727762
236	0xbc038275	-0.008026709
237	0xbe04566b	-0.12923591
238	0x3cc41811	0.023937257
239	0xbd42b222	-0.047533162
240	0x3da138e2	0.07872178
241	0xbd9dfb5c	-0.077139586
242	0xbd4b116d	-0.049577165
243	0xbd462a77	-0.04838034
244	0x3d9f1c68	0.0776909
245	0x3be90a35	0.0071118125
246	0x3dc05b0a	0.09392364
247	0x3d524a9c	0.051340684
248	0xbd733b39	-0.05938265
249	0xbc55c32f	-0.013047024
250	0x3df78301	0.12085534
251	0x3dd32583	0.10309889
252	0xbd369313	-0.044573855
253	0x3da89d87	0.08233171
254	0xbcbd6ac5	-0.0231222
255	0xbda47e29	-0.08031876

src_mlp.weight f4 [128, 256]
0	0xbd12ad8d	-0.035810042
1	0x3e303732	0.17208555
2	0x3e012a8a	0.12613884
3	0xbcaeb129	-0.02132471
4	0x3d5a7559	0.053334568
5	0x3b9dfe58	0.00482158
6	0xbe7d9201	-0.24762727
7	0x3b9c4b11	0.004769691
8	0xbdc7d51d	-0.09757445
9	0x3e27e1bc	0.16394705
10	0xbe0ddd3e	-0.13853928
11	0x3d66eb34	0.05637665
12	0xbda54eee	-0.08071695
13	0x3ce3a20b	0.027787229
14	0xbcafb8ec	-0.021450482
15	0xbcdf9661	-0.027293386
16	0xbd7985ed	-0.060918737
17	0x3db5c76f	0.088759296
18	0xbe10e8d5	-0.14151318
19	0x3d17b3e9	0.03703681
20	0x3d012630	0.03153056
21	0xbcb8550f	-0.022501497
22	0xbd3c046a	-0.045902647
23	0xbe797075	-0.24359305
24	0xbda6ba5b	-0.08141013
25	0xbd167c4a	-0.036739625
26	0xbe115741	-0.14193441
27	0xbe26c4c3	-0.16285996
28	0xbe392dfa	-0.18083945
29	0xbdf92c44	-0.12166646
30	0x3d609890	0.054832995
31	0x3da3ff69	0.080077
32	0x3d920c07	0.071312
33	0x3dbaa823	0.09114101
34	0xbe0b255a	-0.13588467
35	0x3e85697e	0.26057047
36	0x3e120305	0.14258964
37	0xbea5e182	-0.3239861
38	0x3de98f05	0.11404232
39	0xbd4e866b	-0.05042116
40	0xbe4d046c	-0.20021218
41	0x3d23c51a	0.039982893
42	0xbcfb9cc3	-0.030714398
43	0xbd1131c3	-0.035447847
44	0xbdffef56	-0.124968216
45	0xbcba1535	-0.02271519
46	0x3e2d84d3	0.169452
47	0xbd181ae1	-0.03713501
48	0xbdc207ce	-0.09474145
49	0x3d8f46f3	0.06995954
50	0xbd0effdb	-0.03491197
51	0xbd30a511	-0.04312617
52	0x3d9ddcf7	0.07708161
53	0xbdceabcf	-0.10091364
54	0xbce0cb43	-0.027440673
55	0xbea3880b	-0.3193973
56	0xbb86be71	-0.004112058
57	0xbd1c9207	-0.0382252
58	0x3cfd49bc	0.030918948
59	0x3d4138ad	0.04717319
60	0xbe565c9a	-0.20933762
61	0xbe1d0331	-0.15333249
62	0xbbfee7af	-0.0077790837
63	0x3d2f0d5d	0.042737354
64	0x3dbf5183	0.09341719
65	0x3e566b86	0.20939454
66	0x3db65206	0.089023635
67	0x3def5e91	0.11687959
68	0xbde0591d	-0.10954497
69	0xbeacb109	-0.33728817
70	0xbe8ca9a8	-0.27473187
71	0x3dc43c33	0.095817946
72	0xbe397597	-0.18111263
73	0x3d909625	0.07059888
74	0x3e081704	0.1329003
75	0x3cfe5bd4	0.031049646
76	0xbd910512	-0.07081045
77	0x3e01e62c	0.1268546
78	0x3cfa0fd0	0.030525118
79	0xbe45d57c	-0.19319719
80	0xbcd9bacf	-0.026578335
81	0x3cae44d4	0.021273054
82	0xbe282389	-0.16419806
83	0xbe44e9e5	-0.19229849
84	0x3cf977a1	0.030452551
85	0x3cfc9924	0.030834742
86	0xbe4c7822	-0.19967702
87	0xbc3e6212	-0.0116200615
88	0xbde50d68	-0.11184198
89	0xbc290d42	-0.010318102
90	0xbd03aa45	-0.032144804
91	0x3cb57d6a	0.022154529
92	0xbc3e0e05	-0.011600022
93	0x3dc24724	0.09486225
94	0x3ce37efd	0.027770514
95	0x3e0e4e67	0.13897096
96	0xbe487de1	-0.19579269
97	0xbeacc26e	-0.33742088
98	0x3d21119b	0.03932343
99	0x3d453c50	0.04815322
100	0xbd0748de	-0.033028476
101	0x3dfc607e	0.12323092
102	0xbe858c6f	-0.26083705
103	0x3d3c4e59	0.045973156
104	0xbd57126e	-0.05250781
105	0xbcce0007	-0.025146497
106	0x3dc38137	0.0954613
107	0xbe5a249c	-0.21303028
108	0x3e2bca05	0.16776283
109	0x3a89a209	0.0010500561
110	0x3cb435f8	0.02199839
111	0x3ca4e8c4	0.020130523
112	0x3d6f92ac	0.058489487
113	0xbe62b343	-0.22138695
114	0x3d3dc815	0.04633339
115	0xbb9dc269	-0.0048144353
116	0xbc28f53e	-0.010312377
117	0xbc43e727	-0.0119569665
118	0x3e2bb317	0.16767536
119	0xbdc86244	-0.09784368
120	0xbddb6df4	-0.10714331
121	0x3cca9064	0.024727054
122	0x3db8635e	0.09003328
123	0xbdf34b8c	-0.11879644
124	0x3d4f751f	0.050648805
125	0xbd3546c4	-0.04425694
126	0xbd5cb82a	-0.05388657
127	0x3d6d1182	0.057878025
128	0xbe3d8108	-0.18506253
129	0xbd98847b	-0.07447144
130	0x3dda6241	0.10663272
131	0x3e0ad8c4	0.13559252
132	0xbd78b8a7	-0.060722973
133	0xbe2c8514	-0.1684764
134	0xbd2b0e7c	-0.04176186
135	0xbe5a9444	-0.21345621
136	0xbd8aa391	-0.06769479
137	0xbd87c491	-0.06629289
138	0x3d855bfa	0.06511684
139	0xbd79838f	-0.06091648
140	0x3d086d9c	0.033307657
141	0x3d480d03	0.048840534
142	0x3ccdd3e7	0.025125457
143	0x3db299d5	0.087207474
144	0xbe23d982	-0.16000941
145	0x3ab6821f	0.0013924277
146	0xbce30f71	-0.027717324
147	0x3d9bdbc6	0.07610278
148	0xbdb7e0f7	-0.089784555
149	0xbdc37afb	-0.09544941
150	0xbde8c9ee	-0.1136664
151	0x3c91290f	0.017719774
152	0xbcd17567	-0.025568677
153	0x3dab665b	0.08369132
154	0xbd9d3dcf	-0.07677805
155	0xbd8bdc97	-0.068291835
156	0xbda116a2	-0.07865645
157	0x3d77d4ca	0.060505666
158	0x3e74207b	0.23840515
159	0x39c179a6	0.00036902464
160	0x3d021249	0.03175572
161	0x3db33b23	0.08751514
162	0x3daab6d5	0.08335654
163	0x3d45e134	0.048310474
164	0xbd7c5d69	-0.06161252
165	0x3c87348c	0.016504548
166	0xbd844b91	-0.06459726
167	0xbd6b972f	-0.057517227
168	0x3ceae886	0.028675329
169	0xbdf16d9c	-0.117884845
170	0xbe0ee4cc	-0.13954467
171	0x3dd513e9	0.10404188
172	0x3d7e22ba	0.062044837
173	0xbc08f18d	-0.008358371
174	0xbd778612	-0.060430594
175	0x3da79f2e	0.08184658
176	0x3c3cc48a	0.011521468
177	0x3c84d4c5	0.016214738
178	0x3d9851a5	0.074374475
179	0xbe1e0a49	-0.15433611
180	0x3db56159	0.08856458
181	0x3e052cf7	0.13005434
182	0xbd9f7961	-0.07786823
183	0xbd97f2fd	-0.07419393
184	0x3dc6824b	0.0969282
185	0xbcef09d2	-0.029179487
186	0xbe0a65bd	-0.13515373
187	0x3e229fd7	0.15881287
188	0xbda8e51c	-0.08246824
189	0x3e44149d	0.19148488
190	0xbc8e172c	-0.017345034
191	0x3e0b80fc	0.13623422
192	0xbd5f66cb	-0.05454139
193	0x3d1cdaf7	0.03829476
194	0xbd9f338f	-0.07773506
195	0x3c14248c	0.009041917
196	0xbe7743ca	-0.24146953
197	0x3e506df0	0.20354438
198	0xbda0f12c	-0.078585
199	0xbd8f81ea	-0.07007201
200	0xbd870ba5	-0.06594018
201	0xbdff1db7	-0.124568395
202	0xbdeb139c	-0.114783496
203	0x3daa5fc6	0.083190486
204	0xbd8281e7	-0.06372433
205	0x3c855694	0.016276635
206	0x3d44b664	0.048025504
207	0x3d8a3898	0.06749076
208	0xbe75d7c8	-0.24008095
209	0x3e4214b1	0.18953206
210	0x3dab63b6	0.08368628
211	0xbe24a58c	-0.16078776
212	0x3ca7d91a	0.020489264
213	0x3cd50dd5	0.026007572
214	0x3dc1edc5	0.09469179
215	0x3bca0af1	0.006165855
216	0x3d2b6917	0.04184827
217	0xbd4a4c59	-0.049389217
218	0xbe01de2a	-0.12682405
219	0x3dd20f5e	0.10256837
220	0x3d670818	0.056404203
221	0xbdc3d75a	-0.095625594
222	0xbe15e674	-0.14638692
223	0x3c807f49	0.015685694
224	0xbda02c2e	-0.078209266
225	0xbda728d2	-0.08162083
226	0xbbc56542	-0.0060240338
227	0x3d5e482b	0.054268043
228	0x3ddd1ae5	0.10796145
229	0x3d7904c0	0.060795546
230	0x3d4145dd	0.047185767
231	0x3e53e021	0.20690967
232	0xbd8261d0	-0.063663125
233	0xbe3572d0	-0.17719579
234	0xbecfd5b0	-0.40592718
235	0xbdfc7c07	-0.12328344
236	0x3e2718fd	0.16318126
237	0xbce5f702	-0.028071884
238	0xbe9ac1d3	-0.30226
239	0x3ca86bb1	0.020559164
240	0x3d3ce0b5	0.046112735
241	0xbd6b12f9	-0.05739114
242	0xbd898b4f	-0.06716024
243	0xbd5942d8	-0.053042263
244	0xbd20d7f4	-0.03926845
245	0x3d5d8ed0	0.054091275
246	0xbce27797	-0.027644916
247	0x3d7a4e1c	0.061109647
248	0x3cbca22c	0.023026548
249	0x3d921390	0.071326375
250	0xbd58ef17	-0.05296239
251	0xbd76273b	-0.060096007
252	0xbe0d4c84	-0.1379872
253	0x3ddabcb8	0.106805265
254	0xbdbfb549	-0.09360749
255	0x3e173d3a	0.1476945

src_mlp.bias f4 [128]
0	0x3cfb2c09	0.030660646
1	0x3caa5488	0.02079226
2	0xbca006a5	-0.019534418
3	0xbbeac51c	-0.0071646105
4	0x3c611530	0.013737962
5	0x3b9b5d3a	0.004741338
6	0x3c480048	0.012207098
7	0xbc310641	-0.010804714
8	0xbb50e612	-0.0031875414
9	0xbc4cd440	-0.012501776
10	0x3c0f1fb4	0.008735586
11	0x3cb5d93a	0.022198308
12	0xbc8d4e6a	-0.017249305
13	0xbea017f5	-0.31268278
14	0x3bdd62d5	0.0067561665
15	0x3b5d19dc	0.0033737337
16	0xbd818137	-0.06323474
17	0x3cb0874c	0.02154889
18	0x3c329447	0.01089961
19	0xbccf7cfd	-0.025328154
20	0xbcf643d8	-0.030061647
21	0xbc79be7b	-0.015243168
22	0x3d392e62	0.04521025
23	0xbbe6c532	-0.0070425505
24	0x3a9a2eda	0.001176323
25	0x3ce34f4e	0.027747776
26	0xbd00234f	-0.031283673
27	0x3cb33335	0.021875003
28	0xbd05a4ee	-0.032627992
29	0xbd07d6b2	-0.033163734
30	0xbc4627fb	-0.012094493
31	0x3da8dfeb	0.08245834
32	0x3c7e3642	0.015515866
33	0xbf13c5a3	-0.57723445
34	0x3cefb06c	0.02925893
35	0x3caf32dd	0.021386558
36	0x3db23b6e	0.087027416
37	0x3d8dee31	0.06930197
38	0x3c1826d6	0.009286603
39	0xbc41b109	-0.011821994
40	0x3d45bdad	0.048276592
41	0xbd79b39e	-0.060962312
42	0x3c6c6e97	0.014430664
43	0x3d8c3894	0.06846729
44	0xbc9aed9b	-0.018912127
45	0xbf102f06	-0.5632175
46	0x3ce22877	0.027607186
47	0xbe262693	-0.16225652
48	0xbca4ebed	-0.02013203
49	0xbe14643c	-0.14491361
50	0x3d966699	0.07343788
51	0xbd494d0d	-0.049145747
52	0xbd58b63a	-0.05290816
53	0x3be2882c	0.0069132056
54	0xbdb3eef0	-0.08785808
55	0xbd4094af	-0.047016796
56	0x3dab7934	0.08372727
57	0x3dc1f815	0.09471146
58	0xbe29fe0e	-0.1660082
59	0xbd8a6229	-0.06757004
60	0xbc5bcfcc	-0.013416242
61	0x3e5fcc34	0.21855241
62	0x3c710a46	0.014711922
63	0x3cf457d5	0.029827038
64	0x3c8fbd9d	0.01754647
65	0xbcec3766	-0.02883501
66	0x3d09c7e1	0.033637885
67	0xbb582c02	-0.0032985215
68	0xbe0cb07d	-0.137392
69	0xbcb875a9	-0.022517042
70	0xbd12094f	-0.03565341
71	0x3afa3503	0.0019089285
72	0x3d550285	0.052004356
73	0xbf5c4df0	-0.86056423
74	0xbd251fbc	-0.040313467
75	0x3dc1b632	0.09458579
76	0xbe0d5ebb	-0.13805668
77	0xbdd3a1e5	-0.10333613
78	0xbd993ffb	-0.074829064
79	0x3ca6c7b4	0.020358898
80	0xbd16f3f7	-0.036853757
81	0x3cb614da	0.02222674
82	0x3dfc474a	0.12318285
83	0x3c80e229	0.015732842
84	0xbbb6da84	-0.0055802483
85	0x3d28a003	0.041168224
86	0x3bfca898	0.0077105276
87	0x3b7ac524	0.0038264478
88	0xba04c287	-0.0005064387
89	0xbdaece06	-0.085353896
90	0x3d538818	0.05164346
91	0xbcab0672	-0.020877097
92	0xbd1603c2	-0.036624677
93	0xbd8c5884	-0.068528205
94	0x3cd9f728	0.026607111
95	0xbcb6eb14	-0.02232889
96	0xbd6ce0c3	-0.057831537
97	0x3e245cda	0.16051045
98	0xbd024d56	-0.031812035
99	0xbdea881c	-0.11451742
100	0xbd0c0851	-0.03418762
101	0x3d271922	0.040795453
102	0xba65caf3	-0.00087658985
103	0xbd19570e	-0.037436537
104	0xbde2d043	-0.11074879
105	0x3ce0af1c	0.027427249
106	0xbabdd240	-0.0014482215
107	0x3d978302	0.07398035
108	0x3e4ef5b2	0.20210913
109	0xbd91fd39	-0.071283765
110	0xbd3633b8	-0.044482917
111	0xbc5e194d	-0.013555837
112	0x3d5de67b	0.05417488
113	0xbea9a0e9	-0.33130577
114	0xbcdac2a2	-0.026704136
115	0x3c8ac34d	0.01693883
116	0x3ce90f38	0.02844964
117	0xbced54a1	-0.028971018
118	0x3de3c2ef	0.11121165
119	0x3cd8a3aa	0.026445229
120	0x3c33c5f3	0.010972488
121	0xbc4c8d3c	-0.012484845
122	0xbce779e5	-0.028256366
123	0x3da7ca60	0.08192897
124	0x3de2e851	0.11079467
125	0x3c80ebcb	0.015737435
126	0xbf31b005	-0.6940921
127	0xbc6b7a7f	-0.014372467
