checkpoint/voxceleb_split_200.pth (torch, 602931 bytes, 15 tensors)

conv.0.bias f4 [1, 256]
000000 97 f5 ba be ad 02 f4 bd 10 f9 b1 be 55 c5 80 bc
       -0.36515495 -0.11914573 -0.34760332 -0.015719095
000010 82 41 8b be f7 c7 af be 1b 88 9b be 3c 8f 7f bd
       -0.27198416 -0.3433225 -0.30377278 -0.06239246
000020 f4 10 13 be 9a d1 04 bf 90 3f 6e bd 9b 97 42 be
       -0.14361936 -0.51882327 -0.058166087 -0.19003145
000030 35 6d 84 be 6e d4 09 3d 80 0e 61 bc 74 66 97 be
       -0.25864568 0.033649854 -0.013736367 -0.29570353
000040 5c 78 79 3b 93 b3 49 bd 9f f4 d1 be 6d 41 28 be
       0.0038066125 -0.04924352 -0.41006944 -0.16431208
000050 85 81 04 be 3a 08 17 be 00 66 05 bf 71 9c ee bc
       -0.12940033 -0.14749232 -0.52108765 -0.029127331
000060 7e 15 e4 be 92 e3 d5 bd 32 b2 1a be fd 93 8e be
       -0.44547647 -0.10443796 -0.15107039 -0.2784728
000070 86 19 78 be 4e 3b 51 be 12 f6 15 be 4e 0b 1f bd
       -0.24228486 -0.20432779 -0.1464465 -0.03882914
000080 57 34 34 bd 68 c5 90 bd 41 bc 12 bd 0d 9e a5 bd
       -0.043995228 -0.07068902 -0.035824064 -0.080867864
000090 ad 26 88 bd 68 5d 1e be 4b b7 58 be 81 df 4b be
       -0.06648002 -0.15465319 -0.2116367 -0.19909479
0000a0 99 e5 97 be b8 2b aa be 30 f3 92 bc 4a 0f 82 bd
       -0.29667357 -0.3323648 -0.017938226 -0.063505724
0000b0 08 b6 1b be 01 3f a2 be b7 73 5a be 83 1a 0f be
       -0.15206158 -0.31688693 -0.21333204 -0.13974957
0000c0 c6 67 e2 3d e7 62 97 be a5 3b 26 bd 3c b4 99 be
       0.110549495 -0.29567644 -0.040584225 -0.3002032
0000d0 4a 4d 33 be c0 88 8a bd bc f3 95 be 6e 72 66 be
       -0.17509952 -0.06764364 -0.29287517 -0.22504589
0000e0 14 3c 59 be 0c 0a 81 be 92 25 3a be 1d 6f e9 be
       -0.21214324 -0.25202978 -0.18178394 -0.45592585
0000f0 fb 88 a7 bb e5 19 1a be cc ff f6 bc 0c b1 c1 be
       -0.005112765 -0.1504894 -0.03015127 -0.3783039
000100 54 68 3c be 30 cb a8 be e1 8b 1c bc cf 8d bc be
       -0.18399173 -0.3296752 -0.009554834 -0.3682694
000110 0b e9 6e 3c 86 03 53 be a2 7e 73 be 19 d1 b4 b8
       0.014581929 -0.20606813 -0.23778775 -8.622016e-05
000120 22 a0 38 be 2c ad fe bd e9 82 56 be 96 97 59 bd
       -0.18029836 -0.12435374 -0.20948376 -0.05312308
000130 62 ab 9b bc 19 da 02 bd 5f db 6e bd db d9 df be
       -0.01900262 -0.031946275 -0.058314677 -0.43720898
000140 10 88 3e bd 7d 0f f6 bd b6 1e 1e bd 82 d1 07 be
       -0.046516478 -0.12014673 -0.038603507 -0.13263515
000150 04 1c bf 3d 1d a5 95 be c1 d1 be bc 1e 95 35 be
       0.093315154 -0.29227534 -0.023293378 -0.17732665
000160 89 0d 8a be 45 ab 34 be 91 16 ed bd 4f e7 6c be
       -0.26963452 -0.17643459 -0.1157657 -0.23135112
000170 28 1a 1f be 3a 35 bc be 6c 84 1f be d5 a4 d9 bc
       -0.15537322 -0.3675936 -0.15577859 -0.026567856
000180 a9 bb 4b bd 48 51 b1 be 8a dc 37 be 6e f9 63 bd
       -0.049739514 -0.34632325 -0.17955223 -0.055657797
000190 8e 2c 1d be cc f6 f4 bc e4 2c e4 bd 39 8b b4 be
       -0.15349028 -0.029902838 -0.11141375 -0.35262468
0001a0 1d 6e 96 be 63 8f 24 be 2e 18 a1 be ac ad 21 be
       -0.29380885 -0.16070323 -0.3146376 -0.15788907
0001b0 a7 1a 76 be d8 79 ff bd fe f0 0a bd 35 8b 26 be
       -0.24033605 -0.12474412 -0.033921234 -0.16264041
0001c0 40 d3 49 bd 5e 55 a2 bc f0 5c 34 be a7 f3 11 be
       -0.04927373 -0.019816097 -0.17613578 -0.14253102
0001d0 37 2e 81 be fa 0d 42 be 86 6e 0e bd 11 c5 b0 be
       -0.25230572 -0.18950644 -0.034773372 -0.3452535
0001e0 df 2e a0 bd 07 d1 95 bd 66 14 a1 be 3c 8d 7d bd
       -0.0782144 -0.073152594 -0.31460875 -0.06190227
0001f0 8c 01 1a be ba 1c 4a bd 0a 02 4b be 5f 7a 3e be
       -0.15039653 -0.049343802 -0.19824997 -0.18601368
000200 49 25 b9 be ef 37 71 bd 91 35 2e be 5d 71 5f be
       -0.3616126 -0.058891233 -0.17012621 -0.21820588
000210 35 64 0d be 9d 4c b9 be 18 48 42 be f4 02 c7 3b
       -0.13807757 -0.36191264 -0.18972814 0.00607335
000220 eb 83 85 be 33 70 3c bd d7 87 16 bd a7 41 a0 bd
       -0.26077208 -0.04600544 -0.03675064 -0.07825022
000230 1e 52 ef be 50 e7 ef bd ca 9c a3 be 31 d0 f2 be
       -0.46742338 -0.11714041 -0.31955558 -0.47424462
000240 22 d4 9c be ee 7b 15 be 71 72 1d be 06 80 5e be
       -0.30630594 -0.14598057 -0.15375687 -0.21728525
000250 9f 82 bb bc 83 2a 07 bd 69 ab 23 be 92 93 3b be
       -0.022889433 -0.032999527 -0.15983357 -0.18318012
000260 38 79 20 be 0c 8b 47 be 2b 09 31 bd 8e 3d cd 3b
       -0.15671241 -0.19486636 -0.043221634 0.0062634414
000270 c2 e9 96 be 58 ed 15 be db 89 30 bd 79 4c 8e bd
       -0.29475218 -0.1464132 -0.04310022 -0.0694818
000280 2c fb 7e be b9 93 8c be a6 9a 33 be a8 3b 37 be
       -0.24900502 -0.27456453 -0.17539462 -0.17893851
000290 77 f2 bc be a2 7e 3a be 8f ac 48 bd 34 b3 8d be
       -0.36903736 -0.18212369 -0.04899269 -0.27675784
0002a0 37 34 49 bd 75 6a 43 be 8f 42 c9 be bf fa 10 bd
       -0.04912206 -0.19083579 -0.39308593 -0.03539538
0002b0 de 25 88 bd 5f cb b2 be 44 e2 94 be ac 1d 6c bc
       -0.066478476 -0.34920785 -0.29078877 -0.014411371
0002c0 09 04 82 bd 47 54 7e be d2 b6 a0 be c7 68 55 be
       -0.06348426 -0.24836837 -0.3138948 -0.2084075
0002d0 9d f4 4c be ad 86 c9 bc 51 c1 39 bd e8 e9 64 be
       -0.20015188 -0.024600351 -0.045350377 -0.22354853
0002e0 83 0d df bd ba 8d bf bd fc f2 8b bc 1f ea 47 be
       -0.10891249 -0.09353204 -0.017083637 -0.19522904
0002f0 e5 90 5d be 98 bc 0f be 97 db 86 be f8 e1 9e be
       -0.21637304 -0.14036787 -0.2633941 -0.31031775
000300 85 e3 9f be 0d 50 6c be b5 b6 db bd 4f 85 78 bc
       -0.3122827 -0.23077412 -0.10728208 -0.015168502
000310 44 0f 2a be b7 37 62 bd 50 54 43 be cd bd a0 be
       -0.16607386 -0.055228915 -0.19075131 -0.31394807
000320 65 49 30 be f6 f8 95 bd 5c 8c 80 be 4c f6 aa be
       -0.17215498 -0.07322876 -0.25107086 -0.33391035
000330 29 0e 08 be 22 a4 1c bd dd cd bb be ef e6 84 be
       -0.13286652 -0.038242467 -0.366805 -0.25957438
000340 69 55 51 be 2e 70 01 bd a8 fe 2a be 6c 31 69 be
       -0.20442738 -0.031601124 -0.16698706 -0.22772759
000350 c1 1c 55 bd 66 0b 1c be 69 b0 30 be 0c 9b 98 be
       -0.052029375 -0.15238723 -0.17254795 -0.2980579
000360 a6 88 0d be b2 a6 22 be 92 64 a5 bd 38 77 3f be
       -0.13821658 -0.15883902 -0.08075823 -0.18697822
000370 4c d0 38 be 30 92 8a be 81 5e 11 bf be 34 99 39
       -0.18048209 -0.27064657 -0.56784827 0.0002922173
000380 b3 f6 5e be 46 ef 68 be 93 7a 5e be b0 72 8c bc
       -0.21773796 -0.22747526 -0.21726446 -0.017144531
000390 9b 01 37 be 4c 95 97 be fb dd aa be 0c 24 2e bd
       -0.17871706 -0.29606092 -0.33372483 -0.042514846
0003a0 cc b4 7b bc e1 ae d8 be af 05 ba be 5c f3 b1 bd
       -0.01536293 -0.42320922 -0.3633246 -0.08688995
0003b0 2f ab ef be ae 3c 20 bd 00 f5 fa bc 6d f8 24 be
       -0.4681029 -0.03912037 -0.030634403 -0.16110392
0003c0 fb bf 50 be 83 10 a5 be f9 15 4e bc cc 35 bc bd
       -0.20385735 -0.3223916 -0.012578481 -0.091899484
0003d0 91 56 61 be 4f 05 65 be 56 b9 30 be d5 4f 97 be
       -0.22005679 -0.22365306 -0.172582 -0.29553095
0003e0 9c 88 44 be 46 93 df be a3 5d 0d bd 2a 2c c1 be
       -0.19192737 -0.43667048 -0.034513127 -0.37729007
0003f0 45 0b 17 bd 76 b5 e9 bd a6 60 40 be ad fc c7 bd
       -0.03687598 -0.11411564 -0.18786868 -0.09764991

conv.0.gcn_layer.attn_l f4 [1, 1, 256]
000000 15 fe 9a bd c9 d2 68 bb f7 ba 6f 3e 69 48 fe bd
       -0.075679936 -0.0035526028 0.23411165 -0.12416155
000010 87 84 16 3d 71 c8 68 3c d0 65 a4 3d 54 ec f5 bb
       0.03674748 0.014207945 0.08027232 -0.007504979
000020 1a 06 01 3d 8e 49 a7 bd b1 25 bd bc 03 03 a9 3d
       0.03149996 -0.08168326 -0.023089262 0.082525276
000030 31 f7 ff bc 4a 9e 5e bd bd 31 69 bb 45 d8 6c be
       -0.0312458 -0.054350175 -0.0035582625 -0.23129375
000040 3c 3f 4d bd 67 62 41 3d 69 2c f3 bd f9 ef f5 bc
       -0.050109133 0.047212984 -0.11873705 -0.030021654
000050 1e 97 02 bc b1 7a df bd 5d bf 15 3e 00 91 03 be
       -0.007970599 -0.109120734 0.1462378 -0.12848282
000060 9e dd ea bd 25 33 2f bd a2 b0 b1 bd bd 12 c4 bd
       -0.114680514 -0.042773385 -0.08676268 -0.095738865
000070 a1 eb 85 3b 15 f5 93 3d 37 93 a7 bd 01 a8 b9 bd
       0.004086927 0.0722448 -0.08182376 -0.09065247
000080 58 8f c8 b5 f2 4a 1d 3d db d7 35 bd aa d8 b0 bd
       -1.494288e-06 0.03840155 -0.04439531 -0.086350754
000090 53 a5 d2 3c 6b 36 11 bd a9 b9 89 3d 37 b3 77 bd
       0.025713598 -0.035452288 0.06724865 -0.060473647
0000a0 d3 8f e7 bc 08 b9 3f 3b ac 90 26 3d e0 69 20 bd
       -0.028266823 0.0029254574 0.040665314 -0.03916347
0000b0 5d 55 c2 3a 8f ff 82 bc 99 65 99 3d 7d e7 cc bc
       0.0014826466 -0.015991 0.07490081 -0.025012726
0000c0 8a ef 08 bd c3 67 49 3d 7c 51 ff 3d a9 73 94 bd
       -0.033431567 0.04917122 0.12466714 -0.07248623
0000d0 d6 36 82 bb f3 cd 5e 3c 61 6b f2 3d 48 4e 34 be
       -0.003973822 0.013598907 0.11836887 -0.17607987
0000e0 f2 64 d1 bd 37 ec 75 bd 65 4c 09 be e8 d0 bf 3c
       -0.10224332 -0.060039725 -0.13408048 0.023415044
0000f0 22 72 e9 3d d2 18 05 bd 97 ff d0 bb 6b 9d 25 bd
       0.11398722 -0.032494374 -0.006378125 -0.04043333
000100 ae 24 b7 bc 55 13 b4 bc ae 03 33 3b bc 4c 21 bd
       -0.022356357 -0.021981874 0.0027315426 -0.03937982
000110 b9 54 ab 3d 45 92 07 3d 12 99 88 3d 71 1a 41 bd
       0.08365769 0.033098478 0.06669821 -0.047144357
000120 10 01 52 bd 9a a6 27 bd 3b 7d b0 3c 8d 5f 21 bd
       -0.051270545 -0.040930368 0.02154409 -0.039397765
000130 20 a7 86 3d e2 35 ef 3c 06 6c 6b bd 1c ea 8e 3d
       0.06574845 0.029200498 -0.057476066 0.069782466
000140 62 52 c2 bc f2 1c a5 bd 76 4d a0 bd fa 21 2e 3d
       -0.023720924 -0.080621615 -0.078272745 0.04251287
000150 99 c3 86 3d ca da 3e 3c de e4 4f bd 26 41 ce bd
       0.06580276 0.011648843 -0.050755374 -0.1007102
000160 cc 5d 00 3d de d7 53 bd c2 26 39 bd 1a fe 3e be
       0.03133945 -0.05171954 -0.045202978 -0.1865162
000170 b2 a0 99 bc 9b 0c 3e bd 82 19 b6 bc cc 98 f3 3c
       -0.018753383 -0.04639874 -0.02222896 0.029735945
000180 7f 54 1a bc 17 0c d1 bd 36 4f be bd c0 27 05 be
       -0.0094195595 -0.10207384 -0.09292452 -0.13003445
000190 94 26 04 bd 1b 9c 81 3c 15 86 7b 3d c5 0b 20 3e
       -0.032263353 0.015821507 0.061407167 0.1562949
0001a0 6f 42 06 3e 92 bb 11 bd 91 16 a5 bc 37 82 9a 3c
       0.1311128 -0.03557927 -0.020152362 0.01886092
0001b0 d8 eb 12 3d b7 53 0e be e2 fd e4 bc ba 18 49 3d
       0.03586945 -0.13899122 -0.027953092 0.049095847
0001c0 6b bf e2 3c 4a 04 dd bd 97 c4 18 be 17 b4 9d 3d
       0.027679166 -0.10791834 -0.14918743 0.07700365
0001d0 94 da a7 bb 9d 57 0d 3d 32 61 ba bc ce de 08 be
       -0.005122492 0.034507383 -0.022751424 -0.13366243
0001e0 29 10 25 bd 44 b3 87 3c 62 0d 28 be ba 6b d5 bc
       -0.040298615 0.016564973 -0.16411355 -0.026052345
0001f0 22 c2 5b 3c 66 ca 2d bb 18 05 95 3d 99 a4 b7 3d
       0.013412984 -0.0026518344 0.07276362 0.089669414
000200 ea f6 87 3d 70 9a ca bc ae b3 69 3d ca 74 50 3d
       0.06638892 -0.024731845 0.05705612 0.05089263
000210 c3 c0 1b 3e d3 60 7d bd bf d3 24 be 1b 63 16 bd
       0.15210252 -0.061859917 -0.160964 -0.036715608
000220 93 91 d7 bd c9 71 05 3d 02 37 a6 3d a7 96 ad bd
       -0.10525813 0.032579217 0.08115961 -0.08476
000230 c1 84 51 3c df 88 83 bc 7e c6 50 bd e7 06 28 bc
       0.012787999 -0.016056476 -0.050970547 -0.010255552
000240 35 e1 a2 3e 67 f2 b5 3d a7 64 b5 bc 06 6a 8f bd
       0.31812444 0.08884125 -0.022142721 -0.07002644
000250 89 f2 45 3d c2 f2 82 3d 92 7f 67 bc ba b6 71 bd
       0.048327003 0.06393959 -0.014129536 -0.059012152
000260 9e d8 ce 3c a7 c2 34 be e5 77 57 bb 35 4f 2a bd
       0.025249775 -0.17652379 -0.003287786 -0.041579444
000270 65 5b 89 3b 0b e9 5c bd 52 ca 1b bd 47 b1 a3 bd
       0.0041918033 -0.053933185 -0.038034745 -0.07992797
000280 8c 28 bb bd 0a 8f 1f bd 91 ea 9c 3d 11 6a be 3c
       -0.09138593 -0.038954772 0.076619275 0.023243936
000290 c0 de b6 bc a6 0e 87 bd 6d a4 fd bd ee 94 f8 bd
       -0.022323012 -0.06594591 -0.12384877 -0.12137781
0002a0 63 7e 58 bd e5 a3 10 3e d0 db 5d 3d 1f b1 7e 3d
       -0.052854907 0.14125021 0.054164708 0.062180635
0002b0 0d 95 e9 3c bc 47 23 3e 25 10 bc 3d 5f 30 c5 3c
       0.028513456 0.15945333 0.09182767 0.024070917
0002c0 c3 7f 9c ba 99 19 9b bd f3 90 16 bd a3 92 83 bc
       -0.0011939931 -0.07573242 -0.036759328 -0.016061133
0002d0 40 25 13 3b 0e 0b 3d 3d d1 8d 17 be e2 7e 8c bc
       0.0022452623 0.04615312 -0.14800192 -0.017150346
0002e0 0a 23 71 bd 99 52 8f bd 60 0d 3e bd 84 5d 19 be
       -0.058871306 -0.06998176 -0.046399474 -0.1497708
0002f0 b4 fa 90 3d f9 32 04 be d5 0c 23 3c 29 df 29 be
       0.07079068 -0.1291007 0.00995179 -0.16589035
000300 b0 02 af 3d 3a 8d 10 be ce c6 7e bd 68 a9 07 be
       0.085454345 -0.14116374 -0.062201314 -0.13248217
000310 04 c3 3a bd ad 69 88 bd 61 0e 03 be 28 95 a5 bd
       -0.045596138 -0.06660781 -0.12798454 -0.0808509
000320 b9 ef 2a be ab 7d c9 3b b3 93 26 bb 46 fb e6 bc
       -0.1669301 0.006149014 -0.0025417625 -0.028195988
000330 34 fc eb 3d e9 bc 97 bd ba 24 a6 3d 2f d6 f2 38
       0.11522713 -0.07409079 0.08112474 0.00011579354
000340 67 3e 29 be e2 dc 99 bd a4 18 a3 bc 21 39 84 bd
       -0.16527711 -0.07512833 -0.01990921 -0.06456209
000350 62 04 d1 3c b8 0f f5 3d a0 b8 ae 3d c6 c2 ee 3d
       0.025514785 0.11965889 0.08531308 0.11658244
000360 10 f1 ee bd f6 b4 9f 3d 32 1c 14 3d b0 1e 3d bd
       -0.11667073 0.077981874 0.0361597 -0.046171844
000370 c9 b4 d2 3c 45 f6 5e 3e a2 e0 9e 3d fc cf 11 bc
       0.02572097 0.21773632 0.07757689 -0.008899685
000380 ea 54 13 bc 02 e5 7a 3b 88 d1 d5 ba ec 31 19 3e
       -0.008992413 0.0038283472 -0.0016313056 0.1496045
000390 ce 33 48 bd a7 c9 1f be ed 75 11 bd 54 e8 82 3d
       -0.04887753 -0.15604268 -0.035512853 0.06391969
0003a0 8e 38 32 3d 2f 8f d3 bc 06 c4 03 3d 87 9e e5 3d
       0.043510966 -0.025825111 0.032169364 0.11211877
0003b0 58 d3 ac 3d 03 00 b0 3c e5 47 02 bc d4 af 0b 3e
       0.08438748 0.02148438 -0.007951711 0.13641292
0003c0 80 e5 d7 bd e6 dc aa 3d 5c 94 48 3d 7b 79 2f bd
       -0.105418205 0.08342914 0.04896961 -0.042840462
0003d0 1d 07 8e bb 9a f2 b1 bd 73 31 71 3d 63 fc cb bd
       -0.004334344 -0.08688851 0.05888505 -0.09960248
0003e0 55 c8 0e bd 49 43 1b bd 77 7c b4 3c bf 5c 04 3c
       -0.03485902 -0.037905965 0.022032006 0.008078753
0003f0 28 fa 36 3d 28 d9 6a 3c db 59 c7 bd 4c 9c d9 bd
       0.04467216 0.014334001 -0.097339354 -0.106255144

conv.0.gcn_layer.attn_r f4 [1, 1, 256]
000000 68 15 5f 3e 4a 73 bf bb ef a5 1e 3f 7a f5 64 bc
       0.2178551 -0.005842601 0.61971945 -0.013974542
000010 98 76 99 be c7 cf ed 3e de 55 d0 3e 71 27 8d 3d
       -0.29973292 0.46447584 0.4069051 0.068922885
000020 dd 27 a4 3e 2a af d3 be 15 69 e6 be c2 2d 4c be
       0.32061663 -0.41344577 -0.45002046 -0.1993933
000030 44 fc d0 be 57 1e 96 3d d3 11 0e bf fd 2f 10 be
       -0.40817463 0.073300056 -0.5549595 -0.14080806
000040 dd f5 37 be 8f f0 f2 3d 95 51 b7 bd 21 ef 77 ba
       -0.17964883 0.11862289 -0.089511074 -0.0009457935
000050 79 31 bc ba 62 96 0d bf 15 13 a6 3e 7b d7 ae 3e
       -0.0014358006 -0.5530759 0.32436433 0.34148774
000060 34 7f 23 3e ba 8f 97 3e c5 76 84 be 78 37 b9 bd
       0.15966493 0.29601842 -0.25871864 -0.09043783
000070 c1 1c 83 be ca e3 cc bd c6 ee 29 be 42 76 09 bf
       -0.25607875 -0.10004385 -0.16594991 -0.5369607
000080 91 aa 30 3e 32 38 a6 3e 10 e3 c8 be 7c 8f a3 be
       0.17252566 0.3246475 -0.39235735 -0.31945407
000090 84 40 4b be c8 ea 82 3d 92 18 b3 3e 1a 22 12 3e
       -0.1984883 0.06392437 0.34979683 0.14270821
0000a0 b0 0c 4c be 5f c5 23 3f f8 38 0c 3f ec 2a c0 3c
       -0.19926715 0.6397304 0.5477443 0.023457967
0000b0 0d 28 b8 3e 11 e1 41 3d f6 1d 68 3e 4b 74 f9 bc
       0.35968056 0.04733378 0.22667679 -0.03045096
0000c0 bf 25 53 be 06 31 57 3e 18 88 cc 3e 43 29 b1 3e
       -0.20619868 0.21014795 0.3994758 0.34601793
0000d0 16 5d c5 3d c2 83 90 be bf d0 a2 3d ae a5 c9 be
       0.09636895 -0.28225523 0.079499714 -0.39384216
0000e0 c8 5b 9c be cf 9c a4 3d 0c 87 86 be 25 f9 48 3e
       -0.30538774 0.08037721 -0.26274908 0.19626291
0000f0 94 a5 02 3f 99 b3 63 be 7b 58 ea be 35 9e 41 be
       0.510339 -0.2223648 -0.4577063 -0.18908007
000100 a3 fb ef 3e c9 7f b5 bd c9 49 4b 3d 57 18 9c 3d
       0.4687167 -0.08862264 0.049630914 0.0762183
000110 8a 31 72 3e c7 72 3d 3d 46 10 aa 3e 04 7c df bd
       0.2365171 0.04625204 0.3321554 -0.10912326
000120 89 41 da 3c 58 1a 0d be 1c 42 63 3e 5d d2 68 3d
       0.026642578 -0.1377958 0.22193187 0.056841243
000130 d2 57 b2 bd c0 44 0b 3e 05 92 21 be db 51 91 3e
       -0.08708157 0.13600445 -0.15778358 0.28382763
000140 80 bf 92 be 48 bc ff be d7 63 76 be e3 c4 5a 3e
       -0.28661728 -0.49948335 -0.24061523 0.21364169
000150 de 33 c8 3d ad 3b 92 3e 94 b8 72 be 55 40 6a bd
       0.09775518 0.28561154 -0.23703223 -0.057190258
000160 69 4d 4e 3e aa 55 83 be d3 01 d8 be 67 d4 3e be
       0.20146717 -0.25651294 -0.42188892 -0.18635713
000170 54 9d 6b 3e 4e 64 12 3d 1d 2b 90 bc e7 ee 54 3e
       0.23009235 0.03574019 -0.017598683 0.20794259
000180 4b 54 8a be 54 a3 48 be af a5 12 3d 44 f4 15 bf
       -0.27017435 -0.19593555 0.03580254 -0.58575845
000190 ff 08 f5 be 77 f3 36 be 56 25 51 be d0 9b fd 3d
       -0.47858426 -0.17866312 -0.20424399 0.123832345
0001a0 d9 92 55 3e 8a b7 10 bd da 3e 22 3f 2a 45 9c be
       0.20856799 -0.035331286 0.63377154 -0.30521518
0001b0 70 a1 94 3e 8e 20 0f 3e 03 b7 5a be d1 e4 42 bd
       0.29029417 0.13977262 -0.21358876 -0.047581498
0001c0 92 7a 99 bd 45 a9 59 bd da 35 7f be 7e c4 8d 3d
       -0.074940816 -0.053139944 -0.24922886 0.069222435
0001d0 76 e6 a2 3d 71 32 55 3e 6c eb 65 3d 38 af 71 be
       0.07954113 0.20820023 0.05613272 -0.23601997
0001e0 e3 7b 57 be f0 1a 2b be 72 28 a3 3e 05 f0 ed be
       -0.21043353 -0.16709495 0.31866795 -0.46472183
0001f0 41 e5 dd bd 68 76 67 be 09 45 bf 3d 63 9d 45 bd
       -0.10834742 -0.22603762 0.09339339 -0.0482458
000200 4d 01 88 3d 25 2f 0f 3f 5d b1 ab 3d 96 69 05 3e
       0.06640873 0.5593131 0.08383439 0.13028559
000210 1e eb 10 3e 22 79 bb be 53 a2 5e be f6 7d c2 bd
       0.1415219 -0.36615855 -0.2174161 -0.094966814
000220 78 61 0d bc 7a c5 00 3f ea 63 3c 3e fa 71 5d 3e
       -0.008629195 0.50301325 0.18397489 0.2162551
000230 f9 ae 9b bb 33 60 e1 bc b7 a7 b5 bd a9 07 29 be
       -0.004751083 -0.027511692 -0.0886988 -0.16506828
000240 15 6f 06 3f ff 27 bb 3e 85 ed 34 3e 3c 6b 60 3d
       0.5251325 0.36553952 0.17668732 0.054789767
000250 b6 d7 1b 3d 1c 4b c5 3e 9f 46 3d 3d b5 8e 74 3e
       0.038047515 0.38533866 0.046209928 0.23882563
000260 d6 6c 5e 3e d2 5c 0c bf e9 7b 88 3e a9 f0 7d be
       0.21721205 -0.5482913 0.26657036 -0.24798836
000270 91 ca 9e bd d9 4b 2a be 74 b5 d1 3d bb 58 af be
       -0.0775348 -0.16630496 0.102396876 -0.34247383
000280 e6 d5 cf bd af 0d 79 be 4d 15 9e be e8 85 5a 3e
       -0.1014822 -0.24321626 -0.30875626 0.21340144
000290 17 74 ae 3c 62 eb 3e be 69 aa 88 bd b6 29 12 bc
       0.02129559 -0.18644479 -0.06673128 -0.0089210775
0002a0 89 5c 94 be 95 4c b3 3d 8f b6 ed bd d5 68 fe 3d
       -0.2897685 0.08754841 -0.11607086 0.12422339
0002b0 83 df 88 bb 6a 6d d5 3d 9c ac 05 be 9f 73 85 3e
       -0.0041770353 0.1042126 -0.13054127 0.26064774
0002c0 76 89 96 3c d2 f5 ae 3c ac 55 c7 bb 66 bc 05 bf
       0.018376093 0.02135745 -0.006083211 -0.522406
0002d0 dc f2 12 bc 54 f6 99 bd 28 4a 27 bf 97 6e d5 3d
       -0.008969035 -0.075176865 -0.6534753 0.10421484
0002e0 7c 15 ab bd 7b 1c cd be 97 56 45 be 0a cb dc be
       -0.08353707 -0.4006079 -0.19271313 -0.43123657
0002f0 b1 9f 4e 3e a0 b6 42 3e a2 e4 a1 3e 77 f6 ca bd
       0.20178105 0.19014978 0.31619745 -0.09910291
000300 cc 3f 09 3e 1c 5f 5e be 69 ae 85 be 21 fb 8f be
       0.13403243 -0.21715969 -0.26109627 -0.28121284
000310 37 d7 94 3d 7f 6d e7 3c 49 7a db be f3 ec 94 bd
       0.072676115 0.028250454 -0.42866734 -0.07271757
000320 4d 67 c5 be cc c9 ad 3d c9 c5 f5 3c 65 32 7d 3e
       -0.38555375 0.08485755 0.030001538 0.24726255
000330 0a e4 3b 3d 51 ae 3d be 40 5b f2 3c f3 dd 23 3d
       0.045871772 -0.18523528 0.029584527 0.04000659
000340 4e 41 cf bd 70 2f 84 3e fd 05 1a bd 9c 95 e4 bd
       -0.10119878 0.25817442 -0.037603367 -0.11161348
000350 5c 16 b0 3e bf 5f 2e 3e e9 46 81 3e 16 7e d9 3c
       0.3439206 0.17028712 0.25249413 0.02654938
000360 a9 01 e9 bd ab c1 83 3e 90 f2 73 3e ec 10 2e 3e
       -0.1137727 0.25733694 0.23822999 0.16998643
000370 cc 7e 58 3e 08 23 2b 3f 04 80 e4 bd b6 47 b8 3e
       0.21142119 0.6685033 -0.111572295 0.3599221
000380 c2 ac e1 3d 04 4a d1 bd 16 74 81 be fd 36 51 3e
       0.11019279 -0.102191955 -0.2528388 0.20431133
000390 ab 39 fd bd 5b 13 83 be 86 b1 87 bc 10 32 ad 3e
       -0.12364515 -0.25600705 -0.016564142 0.33827257
0003a0 01 af 41 3e 02 cc 08 be 40 27 33 3e df 20 1d be
       0.18914415 -0.13359073 0.17495441 -0.1534457
0003b0 7b ee b7 3e f4 6d ee bd 7e 40 d3 3d 79 22 32 be
       0.35924134 -0.11642066 0.10315035 -0.17395963
0003c0 d4 63 43 be 41 e2 0a 3e 3e f4 91 3c bb e1 0f bf
       -0.1908105 0.13562872 0.017816659 -0.5620381
0003d0 24 b0 c9 bd ec c8 98 be 4a 05 84 bb 0d 4f a6 3c
       -0.09848049 -0.2984079 -0.004028951 0.020301366
0003e0 71 52 65 3d c9 de c4 be e5 dd 5a 3e 6f 23 ec bd
       0.055986825 -0.38451222 0.21373709 -0.11530196
0003f0 07 5b 8b bb 95 18 d5 3d ac fd cb be 24 77 b0 be
       -0.0042527947 0.10405079 -0.39841974 -0.34465897

conv.0.gcn_layer.bias f4 [256]
000000 97 f5 ba be ad 02 f4 bd 10 f9 b1 be 55 c5 80 bc
       -0.36515495 -0.11914573 -0.34760332 -0.015719095
000010 82 41 8b be f7 c7 af be 1b 88 9b be 3c 8f 7f bd
       -0.27198416 -0.3433225 -0.30377278 -0.06239246
000020 f4 10 13 be 9a d1 04 bf 90 3f 6e bd 9b 97 42 be
       -0.14361936 -0.51882327 -0.058166087 -0.19003145
000030 35 6d 84 be 6e d4 09 3d 80 0e 61 bc 74 66 97 be
       -0.25864568 0.033649854 -0.013736367 -0.29570353
000040 5c 78 79 3b 93 b3 49 bd 9f f4 d1 be 6d 41 28 be
       0.0038066125 -0.04924352 -0.41006944 -0.16431208
000050 85 81 04 be 3a 08 17 be 00 66 05 bf 71 9c ee bc
       -0.12940033 -0.14749232 -0.52108765 -0.029127331
000060 7e 15 e4 be 92 e3 d5 bd 32 b2 1a be fd 93 8e be
       -0.44547647 -0.10443796 -0.15107039 -0.2784728
000070 86 19 78 be 4e 3b 51 be 12 f6 15 be 4e 0b 1f bd
       -0.24228486 -0.20432779 -0.1464465 -0.03882914
000080 57 34 34 bd 68 c5 90 bd 41 bc 12 bd 0d 9e a5 bd
       -0.043995228 -0.07068902 -0.035824064 -0.080867864
000090 ad 26 88 bd 68 5d 1e be 4b b7 58 be 81 df 4b be
       -0.06648002 -0.15465319 -0.2116367 -0.19909479
0000a0 99 e5 97 be b8 2b aa be 30 f3 92 bc 4a 0f 82 bd
       -0.29667357 -0.3323648 -0.017938226 -0.063505724
0000b0 08 b6 1b be 01 3f a2 be b7 73 5a be 83 1a 0f be
       -0.15206158 -0.31688693 -0.21333204 -0.13974957
0000c0 c6 67 e2 3d e7 62 97 be a5 3b 26 bd 3c b4 99 be
       0.110549495 -0.29567644 -0.040584225 -0.3002032
0000d0 4a 4d 33 be c0 88 8a bd bc f3 95 be 6e 72 66 be
       -0.17509952 -0.06764364 -0.29287517 -0.22504589
0000e0 14 3c 59 be 0c 0a 81 be 92 25 3a be 1d 6f e9 be
       -0.21214324 -0.25202978 -0.18178394 -0.45592585
0000f0 fb 88 a7 bb e5 19 1a be cc ff f6 bc 0c b1 c1 be
       -0.005112765 -0.1504894 -0.03015127 -0.3783039
000100 54 68 3c be 30 cb a8 be e1 8b 1c bc cf 8d bc be
       -0.18399173 -0.3296752 -0.009554834 -0.3682694
000110 0b e9 6e 3c 86 03 53 be a2 7e 73 be 19 d1 b4 b8
       0.014581929 -0.20606813 -0.23778775 -8.622016e-05
000120 22 a0 38 be 2c ad fe bd e9 82 56 be 96 97 59 bd
       -0.18029836 -0.12435374 -0.20948376 -0.05312308
000130 62 ab 9b bc 19 da 02 bd 5f db 6e bd db d9 df be
       -0.01900262 -0.031946275 -0.058314677 -0.43720898
000140 10 88 3e bd 7d 0f f6 bd b6 1e 1e bd 82 d1 07 be
       -0.046516478 -0.12014673 -0.038603507 -0.13263515
000150 04 1c bf 3d 1d a5 95 be c1 d1 be bc 1e 95 35 be
       0.093315154 -0.29227534 -0.023293378 -0.17732665
000160 89 0d 8a be 45 ab 34 be 91 16 ed bd 4f e7 6c be
       -0.26963452 -0.17643459 -0.1157657 -0.23135112
000170 28 1a 1f be 3a 35 bc be 6c 84 1f be d5 a4 d9 bc
       -0.15537322 -0.3675936 -0.15577859 -0.026567856
000180 a9 bb 4b bd 48 51 b1 be 8a dc 37 be 6e f9 63 bd
       -0.049739514 -0.34632325 -0.17955223 -0.055657797
000190 8e 2c 1d be cc f6 f4 bc e4 2c e4 bd 39 8b b4 be
       -0.15349028 -0.029902838 -0.11141375 -0.35262468
0001a0 1d 6e 96 be 63 8f 24 be 2e 18 a1 be ac ad 21 be
       -0.29380885 -0.16070323 -0.3146376 -0.15788907
0001b0 a7 1a 76 be d8 79 ff bd fe f0 0a bd 35 8b 26 be
       -0.24033605 -0.12474412 -0.033921234 -0.16264041
0001c0 40 d3 49 bd 5e 55 a2 bc f0 5c 34 be a7 f3 11 be
       -0.04927373 -0.019816097 -0.17613578 -0.14253102
0001d0 37 2e 81 be fa 0d 42 be 86 6e 0e bd 11 c5 b0 be
       -0.25230572 -0.18950644 -0.034773372 -0.3452535
0001e0 df 2e a0 bd 07 d1 95 bd 66 14 a1 be 3c 8d 7d bd
       -0.0782144 -0.073152594 -0.31460875 -0.06190227
0001f0 8c 01 1a be ba 1c 4a bd 0a 02 4b be 5f 7a 3e be
       -0.15039653 -0.049343802 -0.19824997 -0.18601368
000200 49 25 b9 be ef 37 71 bd 91 35 2e be 5d 71 5f be
       -0.3616126 -0.058891233 -0.17012621 -0.21820588
000210 35 64 0d be 9d 4c b9 be 18 48 42 be f4 02 c7 3b
       -0.13807757 -0.36191264 -0.18972814 0.00607335
000220 eb 83 85 be 33 70 3c bd d7 87 16 bd a7 41 a0 bd
       -0.26077208 -0.04600544 -0.03675064 -0.07825022
000230 1e 52 ef be 50 e7 ef bd ca 9c a3 be 31 d0 f2 be
       -0.46742338 -0.11714041 -0.31955558 -0.47424462
000240 22 d4 9c be ee 7b 15 be 71 72 1d be 06 80 5e be
       -0.30630594 -0.14598057 -0.15375687 -0.21728525
000250 9f 82 bb bc 83 2a 07 bd 69 ab 23 be 92 93 3b be
       -0.022889433 -0.032999527 -0.15983357 -0.18318012
000260 38 79 20 be 0c 8b 47 be 2b 09 31 bd 8e 3d cd 3b
       -0.15671241 -0.19486636 -0.043221634 0.0062634414
000270 c2 e9 96 be 58 ed 15 be db 89 30 bd 79 4c 8e bd
       -0.29475218 -0.1464132 -0.04310022 -0.0694818
000280 2c fb 7e be b9 93 8c be a6 9a 33 be a8 3b 37 be
       -0.24900502 -0.27456453 -0.17539462 -0.17893851
000290 77 f2 bc be a2 7e 3a be 8f ac 48 bd 34 b3 8d be
       -0.36903736 -0.18212369 -0.04899269 -0.27675784
0002a0 37 34 49 bd 75 6a 43 be 8f 42 c9 be bf fa 10 bd
       -0.04912206 -0.19083579 -0.39308593 -0.03539538
0002b0 de 25 88 bd 5f cb b2 be 44 e2 94 be ac 1d 6c bc
       -0.066478476 -0.34920785 -0.29078877 -0.014411371
0002c0 09 04 82 bd 47 54 7e be d2 b6 a0 be c7 68 55 be
       -0.06348426 -0.24836837 -0.3138948 -0.2084075
0002d0 9d f4 4c be ad 86 c9 bc 51 c1 39 bd e8 e9 64 be
       -0.20015188 -0.024600351 -0.045350377 -0.22354853
0002e0 83 0d df bd ba 8d bf bd fc f2 8b bc 1f ea 47 be
       -0.10891249 -0.09353204 -0.017083637 -0.19522904
0002f0 e5 90 5d be 98 bc 0f be 97 db 86 be f8 e1 9e be
       -0.21637304 -0.14036787 -0.2633941 -0.31031775
000300 85 e3 9f be 0d 50 6c be b5 b6 db bd 4f 85 78 bc
       -0.3122827 -0.23077412 -0.10728208 -0.015168502
000310 44 0f 2a be b7 37 62 bd 50 54 43 be cd bd a0 be
       -0.16607386 -0.055228915 -0.19075131 -0.31394807
000320 65 49 30 be f6 f8 95 bd 5c 8c 80 be 4c f6 aa be
       -0.17215498 -0.07322876 -0.25107086 -0.33391035
000330 29 0e 08 be 22 a4 1c bd dd cd bb be ef e6 84 be
       -0.13286652 -0.038242467 -0.366805 -0.25957438
000340 69 55 51 be 2e 70 01 bd a8 fe 2a be 6c 31 69 be
       -0.20442738 -0.031601124 -0.16698706 -0.22772759
000350 c1 1c 55 bd 66 0b 1c be 69 b0 30 be 0c 9b 98 be
       -0.052029375 -0.15238723 -0.17254795 -0.2980579
000360 a6 88 0d be b2 a6 22 be 92 64 a5 bd 38 77 3f be
       -0.13821658 -0.15883902 -0.08075823 -0.18697822
000370 4c d0 38 be 30 92 8a be 81 5e 11 bf be 34 99 39
       -0.18048209 -0.27064657 -0.56784827 0.0002922173
000380 b3 f6 5e be 46 ef 68 be 93 7a 5e be b0 72 8c bc
       -0.21773796 -0.22747526 -0.21726446 -0.017144531
000390 9b 01 37 be 4c 95 97 be fb dd aa be 0c 24 2e bd
       -0.17871706 -0.29606092 -0.33372483 -0.042514846
0003a0 cc b4 7b bc e1 ae d8 be af 05 ba be 5c f3 b1 bd
       -0.01536293 -0.42320922 -0.3633246 -0.08688995
0003b0 2f ab ef be ae 3c 20 bd 00 f5 fa bc 6d f8 24 be
       -0.4681029 -0.03912037 -0.030634403 -0.16110392
0003c0 fb bf 50 be 83 10 a5 be f9 15 4e bc cc 35 bc bd
       -0.20385735 -0.3223916 -0.012578481 -0.091899484
0003d0 91 56 61 be 4f 05 65 be 56 b9 30 be d5 4f 97 be
       -0.22005679 -0.22365306 -0.172582 -0.29553095
0003e0 9c 88 44 be 46 93 df be a3 5d 0d bd 2a 2c c1 be
       -0.19192737 -0.43667048 -0.034513127 -0.37729007
0003f0 45 0b 17 bd 76 b5 e9 bd a6 60 40 be ad fc c7 bd
       -0.03687598 -0.11411564 -0.18786868 -0.09764991

conv.0.gcn_layer.fc.weight f4 [256, 256]
000000 e5 c2 92 3d a0 86 c3 3c 66 23 18 3e 96 24 8d be
       0.071660794 0.023867905 0.14857253 -0.27566975
000010 1b c3 87 3d 7a e8 85 bb 95 a1 6b be ae 65 03 3d
       0.0662901 -0.0040865513 -0.23010857 0.03207939
000020 9b f6 7c bc 83 dc 8a 3d 32 f4 a6 3c 38 c4 e9 bd
       -0.015439655 0.067803405 0.020380113 -0.11414379
000030 9b 4f 22 3c 7b 47 4e 3e 07 12 4b be a0 5e a2 bc
       0.009906675 0.20144455 -0.19831096 -0.019820511
000040 c8 5b cf bd 35 c9 17 3e 9b 76 7a 3e fb 81 9c bd
       -0.10124928 0.14822848 0.24459307 -0.07641979
000050 07 07 73 3c 1f 7a 18 bd 29 60 15 3e 4e 0f fe 3c
       0.014833218 -0.03722584 0.14587463 0.031013157
000060 c2 23 4b bb 60 51 89 3e d3 03 a0 3d 4a e8 73 be
       -0.0030996655 0.26819897 0.078132294 -0.2381908
000070 e7 ff a4 bd 30 19 a7 be 7e 6a 3a 3e f4 0e 59 be
       -0.08056622 -0.32636404 0.18204686 -0.2119711
000080 1b be 34 bd 4c 2a c9 bc ba 6a d6 bc 25 1b 00 3e
       -0.04412661 -0.024556302 -0.026173938 0.12510355
000090 10 35 fc bd 2e 8f e3 bc 46 da 67 bd 43 fe 6f bd
       -0.12314808 -0.027778234 -0.056604646 -0.058592092
0000a0 35 fb 79 3e bf 79 dc 3d 7f b8 08 3a 57 dc 06 3e
       0.24412234 0.10765409 0.00052154803 0.1316999
0000b0 a2 40 ac bd b7 c0 50 3d 79 99 6f 3d 18 fb a0 bd
       -0.08410765 0.050965037 0.058495972 -0.07860392
0000c0 8e 4c 88 3e 2f 82 d4 3e d9 74 9b 3d 51 01 93 bd
       0.26620907 0.41505572 0.07590646 -0.071779855
0000d0 66 e0 15 3e 7a 10 a5 bc ec 0a 1d 3c 64 1b 0b 3e
       0.14636382 -0.020149458 0.0095851235 0.13584667
0000e0 34 b7 c8 3e d3 ac fb 3c bd 0e fb bd 04 5a d6 3d
       0.39202273 0.030722057 -0.122586705 0.10466388
0000f0 6f b1 b3 be 80 62 33 be c4 66 a6 bc 24 8e d4 3b
       -0.3509631 -0.17518044 -0.020312674 0.006486671
000100 09 ef 10 3e aa db 07 be 99 6d 08 bc 16 68 88 3c
       0.14153685 -0.13267389 -0.008326911 0.016651195
000110 7d 85 bf 3d 64 7d 32 3e 43 d1 53 bd a3 56 ca bd
       0.09351633 0.17430645 -0.05171324 -0.09879806
000120 0d d8 54 3e 39 47 84 bc f4 ab dc 3d 8d dd a7 3d
       0.20785542 -0.016147243 0.10774985 0.08196554
000130 8c 49 a5 3d c6 28 e3 bd ea 27 74 be 06 c2 55 3d
       0.080706686 -0.11091761 -0.23843351 0.05218699
000140 99 22 57 3d 0d a8 16 3d 35 49 e7 bd 0d 44 a8 3d
       0.05252323 0.03678136 -0.1129326 0.08216105
000150 b8 00 75 bd 0b 81 9e bc 6f 0e 2f bd b6 fc a9 3d
       -0.05981514 -0.019348642 -0.042738374 0.08300154
000160 e6 97 09 bd 40 ba 94 bc 54 27 0b bd f1 9e 62 be
       -0.033592127 -0.018155217 -0.033973053 -0.22130944
000170 be 1d c8 3b 7c 0e ce 3e 63 07 7d 3e 93 e5 37 3d
       0.006107061 0.40245426 0.24709849 0.044896673
000180 ff 13 8e 3e 97 d5 e1 bb 4a d4 f1 3d 95 de 00 3f
       0.2774963 -0.006891917 0.11808069 0.50339633
000190 b4 03 5d bd 4c 7b c3 3d 45 9e 71 be 02 09 f3 bd
       -0.05395861 0.095450014 -0.23595531 -0.118669525
0001a0 68 e4 d2 3d 22 7f be bd 30 de 7b 3c f5 cc e9 3d
       0.10297471 -0.093015924 0.015372798 0.114160456
0001b0 c4 71 a5 bd 85 7e 7a bd 12 86 11 bc 4a f7 f1 3c
       -0.0807834 -0.061155815 -0.0088820625 0.029536862
0001c0 51 ee 7f be 8b 6d 5b bd 29 60 b0 bd 93 df 22 be
       -0.24993254 -0.053571265 -0.08612091 -0.159056
0001d0 4e df 75 bc c6 46 ad bc 37 89 27 3e 88 87 8c 3d
       -0.015006853 -0.021151911 0.16360937 0.06861788
0001e0 cd 6b 67 3d 1b 8f 98 bd eb 74 01 bc c6 3c 02 bd
       0.05649929 -0.0744917 -0.007901411 -0.03179624
0001f0 d5 98 5f 3e e7 3a 12 be 29 88 5c 3c a0 36 d9 bc
       0.21835645 -0.14280282 0.0134601975 -0.026515305
000200 1f c4 76 3d 92 a5 87 3d bc e2 3e 3c d2 b9 09 3e
       0.06024563 0.06623377 0.011650737 0.13449791
000210 9f fe 65 be d8 7a 8c bd 4b ea 9e bd c8 7f f8 3d
       -0.22460411 -0.06859368 -0.077595316 0.12133747
000220 2f 47 49 bd 04 7c 46 be e3 21 bd 3a d5 b7 3d 3e
       -0.04914015 -0.19383246 0.0014429655 0.18527158
000230 43 62 85 be 04 b8 19 bf 9d ca 8e 3e 9f aa 0f 3e
       -0.2605153 -0.6004641 0.27888957 0.1402993
000240 f5 79 2a bd 93 51 10 be ae 8d df 3d 8e da 8c 3e
       -0.041620214 -0.14093618 0.10915695 0.27510494
000250 d2 ac 23 3e 28 e6 38 bc 0f 4b 25 be 70 e3 53 be
       0.15983894 -0.011285342 -0.16141914 -0.2069223
000260 5f 59 0a 3d 5b 40 c0 bc 46 27 56 bc 4b 6b da 3d
       0.033776637 -0.023468187 -0.013070887 0.10664996
000270 47 61 05 3e e9 2c e1 3d 0d 9c cf bd 0f 3b 37 bd
       0.1302539 0.10994894 -0.10137186 -0.044734057
000280 fa 02 5e bd 2c b1 9c bd 8c 73 7e 3e 70 dd a2 3d
       -0.054202057 -0.0765098 0.24848765 0.07952392
000290 bc 68 8a 3e c4 5c 76 3e 46 ea 15 be 7f f0 87 bd
       0.2703303 0.24058825 -0.1464015 -0.06637668
0002a0 b6 8e 4e be d6 24 96 3e 05 8f 06 3e 3d dc 85 bc
       -0.20171627 0.2932498 0.13140495 -0.01634037
0002b0 53 13 33 be 7b 8e 84 be ff b6 fb 3d a0 07 86 be
       -0.1748784 -0.25889954 0.12290763 -0.26177692
0002c0 c6 38 22 3d a7 f1 da bd 75 40 67 3d 92 fe 2e 3e
       0.039604925 -0.10690623 0.056457955 0.17089298
0002d0 41 37 91 3e e6 6a 3c 3e 02 f3 1e bc 73 29 b2 bd
       0.28362468 0.18400154 -0.009701492 -0.08699312
0002e0 7c c0 9e bd 43 7d 5d bd 14 10 6e 3c f0 18 82 3d
       -0.07751557 -0.054074537 0.0145302005 0.06352413
0002f0 12 26 28 bd 6a b3 cb bd 9b b0 ed bd 81 46 c1 3d
       -0.04105193 -0.0994633 -0.116059504 0.09437276
000300 09 1d a8 3c dc 9d 54 3b 6e 06 18 3e a2 0d 92 be
       0.020521658 0.0032442724 0.14846203 -0.28526026
000310 07 09 17 3e 80 c9 91 3a 98 58 db 3e 20 db c8 bd
       0.14749537 0.0011122674 0.4284103 -0.0980742
000320 16 b9 8e 3d c3 50 20 bc 86 e5 35 be 07 fd 09 be
       0.06968896 -0.00978488 -0.17763337 -0.13475429
000330 4a 40 d7 bc 40 1c 4d 3e 8f e1 97 3c 48 9a 4d bd
       -0.026275773 0.20030308 0.018540172 -0.050195962
000340 04 be 89 3e 23 b5 41 be 85 f2 f8 3d 7d b3 ce ba
       0.26902783 -0.18916754 0.12155632 -0.0015770044
000350 b8 7a 14 bd 32 27 0a 3d a1 de 5d 3e 47 b9 3d be
       -0.036249846 0.033728786 0.21666957 -0.18527709
000360 bc 9f 41 be 74 47 39 bd 4c 8c 63 3b ee 8a 21 3e
       -0.1890859 -0.04523416 0.0034721075 0.15775654
000370 c0 00 9d 3c c6 33 50 3e 52 fa b9 3e a2 89 62 bd
       0.019165397 0.2033225 0.36323792 -0.055307038
000380 fa aa 02 be 51 22 5f 3d 65 00 33 be 4d d7 9e 3e
       -0.12760535 0.054476086 -0.17480619 0.31023636
000390 f2 e2 3b be f8 81 d6 bc ca 55 8c 3d 9e 16 10 be
       -0.18348292 -0.02618502 0.068523005 -0.14071128
0003a0 94 da be bd 0c c4 48 be 57 6b 2a bc 31 7a 9c be
       -0.09319034 -0.19606036 -0.010401568 -0.30561975
0003b0 3e 17 4d 3d 76 f2 fb bb 22 2c 2f be f9 6f eb bb
       0.050070994 -0.0076888157 -0.17106679 -0.007184979
0003c0 34 25 1a be 06 5a 38 3e 61 eb 2b 3e 1c 77 73 3d
       -0.15053254 0.18003091 0.16789009 0.059439763
0003d0 df 53 09 3d 32 71 05 3e a2 f1 13 be c7 08 c8 bc
       0.03352725 0.13031462 -0.14447644 -0.024418248
0003e0 67 a9 63 bd 49 20 92 be d9 70 89 3d a6 41 48 3e
       -0.055581477 -0.28540257 0.06710977 0.19556293
0003f0 de e7 c3 bd c3 19 b9 3c e2 a9 37 3c ab bd 13 bd
       -0.095657095 0.022595292 0.011209937 -0.036069553

src_mlp.weight f4 [128, 256]
000000 30 c7 c1 bc 5c 03 fa 3c cc 12 2e bd 46 3d f7 3b
       -0.02365455 0.03051918 -0.042498395 0.007545146
000010 d0 f8 ef 3c 8b 85 d4 3b fe de d6 bc 3a 0b b7 3d
       0.029293448 0.006485646 -0.026229378 0.08937688
000020 6a 9e 72 3b 62 c9 b6 3d 68 39 c9 3d 24 ed 18 3d
       0.0037020692 0.089251295 0.098254025 0.03733553
000030 3d d6 14 3d f3 e1 0b bd 3f e7 e3 3d ae d9 38 3d
       0.036337126 -0.03415103 0.11128091 0.04512947
000040 75 75 ba 3c b8 e9 08 bf 22 83 36 bd f4 b2 1d bd
       0.022761086 -0.53481627 -0.04455865 -0.03850074
000050 af 6e 9b 3c a9 17 3d 3d e3 e7 0e 3d f2 b1 7f bd
       0.018973676 0.046165142 0.034889113 -0.06242556
000060 2b df 51 bc b0 4d 24 3b a6 84 ed bc 58 05 ea 3c
       -0.012809555 0.002507072 -0.028993916 0.028567001
000070 75 cf b1 3c 78 eb 0e bd 21 29 90 3c 7d f6 7e 3d
       0.021705369 -0.03489253 0.017597737 0.06224679
000080 6f 12 9a 3d 72 b3 b4 bd 3a f0 1c be 0a 1d 46 bd
       0.07523047 -0.08823289 -0.15326014 -0.048367538
000090 4a 56 01 be 77 6f af bc 02 b9 b4 bc 23 80 9f bc
       -0.12630573 -0.021415455 -0.022060875 -0.01947028
0000a0 f2 f3 58 bb 3f 04 d6 3c a0 3f bc bd 11 f8 9a be
       -0.0033104387 0.026125072 -0.09191823 -0.30267385
0000b0 3f 5e fb 3c 57 5e 28 bc 5a dd 2f bd 96 9c ff bc
       0.030684588 -0.010276399 -0.042935707 -0.031202596
0000c0 7c 99 26 bd 08 5c 4f 3e ae 36 97 be 98 21 f9 bc
       -0.040673718 0.20249951 -0.29533905 -0.030411527
0000d0 d9 70 f6 bc 4d 73 2c be 5e ae 30 bd e5 ba 46 bc
       -0.030083107 -0.16840859 -0.04313504 -0.01212952
0000e0 59 17 2e 3d 08 cb 0b b9 f0 f4 87 3b 83 e1 ea bd
       0.042502735 -0.00013331708 0.004149072 -0.11468794
0000f0 5a 69 ac bd 89 ea 08 3d f7 3d 04 bd b6 cc 3e bc
       -0.08418532 0.033426795 -0.032285657 -0.011645487
000100 72 e8 11 3d 5e d4 c6 3c 50 51 4c 3d aa 87 09 3d
       0.035622068 0.024271186 0.049882233 0.033576645
000110 3a 68 e2 3c 72 d5 b6 3c c5 96 e2 bc f9 d6 6a bd
       0.02763759 0.022318576 -0.027659783 -0.05733392
000120 ad d2 9f 3c bd 0a 8a bb 63 a5 bc bc 90 0b f6 bd
       0.019509638 -0.004212706 -0.023028081 -0.12013924
000130 b0 91 b4 3d c1 78 cf bd 79 66 71 3c 91 ae 93 bc
       0.0881685 -0.10130454 0.014733904 -0.018027576
000140 09 73 65 3e 20 a1 79 3c d5 06 fe bc 54 05 10 bd
       0.22407164 0.015236169 -0.031009117 -0.03516133
000150 05 b6 b6 bd 03 df 8a bc 44 6c 1a bd d9 dc 22 bd
       -0.08921436 -0.016952043 -0.037700906 -0.039761398
000160 af d6 f4 3c 3e 7e 52 bd 61 da 34 bd 03 9e 38 bb
       0.029887525 -0.051389925 -0.044153575 -0.0028170354
000170 9e 83 eb bb 68 33 a2 bb 4b f2 18 bc 20 9f 2f 3d
       -0.007187321 -0.0049499758 -0.009335111 0.042876363
000180 41 74 b6 bc 5a 0a 60 3d 98 3f 10 3d c0 e7 40 be
       -0.022272231 0.054697372 0.035216898 -0.18838406
000190 28 79 1d bd 76 65 e7 bd eb fd 01 3c 88 69 81 bc
       -0.03844562 -0.11298649 0.007934074 -0.015797392
0001a0 e3 78 1e 3d 8c 2b f4 bc ee b0 c3 3c fa a2 ec bc
       0.038689505 -0.029805921 0.023888078 -0.028886307
0001b0 04 30 12 bd 63 d7 e0 3b b6 22 60 be ba fe 44 bd
       -0.035690323 0.0068616136 -0.21888241 -0.04809449
0001c0 bc 4c 9f bd f9 7b 7b bd 70 0b a0 bc 41 e0 ca bc
       -0.07778308 -0.061397526 -0.019536704 -0.024765136
0001d0 11 19 ef 3c a4 ed c5 bc 65 30 2a 3d 33 06 c4 bc
       0.029186757 -0.024161167 0.04155006 -0.023928737
0001e0 74 d7 65 3d 76 46 bf bd 0d cb c4 3c 4f 49 2c bd
       0.056113675 -0.09339611 0.024022603 -0.0420621
0001f0 e7 6a 28 3d 45 09 b1 bd 72 30 67 3c c3 b9 d2 3c
       0.041117575 -0.08644346 0.014110671 0.025723344
000200 79 f4 bc bc 7a 25 c4 be 18 5f 97 bc d2 53 15 3d
       -0.023065792 -0.38309842 -0.018477961 0.03645689
000210 f0 14 e9 3c 3c 73 5a bc f9 78 0e 3d 8c cc 29 3e
       0.028452367 -0.013333138 0.034783337 0.16581935
000220 e4 23 23 3d 8a 56 a4 bd 4c 8b 4a be 96 53 21 be
       0.03982915 -0.080243185 -0.197797 -0.15754542
000230 f6 6b 07 bd 3c 42 9d bc 50 99 6f bd 8b 5c 31 bd
       -0.033061944 -0.019196622 -0.05849582 -0.043301146
000240 fd 85 c6 bc be d4 05 bd 9c ca 00 3d 53 cf 8f bc
       -0.024233812 -0.03267359 0.031443223 -0.017554915
000250 49 9e 89 3c 5e b8 f6 bd 59 21 72 3b 47 9a 82 3c
       0.016799109 -0.12046884 0.0036946146 0.015942706
000260 8b 03 30 bd a0 0b 37 3c ff 8e 28 3e 66 5b 28 3e
       -0.04297213 0.011172205 0.16460799 0.16441116
000270 dc 18 f3 3b 85 35 ee 3c 7f 37 a0 bd 34 6f 22 be
       0.007418735 0.029078254 -0.07823085 -0.15862733
000280 0d 9e ff 3c 35 4d 21 3c 11 2a 3c bd 93 ef a6 bc
       0.031203294 0.009845068 -0.045938555 -0.02037791
000290 49 bd 29 3d 6d da a8 3c 4b a7 57 3d d3 f7 e4 3c
       0.041440282 0.020611966 0.052649777 0.027950203
0002a0 3e bc 68 3c 8c 70 ed bc 98 69 eb 3c 5b 7d 7d 3e
       0.014205037 -0.02898433 0.028736874 0.2475485
0002b0 e0 02 ae bd fa 15 18 bd b7 5c a3 3c 0d 69 18 bc
       -0.08496642 -0.037130333 0.01994167 -0.00930239
0002c0 1c 87 24 bd 6d d5 51 bc 3f 60 ec 3c a0 f7 11 bc
       -0.040167913 -0.012807232 0.028854487 -0.008909136
0002d0 68 1e d1 3c 2a dc 53 bd c0 c4 70 3b 05 d6 10 3d
       0.025527194 -0.051723637 0.0036738366 0.035360355
0002e0 93 61 ba bd 0e 7a 10 3d 55 fb 4f 3e 22 ba 45 3c
       -0.09100642 0.03527265 0.2031072 0.012068303
0002f0 a7 35 32 3d f8 43 09 3c 22 55 1d 3c 38 61 f9 bd
       0.043508198 0.008378021 0.009602817 -0.12176746
000300 5c 50 37 3c ed aa 81 3c 27 20 64 3d ee 54 0d bd
       0.011188593 0.015828574 0.055694725 -0.034504823
000310 12 28 29 3d 56 67 f2 3c 9c 6a bc 3b e0 77 91 3d
       0.04129798 0.02959029 0.0057500135 0.071029425
000320 6b 63 d3 3c a6 14 75 3d 51 56 8c 3c 96 1b 05 3d
       0.025804242 0.059834145 0.017131003 0.03249701
000330 71 91 33 3d 80 ce 07 3e 90 47 43 3d ec 57 4a 3d
       0.043839876 0.13262367 0.04767567 0.049400255
000340 00 44 2c 3c 17 4e 47 3b 10 5d 9d 3c 5f f7 3e bd
       0.010514259 0.0030411535 0.019209415 -0.04662263
000350 c7 17 49 be 0d 2d c0 3c 17 b6 88 3b 75 d6 01 bd
       -0.19637977 0.023458982 0.0041720974 -0.031698663
000360 4e c2 33 bd ae af f0 3c 26 0f df bd cd 87 35 bd
       -0.043886475 0.029380646 -0.10891561 -0.044318963
000370 c4 ed 08 3d 81 f4 a1 bb df 9a 1e 3c 64 96 b1 3c
       0.033429876 -0.004942477 0.009680479 0.021678157
000380 92 54 61 3d b4 e1 2f bd 47 a1 f0 bc b4 03 4c 3d
       0.055012293 -0.042939857 -0.029373778 0.04980822
000390 39 37 05 bd 41 42 41 bd 9e c8 29 bd fb 89 8b bc
       -0.032523368 -0.047182325 -0.04145109 -0.017033568
0003a0 28 6c 68 be 97 88 18 3d a3 f6 2a bd ac 9a 50 be
       -0.22697508 0.037239637 -0.041739117 -0.20371503
0003b0 ef 05 71 bd e4 42 27 3d bb 9c d4 bd f8 85 c8 bb
       -0.05884355 0.040835276 -0.103814565 -0.006119486
0003c0 e9 aa 86 bb 71 66 60 bc ad be 9f 3d b6 5b f6 bd
       -0.0041097295 -0.013696299 0.078000404 -0.12029211
0003d0 ae 31 74 bc 08 db 07 3c 54 7d 89 bc 93 74 42 bd
       -0.014904423 0.008291967 -0.016783394 -0.047474455
0003e0 04 76 db bc a0 0e 08 39 5c aa d6 bd 1b dd dd bc
       -0.026789673 0.00012975419 -0.10481712 -0.02708297
0003f0 4f a3 6e be 10 8d b1 3b 5f f2 41 ba 46 d4 80 bc
       -0.23304485 0.0054184273 -0.0007398482 -0.01572622

src_mlp.bias f4 [128]
000000 b1 9e b5 bb b3 00 17 bf 88 37 18 3c 4b dd 7e 3b
       -0.005542599 -0.5898544 0.009290583 0.0038889225
000010 bc dc 4b 3c 99 54 8f bd d9 93 1f 3c 44 f0 c7 3c
       0.012442764 -0.069985576 0.0097398395 0.02440656
000020 e1 e4 b0 bc e3 32 1a be 63 df bf be 9f 9c 66 bd
       -0.021593513 -0.15058474 -0.37475118 -0.05630171
000030 8d 6e d7 bc 11 10 d6 bd 0f f9 b7 be f2 45 71 3e
       -0.026297832 -0.10452283 -0.35932204 0.23561838
000040 ba b7 b9 bd b8 89 5e bd 98 a3 3c be df 9a 0b bf
       -0.09068246 -0.054330558 -0.18421781 -0.5453319
000050 2d 34 6c 3d a1 28 86 3b 90 d3 ab 3d 0f 9a 5a 3d
       0.057666946 0.004094199 0.08389962 0.053369578
000060 0d fe 53 be 30 80 48 be 1c ed 88 3d de 25 59 be
       -0.20702381 -0.1958015 0.0668585 -0.21205851
000070 f8 33 2c 3d b8 85 0c bc d1 8f d8 3b c6 10 2f bd
       0.04204175 -0.008576803 0.006608941 -0.042740606
000080 37 5a 13 bd e0 47 98 be 92 6f 67 3c c6 17 a0 bb
       -0.035974707 -0.29742336 0.0141257215 -0.0048856465
000090 5e 84 7d bc f8 41 7f bf 96 88 00 3d a7 9c 63 3a
       -0.015473453 -0.99710035 0.03138026 0.0008682706
0000a0 ea b7 12 3e 63 f6 ff 3d 74 77 dc bd 7c 37 b8 3b
       0.1432797 0.124981664 -0.107649714 0.0056218486
0000b0 7d 94 32 bd 22 9c e1 3c 99 5f 35 be 0d 8b 27 bf
       -0.04359864 0.02754027 -0.17712249 -0.6544655
0000c0 9a 10 22 be c8 9a 94 bc 53 b5 04 bc 1a 4b e9 bc
       -0.15826645 -0.018140212 -0.008099872 -0.028478194
0000d0 55 a6 1b bf ce a7 72 be cb 61 72 3c 97 b8 30 3d
       -0.6080068 -0.23696825 0.0147938235 0.04314479
0000e0 0c 14 d7 3c cb 28 f4 bd 19 98 a5 3d 15 94 16 bc
       0.026254676 -0.11921843 0.08085651 -0.009190579
0000f0 e6 68 b2 3d 39 be eb 3c 17 97 03 3c 7b 6e 28 bc
       0.08711414 0.028777229 0.008031628 -0.010280247
000100 46 f0 67 3e be 3e 9c bd b8 04 05 bc 0b b8 3b bd
       0.22650251 -0.076291546 -0.008118801 -0.045829814
000110 6b 8e 29 3c 0a 51 5d be 22 0d a5 3d 2b 8f d0 bb
       0.0103488965 -0.21612945 0.080591455 -0.006364723
000120 45 22 07 bd a1 94 6f be 0d 96 e3 3c 72 66 b1 bd
       -0.032991666 -0.23396541 0.02778151 -0.08662118
000130 85 d3 cd be e8 f5 7b 3d 45 73 cf bc 59 f8 da bc
       -0.4020044 0.06151381 -0.02532352 -0.02672975
000140 95 1d 81 be 6c 5e 8d be a0 18 7d be d3 78 15 bf
       -0.25217882 -0.276111 -0.24716425 -0.5838749
000150 84 ee 3c be 53 22 da bd 61 b7 14 bc 62 1c 72 3d
       -0.18450361 -0.10651078 -0.009076924 0.0591091
000160 ef a9 90 bd e0 06 08 bf 27 bf 85 3d ce b2 26 be
       -0.07063662 -0.5313549 0.065306 -0.16279146
000170 97 81 f6 3c 9c b6 f9 3d b6 24 dd be b8 ed 3a bd
       0.03009109 0.12193033 -0.4319207 -0.045636863
000180 a8 18 ee be df 1c 1d 3d 7d f8 a6 be af 9c c5 3c
       -0.46503186 0.03835761 -0.32611457 0.024122564
000190 0f c8 04 be 6e 87 38 3d 7b 78 da be 3c e5 50 3e
       -0.12966941 0.04505103 -0.42670044 0.20399946
0001a0 17 4b a5 3d 08 2b 98 be d7 91 c6 be a8 44 80 bd
       0.08070963 -0.2972033 -0.38783142 -0.06263095
0001b0 bc ac 03 be 31 3d a6 bd d0 9e 17 bd 20 25 00 bf
       -0.12858862 -0.0811714 -0.03701669 -0.5005665
0001c0 16 0a 4d bc ba ca e1 bd 99 bf 4c be f6 c8 07 bf
       -0.012514612 -0.11024995 -0.19994964 -0.5304102
0001d0 c2 6e 39 bd 7f d6 b8 bd bd 9e 16 bd 3f 74 a8 3d
       -0.045271643 -0.09025287 -0.03677248 0.08225297
0001e0 ba e2 9f 3e ae 5d 2e 3d 28 9f 6f bc 8a 3e 28 3d
       0.31227666 0.04256981 -0.014625348 0.041075267
0001f0 d1 60 d2 bd 94 f3 14 be 1b 62 f2 3b 95 c0 82 3e
       -0.102723725 -0.14546043 0.007396949 0.25537553
