checkpoint/voxceleb_sampler6.pth (torch, 602914 bytes, 15 tensors)

conv.0.bias f4 [1, 256]
000000 da 96 93 3a 43 e7 5b bb 05 4d 5e bb 55 c9 b7 bc
       0.0011260167 -0.003355459 -0.003392042 -0.02243487
000010 9c 99 e7 bc e1 90 81 39 c0 49 93 bc 1d 96 d1 bc
       -0.028271489 0.0002471274 -0.017979503 -0.025584275
000020 2e c8 d3 bc 2a ea f6 bc 40 69 8d bb 5a 0e 0a bc
       -0.025852289 -0.030140955 -0.0043155253 -0.008426273
000030 c7 46 42 bc 49 3f f3 bc 7b 36 4e bc 6a 2b fe bb
       -0.011857695 -0.029693263 -0.012586231 -0.00775664
000040 f9 75 73 bc 9f df 8a b9 74 9b 11 bc 2f f5 f7 bb
       -0.01485967 -0.00026488022 -0.008887161 -0.00756707
000050 dc e0 20 bd 47 04 e5 3b 0e 0d 17 bd 1f cf 2f bd
       -0.039276943 0.0069890353 -0.036877684 -0.042922135
000060 64 ae 4c 3b ad 78 d5 bc 4c 61 34 bc 2d 54 12 bc
       0.0031231875 -0.02605852 -0.0110095255 -0.008931202
000070 61 2d 8d bc 44 d7 14 bd 1a 13 f5 bb 6a 15 bf 3c
       -0.017233552 -0.036338106 -0.0074790837 0.02332564
000080 8b 56 0b bd be ea 4d bc a6 4b 06 bd d1 77 14 3b
       -0.03401808 -0.012568174 -0.032786988 0.0022654424
000090 bd c5 b6 bc 66 7c 7d bc 23 e3 6a bc b6 5b 57 bb
       -0.022311086 -0.015471553 -0.01433638 -0.003286106
0000a0 ea 9d 00 bc 90 9e a3 3b f8 21 47 bc 5f 2a 94 bc
       -0.00785015 0.0049932674 -0.012154095 -0.01808661
0000b0 35 9e 9d bc 54 ab d7 bb 59 5b 03 bd da 9a 5f 3c
       -0.019240478 -0.006581703 -0.032069538 0.013647759
0000c0 1b 64 54 b9 4d c2 c0 bc 00 02 01 bd 59 41 b8 bc
       -0.00020255188 -0.02353015 -0.031496048 -0.022492098
0000d0 7b 55 9d 3b 11 cd 2a bd 51 f6 06 bc a2 58 2a bb
       0.00480145 -0.041699473 -0.008237437 -0.002599277
0000e0 2a ed e7 bc 8d e9 93 bc ec eb 96 3b 17 76 d9 bc
       -0.02831133 -0.018055702 0.004605761 -0.026545567
0000f0 34 70 e8 bc 39 ec 64 bc 69 70 c6 bc d5 d4 c1 bc
       -0.028373815 -0.0139723355 -0.024223523 -0.023661057
000100 1d bd cc 3b 8e 55 98 3b 66 8c 01 bd 24 ad 13 bc
       0.00624813 0.004648871 -0.031628035 -0.009013448
000110 c9 c6 80 ba b8 b4 40 bc ba e6 78 bc 8a fc 39 bc
       -0.0009824868 -0.011761837 -0.015191728 -0.011351714
000120 08 3b 12 bb 7e e9 e4 bc a5 cc 47 bc ad 15 0f bc
       -0.0022313017 -0.027943369 -0.012194787 -0.008733195
000130 b0 49 09 bd 34 63 2c bd 1e 00 21 bd 56 04 79 bc
       -0.03351754 -0.042086795 -0.039306752 -0.015198788
000140 dc 97 c8 bc 06 f1 b5 bc 7e 64 44 bc bb 4f b1 bb
       -0.024486475 -0.022209655 -0.01198685 -0.005411116
000150 14 c3 ea bc d4 d5 5f bd 71 ba e5 ba 5e 9b c5 bc
       -0.028657474 -0.05464728 -0.0017526877 -0.024121936
000160 3e 48 3f bc c1 1d 56 bc 7e 6a 59 bc 53 85 b4 3b
       -0.011674939 -0.013068617 -0.013270019 0.0055090575
000170 db 66 17 bc b8 18 2f bc ca 45 45 bc 7f 38 03 bc
       -0.009240831 -0.010687046 -0.012040565 -0.008009075
000180 3a 2d eb bb 98 cd 0d bc a6 50 16 bc 01 6c 97 bc
       -0.0071770223 -0.008654974 -0.0091745015 -0.018484117
000190 22 c9 f0 bc fa 1f ca bc 49 da e7 bc d7 4d 87 bc
       -0.029392783 -0.02467345 -0.028302329 -0.01651661
0001a0 95 43 98 3b 39 c0 37 3b 88 51 e4 bc e0 c2 33 bc
       0.0046467283 0.0028038158 -0.027870908 -0.010971755
0001b0 90 46 89 bb 07 8d ae bc 9b cc e4 bc 9f b7 63 bc
       -0.00418932 -0.021307481 -0.027929595 -0.013898759
0001c0 90 4e 0d bc cf f1 80 3b 43 cf 20 3a f9 c3 2d 3c
       -0.008624688 0.003935076 0.00061344 0.010605806
0001d0 00 5f 11 bd 73 cb 17 bc fb 4e a1 bc 71 1a 75 bc
       -0.03549099 -0.009264815 -0.019690981 -0.014959917
0001e0 a1 dd bf 38 ff 4b b6 3b 99 7d 90 bd 6c 66 b3 3b
       9.148871e-05 0.0055632587 -0.07055206 0.005474856
0001f0 d3 da b5 bc b2 7c 9d bc ef 50 84 bc aa 49 82 bc
       -0.02219907 -0.019224498 -0.016151873 -0.015904266
000200 12 6d c3 bc 52 9d 98 bc 08 76 fc bb 1c f5 e4 bc
       -0.02385572 -0.018629704 -0.0077045 -0.027948909
000210 fc 4c 73 bc 72 e3 16 bc 70 c5 21 3c e5 16 9d bc
       -0.0148498975 -0.009209501 0.009873733 -0.019175956
000220 2f 40 87 bc 22 47 6e bc 57 03 4d bc 39 fc e3 bc
       -0.016510097 -0.014543327 -0.012513003 -0.02783023
000230 5e a7 cd bc 64 ef c7 bb f8 36 7c bb 49 90 6f bd
       -0.025104221 -0.0061015356 -0.0038484912 -0.05848721
000240 e0 15 ef 3b 2e 27 3d bb ea 1d 19 bd d7 01 ea ba
       0.007296309 -0.0028862464 -0.037382044 -0.0017853332
000250 b5 8a 60 bc 80 3a 16 bd 4e 7a 03 bc 52 83 9c ba
       -0.013704945 -0.036676884 -0.008024765 -0.0011940992
000260 0f 88 26 bc 4c 68 4b bc 14 86 91 3c 5e aa b7 bb
       -0.010164275 -0.012415003 0.017764129 -0.005605026
000270 78 fc bf bb d8 23 f1 bc 99 f6 fc bc 33 35 0a 3b
       -0.005858954 -0.029436037 -0.030879306 0.0021088838
000280 67 02 f4 bc 7f c0 86 bc c6 75 bc bc 31 2c 93 bc
       -0.029786302 -0.016449211 -0.023005378 -0.017965408
000290 7a ff 9a bc 21 be 47 bd bd d3 43 bc c5 83 33 bb
       -0.018920649 -0.048765305 -0.011952338 -0.0027391773
0002a0 fd 1a bb bb 93 3e d4 bb e1 cc 6a bc df 96 98 bc
       -0.0057100044 -0.006477186 -0.0143310735 -0.018626628
0002b0 92 8a cf bc 6b e3 cc bc ff d0 1a bc aa e5 f1 bc
       -0.02533463 -0.025010785 -0.009449243 -0.029528458
0002c0 48 99 cd bc 90 9d 78 bc 88 c6 e6 bc 59 1d ca bb
       -0.025097504 -0.015174285 -0.028170839 -0.0061680493
0002d0 6a 50 13 bc 1a 27 2d bc 10 65 ae bb 0b 98 1f 3b
       -0.00899134 -0.010568405 -0.005322106 0.00243521
0002e0 91 b5 0f bd 90 bf c0 bc 5c 2b 98 bc 22 fd 04 bd
       -0.035085265 -0.023528844 -0.018575363 -0.03246797
0002f0 32 f4 e3 3b 4e e9 14 bd f3 20 61 bc 04 7e d3 ba
       0.0069566006 -0.03635531 -0.013740766 -0.0016135578
000300 67 e8 d7 bc 29 00 21 bc 69 6f 6e bc 17 13 af bb
       -0.026355935 -0.009826698 -0.014552929 -0.005342852
000310 f8 50 32 bc 4d e9 49 bd 3f 0a 9d bc 9b 39 16 bc
       -0.010883562 -0.04929476 -0.019169925 -0.009169008
000320 0a 56 50 bc 5a ad 8a bc 7d fa 98 bc 87 c4 1a bd
       -0.012715826 -0.016928364 -0.01867413 -0.03778508
000330 32 e6 40 bc 06 7f 0c ba e3 9e 8d bc 87 67 67 bd
       -0.011773633 -0.0005359504 -0.017287677 -0.056495216
000340 ba 7a 90 bc d2 62 dc bb 82 b6 0c bc 39 b3 ef bc
       -0.017636646 -0.0067256475 -0.008588435 -0.029260265
000350 50 0e 9f 3c af 54 9a 3b e2 ea 28 3c b0 bd eb bb
       0.019416004 0.004709802 0.010309907 -0.0071942434
000360 c5 2a f7 bc 63 50 de 39 ed 0c 48 bc cb c2 83 bc
       -0.030171761 0.00042403032 -0.012210113 -0.016084095
000370 67 e7 35 bc 0d 31 07 bc 97 e5 5d bd 18 51 97 bc
       -0.011102534 -0.008251441 -0.054174032 -0.018471286
000380 df 14 66 bc 14 52 02 3c 02 38 87 bc 2b 3e 03 3c
       -0.014043062 0.007954139 -0.016506199 0.0080104275
000390 4a ee 14 bc 21 74 01 bd 4e 3a 7e bc 86 b7 54 bc
       -0.009090016 -0.03160489 -0.015516831 -0.0129832085
0003a0 c3 ba 2a bc d7 7d c7 bc 0c 1d b5 bc 59 48 d7 bc
       -0.010420504 -0.024351997 -0.022108577 -0.026279615
0003b0 8a cd d2 bc f6 8c ae bc f2 96 e0 bc 47 16 14 bd
       -0.025732774 -0.02130745 -0.027415726 -0.036154058
0003c0 e2 18 02 bd c4 5c 27 bc 60 5f cd ba 9b 30 38 bc
       -0.03176201 -0.010214988 -0.0015668683 -0.011242057
0003d0 7d 99 15 bd db b0 86 bb d8 48 ac bc d7 5e 90 bd
       -0.03652333 -0.0041104383 -0.021030828 -0.07049339
0003e0 de de 6c bc 93 aa 93 bc d4 18 85 39 46 41 17 3c
       -0.014457433 -0.018025672 0.00025386235 0.009231871
0003f0 57 6d ef bc 85 60 bb bc bd f3 a0 bc 21 57 9b bc
       -0.029226942 -0.022873173 -0.019647473 -0.018962445

conv.0.gcn_layer.attn_l f4 [1, 1, 256]
000000 ca f3 33 3d 93 60 93 3d d6 b3 a5 bc ae e7 b0 3d
       0.043933667 0.071961544 -0.020227354 0.086379394
000010 fd ca 3f 3d 98 ec f8 3d 53 62 b6 bd cb 23 bc 3d
       0.046824444 0.12154502 -0.089054726 0.091865145
000020 1e 41 e4 bd 8b f9 79 3d 84 5b cf 3d 44 bd 12 3e
       -0.111452326 0.061029 0.10124877 0.14330012
000030 d2 88 86 bd cf 92 5f 3e 55 c6 d5 bb 31 b5 29 be
       -0.06569065 0.21833347 -0.006523887 -0.16573025
000040 eb 40 4c bd 21 03 b5 3d 92 9f a2 bd 5d 4e 91 bd
       -0.049866598 0.088384874 -0.07940592 -0.07095025
000050 a0 53 b9 3c 6c 3f aa 3d b6 e5 54 bd d5 54 34 ba
       0.022622883 0.08312878 -0.051976882 -0.0006879096
000060 b3 bf 14 3e 51 ec 86 bd 06 71 b7 bd 62 e3 b6 bd
       0.14526252 -0.065880425 -0.089571044 -0.089300886
000070 cf a4 d1 3d b1 0b a6 3d b1 32 f9 bd 24 95 1f 3d
       0.10236513 0.08107699 -0.12167872 0.03896059
000080 41 29 85 3d 6a 22 6f bd e1 57 1a 3d e8 e3 97 3d
       0.06502009 -0.05838243 0.037681464 0.074165165
000090 01 e4 72 3d c2 17 45 be ce 7a 66 bb 9e 8d 4e bb
       0.059299473 -0.19247344 -0.0035168412 -0.0031517516
0000a0 63 7d 0b 3c e2 57 27 bd 63 19 87 3d f4 ac cc bc
       0.008513781 -0.040855296 0.06596639 -0.024984814
0000b0 05 03 9b 3c da 56 8e 3d 7c b1 03 be 13 70 d6 3b
       0.018922338 0.06950159 -0.12860674 0.006544122
0000c0 6c 2f 2b bd e2 17 9f bd 44 ad 7d bd d8 27 12 bd
       -0.041793272 -0.07768227 -0.061932817 -0.03568253
0000d0 60 13 06 be f1 3c 38 3d 10 43 a4 bd 0e 94 b2 bd
       -0.13093328 0.044979993 -0.08020604 -0.087196454
0000e0 22 20 a9 bd 97 28 d6 bd a5 1c 6a bd c2 53 73 be
       -0.08258082 -0.10456961 -0.057156224 -0.2376242
0000f0 c7 a6 8b bd 23 9a 94 3d fd 59 8e bc e1 2f b2 bd
       -0.0681892 0.07255962 -0.017376894 -0.087005384
000100 1e 3f b9 bb 78 d0 61 bd 8b 85 16 be 92 8a da bb
       -0.005653276 -0.055130452 -0.1469938 -0.006669351
000110 28 24 67 3c a8 b1 7a 3d d5 45 14 bc 9e 11 1f bd
       0.014107741 0.061204582 -0.009049852 -0.03883516
000120 e2 06 43 bd cb 21 cc 3d 0a 93 b9 3c 73 f0 02 3e
       -0.047613986 0.09967383 0.022653122 0.12787037
000130 aa 2b a8 bc af 15 90 bb b4 86 34 be bb b9 a0 bd
       -0.020528633 -0.004397116 -0.1762951 -0.07847925
000140 34 7b f3 3d ef 02 11 3e e1 fe ba bc 35 f1 36 3d
       0.118887335 0.14161275 -0.022826614 0.044663627
000150 66 30 14 be 54 ef 07 be 2a da b5 bb 80 fb b3 bd
       -0.14471588 -0.1327489 -0.005549689 -0.08788204
000160 13 1f 70 be 2e a0 a2 bc 08 6c 08 3e 00 12 a6 bd
       -0.23449354 -0.01985177 0.1332246 -0.08108902
000170 e8 90 60 bd 0b 2a de bd 42 77 1d 3d c6 1b 08 bd
       -0.054825693 -0.10847863 0.03844381 -0.03322961
000180 0e e1 b8 3c 3d 55 7d 3e 64 6b 56 3c a3 28 23 3d
       0.022568252 0.24739547 0.013087127 0.039833676
000190 58 30 c0 3c 25 d9 41 bd e3 7e 69 bc 05 38 32 bd
       0.023460552 -0.047326226 -0.014251444 -0.043510456
0001a0 3c 24 38 3e 27 54 97 bd 20 65 e4 3d 16 8b 1b bc
       0.17982572 -0.07389098 0.111521006 -0.00949361
0001b0 10 73 b1 bd 8f 36 48 bd 01 02 c1 bd a4 7f 95 3c
       -0.086645246 -0.048880156 -0.0942421 0.01824934
0001c0 49 3d 6c bd cc 10 26 3d 3a f5 c7 bd 55 64 8b 3d
       -0.057675634 0.040543362 -0.0976357 0.06806246
0001d0 f3 dc eb bc af 14 a1 3d 28 93 2e 3c 92 d7 17 3c
       -0.02879188 0.07865273 0.010655202 0.009267705
0001e0 1f 01 93 3d 8b 3d ce 3d bc 78 e9 3d a7 d0 53 3d
       0.07177948 0.10070332 0.113999814 0.05171266
0001f0 6a 13 bc 3d c2 50 3c 3e a8 3d aa 3d 45 56 66 3c
       0.091833904 0.18390182 0.08312541 0.014058654
000200 a3 f3 85 be 65 93 d4 bc e0 cb 75 bc f9 ed 0e bd
       -0.26162443 -0.02594919 -0.015002221 -0.034894917
000210 e1 77 1e bd d2 b3 e4 3c aa 95 c1 3d c3 61 00 3d
       -0.038688544 0.027917776 0.09452374 0.031343233
000220 66 78 b3 bd be b6 08 3c 0f 23 8f bd 4a dd cf 3d
       -0.087631986 0.00834435 -0.06989109 0.101496294
000230 f7 be fc 3d 11 88 59 bd c7 e5 fc bc 85 65 89 b9
       0.12341111 -0.05310828 -0.030871285 -0.00026206314
000240 07 b2 dd 3c 0b 8d b2 3d d9 58 34 be 08 44 5b 3d
       0.02706243 0.08718308 -0.17612018 0.053531677
000250 96 b2 1f 3d 75 72 4f 3e 8b c0 d0 bc c4 8f 08 be
       0.038988672 0.20258506 -0.025482437 -0.13336092
000260 97 0e 9d 3b dc 12 d0 3d a5 45 6b 3d d3 95 82 bc
       0.004792999 0.10159847 0.057439465 -0.015940582
000270 9f 21 a7 3c 4b 0c eb 3b dc a4 7a bd 64 e9 54 bd
       0.020401774 0.0071730963 -0.06119238 -0.05198039
000280 6a 47 82 bc ed 9d fc bd 74 90 01 3b 1a d9 65 3d
       -0.015903194 -0.123348095 0.0019769939 0.056115247
000290 8c 78 f3 39 d3 df d3 3d e2 f1 0f 3d 60 9b 0e be
       0.00046438386 0.103454255 0.035142787 -0.13926458
0002a0 65 15 3b 3e a3 41 7f 3e 60 c9 71 bd a2 e1 88 3e
       0.1826988 0.24927382 -0.059029937 0.26734644
0002b0 06 74 da 3d b3 f7 c9 3d 4c 0a d0 3d db 53 ae bd
       0.10666661 0.09861698 0.10158214 -0.08512088
0002c0 2e 29 8c bd 45 62 8a 3c 8e 9b 43 3d a1 5b 4d 3e
       -0.06843792 0.016892562 0.04775577 0.20054485
0002d0 3b 87 a0 3c 7e 25 6b 3d b0 73 5b bd 15 61 80 3b
       0.019595733 0.057408802 -0.053577125 0.003917823
0002e0 b6 ba 8c 3d be c3 90 3d 89 2a 80 bd 14 59 2c 3c
       0.0687155 0.07068585 -0.06258113 0.010519285
0002f0 a4 e7 27 bd 44 12 26 3e 1a 84 ee 3c b2 b5 3c 3e
       -0.040992394 0.16217905 0.029115725 0.18428686
000300 dd 90 40 3e f5 75 c9 3d 66 6d c4 3d 53 4d 92 3b
       0.18805261 0.09836952 0.095911786 0.004464784
000310 72 9b ec 3d 70 8e 0d be 20 f7 dd bd 5f 5e 37 be
       0.11553086 -0.13823867 -0.10838151 -0.17907093
000320 00 72 24 bd 80 28 d7 bd e0 cf e0 3d 5f 64 e2 bc
       -0.04014778 -0.10505772 0.10977149 -0.027635751
000330 49 9d 3e be 9e a3 4d 3d e3 e9 80 3e 74 6c e0 3d
       -0.18614687 0.050204866 0.2517844 0.10958186
000340 90 ae f5 3c 38 fa 8d 3d 8b 18 80 bd 31 cf f4 3d
       0.029990464 0.06932491 -0.06254681 0.11953581
000350 19 ad 2c bd 04 32 25 be b1 42 04 3e 0a 60 9f 3d
       -0.042157266 -0.1613236 0.12916066 0.0778199
000360 c8 e8 cf 3a ca fe 82 3e 1c 8d c1 3d 30 f7 d1 bc
       0.0015862221 0.25585014 0.094507426 -0.025630563
000370 1f 1a 42 bd 12 51 1a 3e dc 6d 16 3c 50 c8 9a bd
       -0.047388192 0.15069988 0.009181466 -0.07557738
000380 e1 7f 89 3d 5b bc 8b 3d af 61 53 bd 40 e7 5e bd
       0.06713844 0.06823035 -0.05160683 -0.054419756
000390 3a 56 a7 bc 80 d2 22 bd 2b aa 10 bd 35 b0 1c 3d
       -0.020426858 -0.03975153 -0.035318535 0.03825398
0003a0 10 3f e1 ba 14 d3 05 3e b0 2d d5 3d d7 fa c2 bd
       -0.0017184932 0.13068801 0.10409105 -0.095205
0003b0 df de 04 be 92 a9 6b bd bc 5b 00 bc 84 68 c7 3d
       -0.12975644 -0.05753476 -0.007834371 0.09736732
0003c0 23 5b 96 be 11 9b 46 be 03 0b ab 3d 19 c6 e0 3b
       -0.29366407 -0.1939509 0.0835171 0.0068595526
0003d0 fd ec fa 3d d1 23 92 3d 0f 6a 4c 3d fe 62 7e 3d
       0.12252233 0.07135738 0.049905833 0.062106125
0003e0 f4 e4 c0 3c 1e b0 c2 3d f1 e6 8a 3c ea b6 3c 3e
       0.023546673 0.09506248 0.016955825 0.18429151
0003f0 8d c4 00 3d a5 68 45 bb 66 b7 55 3e a7 46 91 3d
       0.031437445 -0.0030122187 0.20870742 0.07093554

conv.0.gcn_layer.attn_r f4 [1, 1, 256]
000000 06 d5 78 be 6a e2 0a bc 6c 3c 54 bc 20 4e df 3d
       -0.24300012 -0.008476833 -0.012953859 0.10903573
000010 41 e2 ca bd e4 16 11 3d 8d 2b 43 3d 26 82 29 be
       -0.09906436 0.03542222 0.047648955 -0.16553554
000020 8e 6a b3 bd 71 82 28 be 4f 16 f0 3d 16 30 f8 bc
       -0.08760558 -0.1645601 0.11723005 -0.030296367
000030 b7 5e 32 3e 0b 00 13 bd 6a 15 bb 3d 8f 24 27 bd
       0.17418943 -0.035888713 0.09134944 -0.04080635
000040 95 b2 c3 3d 95 76 79 bc 80 dd 43 bd 18 b7 c0 3d
       0.09555546 -0.015226026 -0.04781866 0.09409922
000050 fb ab 82 bd e3 91 98 bd 0b cb d2 bd 29 7d ec bd
       -0.06380459 -0.07449701 -0.102926336 -0.1154731
000060 ab 4b 8f bd cb f3 17 3c a5 b6 cb bd 2b 05 55 3d
       -0.069968544 0.009274433 -0.09946946 0.05200688
000070 81 2c 37 3d e7 d9 06 be e8 1e e5 3d c5 6b d7 3c
       0.044720177 -0.1316906 0.111875355 0.026296506
000080 db fa 58 3d eb 3c 03 be 39 0a c0 bb d6 ef d7 bc
       0.05297361 -0.12816207 -0.0058605936 -0.02635948
000090 4d b3 04 be 80 89 37 bd 59 16 e4 bc c4 e0 97 3c
       -0.12959023 -0.044808865 -0.027842687 0.018539794
0000a0 60 70 1b 3e 10 d4 e2 3d 01 d0 c0 bc c9 0e 19 be
       0.15179586 0.11075604 -0.023536684 -0.14947046
0000b0 73 09 d4 3d 2a db 8c 3c ff 07 09 bc 56 30 4a 3e
       0.10353365 0.01719435 -0.008363723 0.19745001
0000c0 bc cd d2 3c 12 85 3e 3c 9f 49 75 be 49 d3 60 3d
       0.025732867 0.011628406 -0.23953865 0.054888997
0000d0 8a 90 16 be 4b a2 22 bd 55 8f 09 be 6b 56 18 be
       -0.14703575 -0.039705556 -0.13433583 -0.14876716
0000e0 b6 9e ac bc c6 1c 53 be 94 48 12 bd f9 15 61 bc
       -0.021071773 -0.20616445 -0.035713747 -0.013738149
0000f0 9a 19 bc 3d 05 4d 21 be a2 b8 9b bb 2d 94 44 bd
       0.091845706 -0.15752037 -0.0047522346 -0.047992874
000100 01 1e 84 3c a3 a4 96 bd e7 54 ae bc b8 a9 6d bd
       0.016127588 -0.07355621 -0.021280719 -0.058023185
000110 fe a2 d5 bc 8c af 5e 3d cd 48 8a 3d a5 db f9 bc
       -0.026078697 0.054366633 0.06752167 -0.030500242
000120 b5 9f e0 bd 90 c7 01 3e e5 97 8c bd 64 19 b3 3d
       -0.10967962 0.12673783 -0.06864909 0.08745077
000130 fd 1a 7f be e7 41 1a bc 3a 11 dd 3d 6d d9 24 bd
       -0.24912639 -0.009415126 0.10794301 -0.040246416
000140 15 d5 a0 3d f2 85 92 bd 11 e3 cf 3c 68 16 0e 3e
       0.07853142 -0.07154454 0.025376828 0.13875735
000150 bd 24 30 3b 55 97 5b bd a4 c9 6f 3b a6 ca 92 bd
       0.0026877366 -0.05361112 0.0036588693 -0.07167558
000160 cb 1a 42 bd 21 16 8f bc 2d 26 7b bd 53 36 b2 bc
       -0.047388833 -0.017466607 -0.061315704 -0.02175442
000170 05 45 94 bd 33 df c6 3d 7d 87 d2 bd 7e 87 b3 bc
       -0.07239727 0.097105406 -0.102797486 -0.021915194
000180 59 f1 87 3b f0 ef 5a bd 28 f0 1a 3d b3 ab de bd
       0.004148644 -0.05345148 0.037826687 -0.10872593
000190 85 fb 9a bd bd aa e5 bd ba e3 b0 3c 4c 09 62 bc
       -0.07567505 -0.11214206 0.021592963 -0.013796162
0001a0 34 fb 98 3d 89 35 ba bd 07 17 36 bd d0 a4 5a bb
       0.07469788 -0.09092242 -0.044455554 -0.0033362396
0001b0 25 d1 55 be c0 df 3d be c4 46 ce bb d3 df 4d bd
       -0.20880564 -0.18542385 -0.006295057 -0.050262284
0001c0 95 a9 ae bd 04 b4 04 3e 05 95 86 bc 64 25 eb 3d
       -0.08528439 0.12959296 -0.01642848 0.11481741
0001d0 64 d4 cb 3a 33 4d 17 bd 21 fb f9 bb c3 7a 28 3e
       0.0015550968 -0.036938857 -0.007628814 0.1645308
0001e0 5a 50 08 3e 87 10 17 bd 17 69 a5 3d 91 57 1b 3d
       0.13311902 -0.036880996 0.08076685 0.037925307
0001f0 94 67 16 be 6f f2 e1 bc 83 64 7e bd e9 af 2c be
       -0.1468795 -0.027581422 -0.062107574 -0.1686398
000200 fe 70 17 be a0 ee 4c 3d 05 a1 32 bd 41 58 d1 bc
       -0.14789197 0.050032258 -0.04361059 -0.025554778
000210 e0 08 55 bd e6 57 32 bd d4 bd bd 3c a9 1e c0 bd
       -0.052010417 -0.043540858 0.023161806 -0.09380848
000220 70 5d b5 3d be 55 b9 3c 68 a2 a7 3c a8 a3 02 3d
       0.088557124 0.022623893 0.020463184 0.031894356
000230 e1 b5 e4 bd 45 70 75 3d 72 03 49 be 2f d9 e1 bd
       -0.11167503 0.05992152 -0.1963022 -0.110277526
000240 66 c7 92 3d 92 3a 30 be 11 aa 71 bd 08 00 b0 3c
       0.071669385 -0.17209843 -0.05900008 0.02148439
000250 68 31 a8 3c e6 c1 60 3d 23 cf da 3d 7c 25 4e bd
       0.020531371 0.054872416 0.106840394 -0.050328717
000260 fc 2e 52 bd 1c 74 68 bd 02 16 5d bd 6f 21 cb 3a
       -0.05131434 -0.056751356 -0.053976066 0.0015497635
000270 27 af f1 bc 55 46 4d bd 00 77 85 bd 30 e1 18 be
       -0.029502464 -0.050115902 -0.06516838 -0.14929652
000280 17 4b 10 3d d4 e9 4b 3d 8c 9a cd 3c 05 43 ca bc
       0.03522786 0.049783543 0.025098108 -0.02469016
000290 24 ce 17 3e 1b fa 87 3c 1e f8 b4 3d 07 a7 11 bc
       0.1482473 0.016598752 0.08836387 -0.00888992
0002a0 ff a9 86 3d df ba 0c 3e d9 5b 2d 3e 0f f4 4a 3e
       0.06575393 0.1374316 0.16929568 0.19819663
0002b0 07 07 17 3e aa 82 73 bd bc 09 24 3e 0f a8 e9 3d
       0.14748774 -0.059450783 0.16019338 0.11409008
0002c0 78 87 23 be 05 41 86 bd c4 ef 9c 3d 53 84 10 bd
       -0.15969646 -0.0655537 0.07662919 -0.035282444
0002d0 d0 8a 39 3e 44 e1 4a 3c 8e dc a3 bd 4f 3d 9a bd
       0.18119359 0.012382809 -0.08001052 -0.07531225
0002e0 f7 d1 86 bd df 4e 68 3d fa 3f 9f bd b4 03 c2 bc
       -0.06583016 0.056715842 -0.077758744 -0.023683406
0002f0 d0 48 8b 3c 54 bf 2a 3e a9 0e 07 3e 87 80 e3 bc
       0.017002493 0.16674548 0.13189186 -0.027771248
000300 44 16 cd 3c 53 13 83 3d 38 59 76 3e c5 3f 3c 3d
       0.025035031 0.0640017 0.24057472 0.045959253
000310 64 bd 3e be 05 72 de ba 77 3c 2c be 43 24 f3 bd
       -0.18626934 -0.0016971236 -0.1681994 -0.11872151
000320 21 b2 ac bd 58 73 13 3d 79 1e 50 3d 1d ed 05 3e
       -0.08432413 0.035998672 0.05081031 0.13078733
000330 a5 54 aa bd 19 58 89 3d 51 d8 1e 3d 59 00 05 be
       -0.08316926 0.067062564 0.038780514 -0.12988414
000340 d7 a0 5f bd d2 11 85 3d cb 88 4c 3e 05 f9 d1 3d
       -0.05459675 0.064975396 0.19974057 0.10252575
000350 06 ff 04 be a8 2a 4c bd ee a5 ac bc 2f 07 c3 bd
       -0.12987909 -0.049845368 -0.021075215 -0.095228545
000360 9e b4 3e 3d 3a ee 7c bd 02 18 df 3a ae 5b 65 be
       0.04655897 -0.061750628 0.0017020705 -0.22398254
000370 51 ab a1 bd b5 2f 50 3d 9c ad d0 bc 8d c2 6c 3d
       -0.07894004 0.050826747 -0.025473408 0.057802726
000380 e5 b2 c0 3a b5 63 2c 3e b9 76 98 bd 60 25 33 3d
       0.0014701752 0.1683491 -0.074445195 0.043736815
000390 69 72 16 bd f4 0c a1 bd 67 87 08 3d fe dc d8 bd
       -0.036730204 -0.07863799 0.033332255 -0.10589026
0003a0 2b b3 82 bb 00 39 b2 3d f5 b9 0a bd f0 4f 0c be
       -0.0039886436 0.08702278 -0.03386875 -0.13702369
0003b0 34 91 4c bd c4 7a e1 bd 89 b9 82 be 0b 12 56 be
       -0.049943164 -0.11009744 -0.25532177 -0.2090532
0003c0 fe 92 78 bd 47 04 a2 bd 75 d0 20 3c 3f f9 47 3d
       -0.060687058 -0.07910972 0.009815325 0.048821684
0003d0 5c fd 3c 3e 00 b3 be bd cf af 5d 3d 3d e2 b4 bc
       0.18456024 -0.09311485 0.054122742 -0.022080535
0003e0 df ee 9f 3d 66 ff 08 bc 6c 2a ce bc 6e 2d 8d bd
       0.07809233 -0.008361673 -0.025166713 -0.06893431
0003f0 68 0f a6 3d 53 32 11 3e 57 c8 63 3d 92 0d d7 3d
       0.08108407 0.14179353 0.05561098 0.10500635

conv.0.gcn_layer.bias f4 [256]
000000 da 96 93 3a 43 e7 5b bb 05 4d 5e bb 55 c9 b7 bc
       0.0011260167 -0.003355459 -0.003392042 -0.02243487
000010 9c 99 e7 bc e1 90 81 39 c0 49 93 bc 1d 96 d1 bc
       -0.028271489 0.0002471274 -0.017979503 -0.025584275
000020 2e c8 d3 bc 2a ea f6 bc 40 69 8d bb 5a 0e 0a bc
       -0.025852289 -0.030140955 -0.0043155253 -0.008426273
000030 c7 46 42 bc 49 3f f3 bc 7b 36 4e bc 6a 2b fe bb
       -0.011857695 -0.029693263 -0.012586231 -0.00775664
000040 f9 75 73 bc 9f df 8a b9 74 9b 11 bc 2f f5 f7 bb
       -0.01485967 -0.00026488022 -0.008887161 -0.00756707
000050 dc e0 20 bd 47 04 e5 3b 0e 0d 17 bd 1f cf 2f bd
       -0.039276943 0.0069890353 -0.036877684 -0.042922135
000060 64 ae 4c 3b ad 78 d5 bc 4c 61 34 bc 2d 54 12 bc
       0.0031231875 -0.02605852 -0.0110095255 -0.008931202
000070 61 2d 8d bc 44 d7 14 bd 1a 13 f5 bb 6a 15 bf 3c
       -0.017233552 -0.036338106 -0.0074790837 0.02332564
000080 8b 56 0b bd be ea 4d bc a6 4b 06 bd d1 77 14 3b
       -0.03401808 -0.012568174 -0.032786988 0.0022654424
000090 bd c5 b6 bc 66 7c 7d bc 23 e3 6a bc b6 5b 57 bb
       -0.022311086 -0.015471553 -0.01433638 -0.003286106
0000a0 ea 9d 00 bc 90 9e a3 3b f8 21 47 bc 5f 2a 94 bc
       -0.00785015 0.0049932674 -0.012154095 -0.01808661
0000b0 35 9e 9d bc 54 ab d7 bb 59 5b 03 bd da 9a 5f 3c
       -0.019240478 -0.006581703 -0.032069538 0.013647759
0000c0 1b 64 54 b9 4d c2 c0 bc 00 02 01 bd 59 41 b8 bc
       -0.00020255188 -0.02353015 -0.031496048 -0.022492098
0000d0 7b 55 9d 3b 11 cd 2a bd 51 f6 06 bc a2 58 2a bb
       0.00480145 -0.041699473 -0.008237437 -0.002599277
0000e0 2a ed e7 bc 8d e9 93 bc ec eb 96 3b 17 76 d9 bc
       -0.02831133 -0.018055702 0.004605761 -0.026545567
0000f0 34 70 e8 bc 39 ec 64 bc 69 70 c6 bc d5 d4 c1 bc
       -0.028373815 -0.0139723355 -0.024223523 -0.023661057
000100 1d bd cc 3b 8e 55 98 3b 66 8c 01 bd 24 ad 13 bc
       0.00624813 0.004648871 -0.031628035 -0.009013448
000110 c9 c6 80 ba b8 b4 40 bc ba e6 78 bc 8a fc 39 bc
       -0.0009824868 -0.011761837 -0.015191728 -0.011351714
000120 08 3b 12 bb 7e e9 e4 bc a5 cc 47 bc ad 15 0f bc
       -0.0022313017 -0.027943369 -0.012194787 -0.008733195
000130 b0 49 09 bd 34 63 2c bd 1e 00 21 bd 56 04 79 bc
       -0.03351754 -0.042086795 -0.039306752 -0.015198788
000140 dc 97 c8 bc 06 f1 b5 bc 7e 64 44 bc bb 4f b1 bb
       -0.024486475 -0.022209655 -0.01198685 -0.005411116
000150 14 c3 ea bc d4 d5 5f bd 71 ba e5 ba 5e 9b c5 bc
       -0.028657474 -0.05464728 -0.0017526877 -0.024121936
000160 3e 48 3f bc c1 1d 56 bc 7e 6a 59 bc 53 85 b4 3b
       -0.011674939 -0.013068617 -0.013270019 0.0055090575
000170 db 66 17 bc b8 18 2f bc ca 45 45 bc 7f 38 03 bc
       -0.009240831 -0.010687046 -0.012040565 -0.008009075
000180 3a 2d eb bb 98 cd 0d bc a6 50 16 bc 01 6c 97 bc
       -0.0071770223 -0.008654974 -0.0091745015 -0.018484117
000190 22 c9 f0 bc fa 1f ca bc 49 da e7 bc d7 4d 87 bc
       -0.029392783 -0.02467345 -0.028302329 -0.01651661
0001a0 95 43 98 3b 39 c0 37 3b 88 51 e4 bc e0 c2 33 bc
       0.0046467283 0.0028038158 -0.027870908 -0.010971755
0001b0 90 46 89 bb 07 8d ae bc 9b cc e4 bc 9f b7 63 bc
       -0.00418932 -0.021307481 -0.027929595 -0.013898759
0001c0 90 4e 0d bc cf f1 80 3b 43 cf 20 3a f9 c3 2d 3c
       -0.008624688 0.003935076 0.00061344 0.010605806
0001d0 00 5f 11 bd 73 cb 17 bc fb 4e a1 bc 71 1a 75 bc
       -0.03549099 -0.009264815 -0.019690981 -0.014959917
0001e0 a1 dd bf 38 ff 4b b6 3b 99 7d 90 bd 6c 66 b3 3b
       9.148871e-05 0.0055632587 -0.07055206 0.005474856
0001f0 d3 da b5 bc b2 7c 9d bc ef 50 84 bc aa 49 82 bc
       -0.02219907 -0.019224498 -0.016151873 -0.015904266
000200 12 6d c3 bc 52 9d 98 bc 08 76 fc bb 1c f5 e4 bc
       -0.02385572 -0.018629704 -0.0077045 -0.027948909
000210 fc 4c 73 bc 72 e3 16 bc 70 c5 21 3c e5 16 9d bc
       -0.0148498975 -0.009209501 0.009873733 -0.019175956
000220 2f 40 87 bc 22 47 6e bc 57 03 4d bc 39 fc e3 bc
       -0.016510097 -0.014543327 -0.012513003 -0.02783023
000230 5e a7 cd bc 64 ef c7 bb f8 36 7c bb 49 90 6f bd
       -0.025104221 -0.0061015356 -0.0038484912 -0.05848721
000240 e0 15 ef 3b 2e 27 3d bb ea 1d 19 bd d7 01 ea ba
       0.007296309 -0.0028862464 -0.037382044 -0.0017853332
000250 b5 8a 60 bc 80 3a 16 bd 4e 7a 03 bc 52 83 9c ba
       -0.013704945 -0.036676884 -0.008024765 -0.0011940992
000260 0f 88 26 bc 4c 68 4b bc 14 86 91 3c 5e aa b7 bb
       -0.010164275 -0.012415003 0.017764129 -0.005605026
000270 78 fc bf bb d8 23 f1 bc 99 f6 fc bc 33 35 0a 3b
       -0.005858954 -0.029436037 -0.030879306 0.0021088838
000280 67 02 f4 bc 7f c0 86 bc c6 75 bc bc 31 2c 93 bc
       -0.029786302 -0.016449211 -0.023005378 -0.017965408
000290 7a ff 9a bc 21 be 47 bd bd d3 43 bc c5 83 33 bb
       -0.018920649 -0.048765305 -0.011952338 -0.0027391773
0002a0 fd 1a bb bb 93 3e d4 bb e1 cc 6a bc df 96 98 bc
       -0.0057100044 -0.006477186 -0.0143310735 -0.018626628
0002b0 92 8a cf bc 6b e3 cc bc ff d0 1a bc aa e5 f1 bc
       -0.02533463 -0.025010785 -0.009449243 -0.029528458
0002c0 48 99 cd bc 90 9d 78 bc 88 c6 e6 bc 59 1d ca bb
       -0.025097504 -0.015174285 -0.028170839 -0.0061680493
0002d0 6a 50 13 bc 1a 27 2d bc 10 65 ae bb 0b 98 1f 3b
       -0.00899134 -0.010568405 -0.005322106 0.00243521
0002e0 91 b5 0f bd 90 bf c0 bc 5c 2b 98 bc 22 fd 04 bd
       -0.035085265 -0.023528844 -0.018575363 -0.03246797
0002f0 32 f4 e3 3b 4e e9 14 bd f3 20 61 bc 04 7e d3 ba
       0.0069566006 -0.03635531 -0.013740766 -0.0016135578
000300 67 e8 d7 bc 29 00 21 bc 69 6f 6e bc 17 13 af bb
       -0.026355935 -0.009826698 -0.014552929 -0.005342852
000310 f8 50 32 bc 4d e9 49 bd 3f 0a 9d bc 9b 39 16 bc
       -0.010883562 -0.04929476 -0.019169925 -0.009169008
000320 0a 56 50 bc 5a ad 8a bc 7d fa 98 bc 87 c4 1a bd
       -0.012715826 -0.016928364 -0.01867413 -0.03778508
000330 32 e6 40 bc 06 7f 0c ba e3 9e 8d bc 87 67 67 bd
       -0.011773633 -0.0005359504 -0.017287677 -0.056495216
000340 ba 7a 90 bc d2 62 dc bb 82 b6 0c bc 39 b3 ef bc
       -0.017636646 -0.0067256475 -0.008588435 -0.029260265
000350 50 0e 9f 3c af 54 9a 3b e2 ea 28 3c b0 bd eb bb
       0.019416004 0.004709802 0.010309907 -0.0071942434
000360 c5 2a f7 bc 63 50 de 39 ed 0c 48 bc cb c2 83 bc
       -0.030171761 0.00042403032 -0.012210113 -0.016084095
000370 67 e7 35 bc 0d 31 07 bc 97 e5 5d bd 18 51 97 bc
       -0.011102534 -0.008251441 -0.054174032 -0.018471286
000380 df 14 66 bc 14 52 02 3c 02 38 87 bc 2b 3e 03 3c
       -0.014043062 0.007954139 -0.016506199 0.0080104275
000390 4a ee 14 bc 21 74 01 bd 4e 3a 7e bc 86 b7 54 bc
       -0.009090016 -0.03160489 -0.015516831 -0.0129832085
0003a0 c3 ba 2a bc d7 7d c7 bc 0c 1d b5 bc 59 48 d7 bc
       -0.010420504 -0.024351997 -0.022108577 -0.026279615
0003b0 8a cd d2 bc f6 8c ae bc f2 96 e0 bc 47 16 14 bd
       -0.025732774 -0.02130745 -0.027415726 -0.036154058
0003c0 e2 18 02 bd c4 5c 27 bc 60 5f cd ba 9b 30 38 bc
       -0.03176201 -0.010214988 -0.0015668683 -0.011242057
0003d0 7d 99 15 bd db b0 86 bb d8 48 ac bc d7 5e 90 bd
       -0.03652333 -0.0041104383 -0.021030828 -0.07049339
0003e0 de de 6c bc 93 aa 93 bc d4 18 85 39 46 41 17 3c
       -0.014457433 -0.018025672 0.00025386235 0.009231871
0003f0 57 6d ef bc 85 60 bb bc bd f3 a0 bc 21 57 9b bc
       -0.029226942 -0.022873173 -0.019647473 -0.018962445

conv.0.gcn_layer.fc.weight f4 [256, 256]
000000 4f 7c 08 bd 7a 3e 84 3d 5c ba 68 bd 86 6c 96 3d
       -0.033321675 0.06457229 -0.05681835 0.07344918
000010 b0 e7 82 3d 57 8d 3d bd db aa 56 bd d2 87 3b 3c
       0.06391847 -0.04627737 -0.052409034 0.011445956
000020 25 74 2d bc 3f 53 61 3c 50 80 06 3e ff 60 27 bc
       -0.010586773 0.013752758 0.13134885 -0.010215997
000030 84 1d 03 3e cd c1 99 bc 12 ae 52 bd 0d ac a2 3c
       0.12804228 -0.01876917 -0.051435538 0.01985743
000040 1b 91 8f 3d 47 e3 11 3d 17 44 ca bd bc 45 c7 bc
       0.070100985 0.03561714 -0.09876268 -0.024325244
000050 f5 ad 60 3e fe 1a cd ba a2 9c 01 be 24 a2 18 bd
       0.2194136 -0.0015648303 -0.12657407 -0.037264004
000060 da 83 a5 bd 23 9a 4d 3d b5 d7 93 bd f9 2d ce 3c
       -0.08081789 0.050195824 -0.07218877 0.025168406
000070 35 43 01 be 2c 23 02 be f3 14 23 3c 84 27 2b 3d
       -0.12623294 -0.1270873 0.009953725 0.041785732
000080 db ea e3 bd 7a f0 d6 bd 9a e7 d0 bc 4a d2 de bc
       -0.111287795 -0.10495086 -0.025501061 -0.027199883
000090 59 db ab 3d cb c9 49 3d 81 1c a3 3d 1c 39 20 3c
       0.083914466 0.04926471 0.07964421 0.009779241
0000a0 8f 28 02 3d 7b 82 02 bd 51 5f 13 3d d1 f9 20 3c
       0.03177696 -0.031862717 0.035979573 0.009825186
0000b0 9a 59 b4 bd 04 05 00 3e 5f f2 93 3b fa 3d 4f bd
       -0.08806153 0.12501913 0.004514977 -0.050596215
0000c0 94 9f 39 3d 4b 9c b1 bd 76 0a 1f 3c 97 0b 31 3d
       0.0453182 -0.08672389 0.009707084 0.043223944
0000d0 29 70 20 bc 94 22 0a 3e f2 9f 55 3e 68 98 25 3c
       -0.009792366 0.13489753 0.20861796 0.010107137
0000e0 7e 57 5e 3d a5 30 05 bd a4 f5 f7 bd 11 c1 b4 bd
       0.054282658 -0.032517094 -0.12107399 -0.08825887
0000f0 75 ec eb 3c c9 fc a5 bc 75 b8 2e 3e 5c 5a c0 3d
       0.028799275 -0.020262139 0.17062552 0.09392235
000100 f9 a1 02 be 03 33 3c bd 42 24 8a 3d c0 5c 04 be
       -0.127571 -0.045947086 0.06745197 -0.12926006
000110 75 b9 03 be a6 40 80 bd d4 97 19 3d 98 90 f0 3d
       -0.12863715 -0.06262331 0.03749831 0.11746329
000120 3b 72 5f 3d c8 44 5d bd 40 b7 8c 3d 63 7e f2 3c
       0.054552298 -0.054020673 0.0687089 0.029601282
000130 14 4a 4d 3d cb 2f 53 3d df fe 05 3e eb a7 9f bd
       0.050119475 0.05155925 0.13085507 -0.077957
000140 fc c8 21 3d bf 6f 22 bd 96 52 9d bd 3c 00 92 3d
       0.039498314 -0.03965735 -0.07681768 0.07128951
000150 40 15 5f 3d d0 81 6e 3d 8a 60 15 be d3 38 52 be
       0.054463625 0.058229268 -0.14587608 -0.20529489
000160 00 3d 4c 3d 6c 45 91 3d 10 ac 9c 3c 3a 6f 22 bc
       0.04986286 0.07093319 0.019125015 -0.009914214
000170 b5 85 3d 3c 2a bf 35 3d de 8b 12 3e 1c b2 61 3d
       0.011567523 0.04437176 0.14311168 0.0551015
000180 82 5c f4 bc 08 c6 00 3e 97 a9 39 3c 21 86 55 bd
       -0.029829267 0.12575543 0.011331937 -0.05212987
000190 d1 df 05 3d 89 50 3d bd 50 dd 90 3d 23 de 06 3d
       0.03268415 -0.046219382 0.07073462 0.03292669
0001a0 41 cb 30 bd 92 55 cf bd 92 01 2a 3d a2 36 0d be
       -0.043162588 -0.10123743 0.041505404 -0.13790372
0001b0 c7 8e 82 bc 2d 7f 9d 3b c5 2c 09 3e 8f 70 60 bc
       -0.015937222 0.0048064203 0.13395984 -0.013698711
0001c0 03 de db 3d 1c f7 4e 3e 8c 85 99 bd 4e 02 29 3d
       0.10735705 0.20211452 -0.07496175 0.041261964
0001d0 56 13 cd bd fe c1 e4 3c e7 0c 1a 3e 41 c6 cf 3d
       -0.10013454 0.027924534 0.15043984 0.10145236
0001e0 c8 b8 a3 3d a4 77 4f be 3c e3 89 bd 78 bd 10 3b
       0.079942286 -0.20260483 -0.06732795 0.0022085588
0001f0 e5 e3 c1 3d 2c 80 d1 3d 01 80 c5 3c 98 1d ac bd
       0.094672956 0.10229525 0.024108889 -0.08404082
000200 e6 63 bc 3d 48 05 50 3d a1 3d c0 3d d6 e6 2b 3d
       0.091987416 0.050786287 0.09386755 0.04196819
000210 9b c8 38 bc a8 64 3d 3e 50 8e 07 3d 47 ba bf 3c
       -0.011278297 0.18495429 0.033094704 0.023404254
000220 c2 4f e9 3d aa 64 e4 bd 0c af e5 bd 90 1f 13 3e
       0.11392166 -0.11152013 -0.11215028 0.14367509
000230 72 a0 df bd 1e 0e af bd 7f 80 32 bd d1 2f 80 bd
       -0.109192744 -0.085476145 -0.043579575 -0.0625912
000240 69 b5 22 3d 7b c7 e0 3d 54 e0 20 3e 44 c9 10 bd
       0.039723787 0.10975548 0.15710574 -0.03534819
000250 8e 81 c1 3c 23 f9 82 3d 5b d2 d8 3d 37 36 35 be
       0.023621347 0.06395175 0.10586997 -0.17696463
000260 87 a2 ac bd 80 3a ef bd bf 8d 44 be 5b 29 8e 3e
       -0.08429437 -0.1168108 -0.19194697 0.27765927
000270 06 ba 06 3e 68 9b 92 3e fa 67 0b be d1 16 62 3c
       0.131569 0.2863419 -0.13613883 0.013799385
000280 53 bd 55 be 07 27 fb 3b 81 59 b6 3d ae dd 9c bd
       -0.20873003 0.0076645645 0.0890379 -0.076594695
000290 69 55 d0 bd 9d 37 ad bc 74 53 76 3e fa dc ad bb
       -0.10172541 -0.021144683 0.24055272 -0.0053058835
0002a0 75 7c 69 bd 6f 9e 04 bd b5 88 7c 3d ec 10 48 be
       -0.057003457 -0.032377657 0.06165381 -0.19537705
0002b0 17 0f 8a bd 88 4c ad bc 51 a7 30 3d 35 ff 38 bd
       -0.067411594 -0.021154657 0.043128315 -0.04516526
0002c0 55 30 31 3c c8 d2 91 3d a9 28 05 be 96 94 af 3c
       0.010814746 0.071202815 -0.13003792 0.021433156
0002d0 3e 55 05 bd 3f e9 57 3d 55 73 69 bd 1b 6f 2a 3d
       -0.032551996 0.052712675 -0.056994755 0.041609865
0002e0 2b 8c 29 be 23 2e ec bc 1c 45 1f 3e 12 c9 d6 3c
       -0.16557376 -0.028830593 0.15553707 0.026218925
0002f0 ef cb cf bd 5d 95 22 be b9 bf a8 bd 0d 66 00 be
       -0.10146319 -0.1587729 -0.08239693 -0.1253893
000300 f1 32 de bd 75 89 40 3d e9 6e 39 3d b4 d0 14 bd
       -0.1084956 0.04700609 0.045271788 -0.036331847
000310 e5 69 c5 3c 19 12 12 3d 17 7c 30 3e 84 48 83 3d
       0.024098346 0.03566179 0.17234837 0.06410316
000320 bd e0 19 3d 01 f5 16 bc c1 99 0c bc 89 60 eb 3d
       0.037567843 -0.009213687 -0.00858158 0.11493022
000330 91 71 ef 3d 0b 1b 2b 3e f1 c2 08 3e 62 b5 a4 3b
       0.11691583 0.16709535 0.13355614 0.0050265053
000340 92 24 ab 3d 8f 6b b4 bc 09 84 81 bd fd 01 81 3d
       0.083565846 -0.022023944 -0.06324012 0.06299207
000350 d7 8e e0 bd 34 9f a8 3c b2 3d a5 bc 06 ad 11 3d
       -0.109647445 0.020583726 -0.02017102 0.0355654
000360 93 3f 76 3d 60 33 65 bb 60 bb 9c bd 99 65 8e 3c
       0.060119223 -0.003497325 -0.076529264 0.01738243
000370 58 42 8d bd a6 06 28 3d 6e 98 a5 3c b0 eb 91 bd
       -0.0689742 0.041021965 0.020214286 -0.07125032
000380 2e 79 e6 3d 39 c1 ed 3c e0 b1 50 3c bd 86 ff bc
       0.11253582 0.0290228 0.012737721 -0.031192178
000390 4e 7c 96 3d 34 ca b4 bd f1 6b bd 3c 05 e5 2f bb
       0.07347928 -0.0882763 0.02312276 -0.0026839387
0003a0 c5 33 e8 bd 4a f8 a0 39 80 80 69 bd 92 0a 05 bd
       -0.11337999 0.00030702568 -0.057007313 -0.032480784
0003b0 b3 22 fd bd 0a 76 84 3d bb b3 9c bb f2 0c f0 bc
       -0.12360134 0.06467827 -0.0047821677 -0.029303048
0003c0 6f 1d e6 bd 4c 39 88 3d 08 0b 81 bd dd 10 f6 bd
       -0.11236083 0.066515535 -0.06300932 -0.12014935
0003d0 43 c3 a8 bd 58 f9 0e bd e4 e2 c0 3c 49 a1 f7 bb
       -0.08240368 -0.03490576 0.02354569 -0.0075570685
0003e0 59 9c 09 3e d0 d8 b1 bc 59 d8 8a 3d 6d d5 17 3d
       0.13438548 -0.02170983 0.06779546 0.037068773
0003f0 25 99 a7 bd db c8 65 3e 26 c7 54 bd 55 a2 0d bd
       -0.08183507 0.22439902 -0.051947735 -0.03457864

src_mlp.weight f4 [128, 256]
000000 ef 25 dc bc 94 ed d9 bc 29 44 ee 3c 37 c6 8c bd
       -0.026873557 -0.026602544 0.029085236 -0.06873744
000010 ee 04 00 3d 7f 95 4e bd 8a db 8c 3c 41 bb e9 bb
       0.0312547 -0.05043554 0.017194528 -0.007132918
000020 ca 79 54 bd 30 e6 27 3b 1d e6 48 bd a0 45 1f 3d
       -0.05187396 0.002561938 -0.049047578 0.03888476
000030 fd f5 79 bd 27 c5 87 bd 0f 9b d6 3c 6f b3 f0 3b
       -0.06102561 -0.06629401 0.026196985 0.007345609
000040 78 8c 91 bd a7 af bb 3c 27 97 1c 3d cc c5 c6 bc
       -0.071068704 0.022910906 0.038230088 -0.024264239
000050 b5 44 49 3d 1b 72 10 3d d2 e9 fe 3c 9a 65 07 bd
       0.04913779 0.03526507 0.031117354 -0.03305588
000060 5c 1a 2f bd ed c9 76 3c 6e 8a d6 3c 2b 4a 0f bc
       -0.042749748 0.015062791 0.026189055 -0.00874571
000070 59 e9 2b bd d8 e5 9c bd cd 1f 35 bd 8e 1d d8 3c
       -0.041970585 -0.07661027 -0.04421978 0.02638128
000080 42 d9 d0 bc c5 b5 d4 bc fb 31 9c bb ca 56 14 bd
       -0.025494222 -0.02596558 -0.0047667003 -0.03621558
000090 e4 41 fe bc df 5b 8d bd 5f 7d 5c bc 87 5c 37 3c
       -0.031037278 -0.06902289 -0.013457625 0.011191494
0000a0 31 89 58 bc 4c d0 9f bd af c9 da bc a2 2a f0 3a
       -0.013216303 -0.07803401 -0.026707498 0.0018323252
0000b0 c0 37 aa bb 7b 8e c4 bc f7 ea e9 3c 68 4e 76 bd
       -0.005194634 -0.023993721 0.028554423 -0.060133368
0000c0 ea c1 35 3d c3 b2 1c 3d a7 1b 41 3d cc 89 c7 bc
       0.044374384 0.038256418 0.047145512 -0.024357699
0000d0 cd 52 83 bd f2 94 cf 3c 01 5f 95 bd 2b 01 1a bd
       -0.06412277 0.025339577 -0.07293511 -0.03759877
0000e0 6c 72 ac 3c 93 2a b1 bb 0d 92 02 3d 47 26 4b 3c
       0.021050654 -0.0054066866 0.031877566 0.012399263
0000f0 ee 93 28 bc 4c c4 71 3a d4 52 82 bd 23 21 65 bd
       -0.010289175 0.0009222671 -0.063634545 -0.055939805
000100 d4 9d 41 bd 26 a2 e6 3c f2 3d 74 bd ae a3 40 bd
       -0.047269657 0.02815349 -0.05962939 -0.047031097
000110 5a db 27 bd 20 ed bd bc 08 88 12 3d de 8a 7b bd
       -0.040980674 -0.02318436 0.03577426 -0.06141173
000120 4e 9a 33 bd 12 45 68 bc 32 f6 fd bb 36 fa bb bc
       -0.04384833 -0.014176624 -0.007750296 -0.022946458
000130 50 76 a4 bc 18 b3 ec bc d5 e4 72 bd f2 3d 42 3c
       -0.020075947 -0.028893992 -0.059300262 0.011855589
000140 bb 21 62 bd 38 1f a7 bc 1e d4 c0 bc 31 bc 3d bc
       -0.05520795 -0.020400628 -0.023538645 -0.011580513
000150 8e be 80 bc db ba 37 bd 25 5f 17 3d da d1 2c 3b
       -0.015715864 -0.044855934 0.03695597 0.0026370198
000160 ac 26 4e bd 4c c6 3b bd 06 c0 76 bc 8e 88 9f bd
       -0.05032985 -0.045843408 -0.01506043 -0.077897176
000170 76 1a 90 bd d6 a6 6b bd e2 70 60 bd e9 10 1b bd
       -0.07036297 -0.057532154 -0.054795153 -0.037857924
000180 fb b3 00 3d f4 e0 50 bd 8f bc 4a bd a0 32 17 3a
       0.031421643 -0.050995782 -0.04949623 0.00057677366
000190 c9 b5 8b bc 9e 27 cd bb 4b 0a 72 bc 80 2e f3 bc
       -0.017054455 -0.0062608263 -0.014772962 -0.029685259
0001a0 74 f3 03 3d e3 88 3b 3d d3 5d 59 bc 63 1f 42 bc
       0.032214597 0.045784842 -0.013266998 -0.0118483035
0001b0 f6 5f f4 bb 28 a1 12 bc 2a e0 34 3d 7f a1 28 3c
       -0.0074577285 -0.008949555 0.044159092 0.01029241
0001c0 8e f2 dc bc 71 a0 8b 3c ef 05 8c 3c 6e 75 25 3d
       -0.026971128 0.017044278 0.017092673 0.040395193
0001d0 5a 35 82 bd 90 1d c1 3c fe 82 1d bd 73 74 09 3d
       -0.06357832 0.023573667 -0.038455002 0.03355832
0001e0 f5 74 10 bd e5 35 a8 3c be 1f 10 bc df 14 67 bd
       -0.03526779 0.020533511 -0.00879663 -0.05641639
0001f0 17 9c 41 bd fc e9 f4 3c ef f1 27 3d cd 83 22 3d
       -0.047268 0.029896729 0.04100221 0.039676476
000200 8e 76 d7 bc 2e 36 92 3c ba bc e2 3c b2 1a 45 bd
       -0.026301648 0.0178481 0.027677882 -0.04812116
000210 bc b5 76 bd 69 83 16 3d 24 37 87 bc 6d be a7 3c
       -0.06023191 0.036746416 -0.016505785 0.020476544
000220 34 28 81 bd 72 62 82 bc 22 ab df 3c bb 19 0c bd
       -0.06306496 -0.015916083 0.027303282 -0.034204226
000230 3c 7e 34 bc f6 e2 8a bd aa 09 91 3c fb 90 67 bd
       -0.011016425 -0.067815706 0.017704803 -0.05653475
000240 68 7d 10 bc 0b 3c 86 bc 24 6c a9 bd 52 9e 19 3d
       -0.008818962 -0.016386053 -0.08272579 0.0375045
000250 98 5e 50 bd 91 8d 61 bb f0 6f 52 bc d4 b6 33 bc
       -0.05087146 -0.0034416656 -0.012844071 -0.010968883
000260 d4 6e 04 3d 77 8e 04 bd f9 7d eb bc 3e 58 7d bc
       0.032332256 -0.032362428 -0.028746592 -0.015462933
000270 84 ef 15 bd 0c cf 91 bd 31 c1 4f 3c b8 e6 48 3d
       -0.036605373 -0.07119569 0.012680338 0.049048156
000280 51 b7 88 bd 3d 57 5c 3c db 99 13 bd 40 69 f3 3b
       -0.0667559 0.013448534 -0.0360354 0.0074283183
000290 91 8d 37 bd 23 7a e9 bb 9f 3e 6c bd f2 c7 fc bc
       -0.044812743 -0.0071251555 -0.057676908 -0.03085706
0002a0 8d cc a8 bb 72 0f fc 3c 7c 4f d0 3c 93 a1 14 3d
       -0.0051513375 0.030769084 0.025428526 0.0362869
0002b0 a3 d6 c7 3c 36 17 29 3d 6f 5a 90 bd 16 c0 5c 3c
       0.024394339 0.0412819 -0.07048499 0.013473531
0002c0 64 2f 22 bd 66 d9 3a bd ea f7 3d bc c2 c3 21 bd
       -0.039595976 -0.045617484 -0.011594752 -0.03949333
0002d0 14 63 e8 bc 76 34 ca 3c 1b fb 1b 3d ff ab ee 3c
       -0.028367557 0.024683218 0.03808127 0.029134749
0002e0 4f 34 14 3d a0 7b c7 bb 9f ce 2e 3d 7a d3 86 bd
       0.036182698 -0.0060877353 0.042677518 -0.06583305
0002f0 b2 1e dc 3c f1 a4 ae 3b 4d 69 fb 3c 8f c6 b3 3c
       0.026870105 0.005329721 0.03068986 0.021945266
000300 f5 5d 89 3c 72 8e 2c 3d 49 44 94 bd 37 92 ec 3a
       0.016768435 0.042128034 -0.07239587 0.0018048947
000310 23 b8 af bc 54 c2 b8 3b 2b d7 af 3c 1f 15 24 bd
       -0.021450108 0.0056384 0.021464905 -0.040059205
000320 f8 7e 8f bd cd 87 4a bd 80 12 11 bc a2 ec a6 3c
       -0.07006639 -0.049445916 -0.008854508 0.020376507
000330 8f 8f 55 3c 9f 1c 94 3a 49 d0 7c bd 32 d8 da bc
       0.013034715 0.0011300034 -0.061722074 -0.026714418
000340 01 80 30 3d d3 ca 47 3d 32 22 ee 3c e4 ed 0a 3c
       0.043090824 0.048777413 0.02906904 0.008479569
000350 6b bd 1a 3c b3 2c a4 bc 68 06 c0 3c ae 0e e2 bc
       0.009444575 -0.020040845 0.023440555 -0.02759489
000360 92 02 01 bd 1d 8b 8d bd c9 71 9a 3c 99 fe c2 3c
       -0.031496592 -0.069112994 0.018853085 0.023803042
000370 9b 77 a6 bd 4f dc 22 3c 72 df 77 bd 53 3a 02 bc
       -0.08128282 0.009940221 -0.06051583 -0.007948476
000380 8f 08 3d 3c 3d 08 d0 3c 6c 74 f9 bc 21 67 16 bd
       0.011537685 0.025394553 -0.030451022 -0.036719445
000390 f0 3b 2f 3c cd d1 74 bd 95 c2 28 3d 90 9f 61 bd
       0.010695443 -0.059770394 0.041201193 -0.05508381
0003a0 11 9d 0e 3d 28 3a e2 bc 06 aa 60 bd b9 3c 14 3d
       0.03481776 -0.027615622 -0.054849647 0.036190722
0003b0 69 8c 9e 3c 45 16 de 3b 90 11 f5 bc 41 bd 09 3d
       0.019354062 0.006777557 -0.029915601 0.033627752
0003c0 c0 91 87 3c fd f5 3a 3d d3 00 59 bc 1f 0d 31 3d
       0.016548991 0.04564475 -0.013244825 0.043225404
0003d0 03 d8 c4 3b d8 8c f6 bb 24 ae bf bc ee 03 ee 3b
       0.006007196 -0.007524114 -0.023398466 0.007263652
0003e0 46 ff ad bd 61 80 98 bd f0 c2 fc 3b fc e4 67 bd
       -0.08495955 -0.07446361 0.007713668 -0.05661486
0003f0 fe 8b 0a 3d eb 9f 8b bd c1 e7 01 bd 2d 98 54 bd
       0.033824913 -0.06817611 -0.03171516 -0.05190294

src_mlp.bias f4 [128]
000000 05 a8 77 3c f9 46 4e bc 1e 06 0c 3d 33 7c 00 bd
       0.015115743 -0.012590163 0.03418552 -0.031368446
000010 bb 2e d7 3d 40 ea 6d 3b f8 f6 7f 3b 04 e9 88 bb
       0.1050696 0.0036302954 0.0039057117 -0.0041781683
000020 21 4e a1 3d 96 02 12 bd 8c 77 6d 3d 22 79 8c bb
       0.0787623 -0.035646997 0.057975337 -0.004286901
000030 46 9b 8b 3a 31 38 76 bd 4f 69 07 bc 52 01 f1 bb
       0.0010651133 -0.060112182 -0.008264854 -0.0073548937
000040 a4 e5 c5 bc 31 32 12 bd 25 3a 11 3c 87 b0 df bc
       -0.024157353 -0.035692398 0.00886396 -0.027305854
000050 82 79 5a 3d a5 98 8e 3d 83 b8 20 bb 7e d8 6b bc
       0.053338535 0.069627084 -0.002452404 -0.0143948775
000060 df 4d 32 bd e0 4d b8 3d f2 1f a5 3d 24 b5 23 bc
       -0.043531295 0.089992285 0.08062734 -0.009991918
000070 a2 f9 eb 3c 80 4e a5 3d 55 b0 2a bb 3e fd 04 bc
       0.028805558 0.08071613 -0.0026045043 -0.008117018
000080 54 b0 2a bd dd 7b 48 bb 3b df 99 bc a8 99 ab 3d
       -0.041672066 -0.0030591406 -0.018783202 0.08378917
000090 05 5e 67 bc 82 e5 c7 3c 2d 02 32 bd a2 36 03 3d
       -0.014121537 0.02440143 -0.043459106 0.032034524
0000a0 0a 1f d9 bc ea 95 1c bd b7 1a ac 3c fc 5e 30 3d
       -0.026504058 -0.038228907 0.021008832 0.043059334
0000b0 9d 64 8a bd 4c 1b a0 bb 1a 36 24 3c e0 61 d7 bb
       -0.06757472 -0.0048860665 0.010022664 -0.006572947
0000c0 24 c0 9d bc 34 ea ea 3c 6f 52 99 bc 27 c6 9f 3d
       -0.019256659 0.02867613 -0.018716065 0.078014664
0000d0 29 13 6e bd d5 53 18 bd e5 14 7a 3d d6 c4 17 3d
       -0.05812374 -0.037189323 0.061055083 0.03705295
0000e0 10 db 6c 3d 7a 94 58 bd a1 a3 4e bd 80 8e 5b 3d
       0.0578261 -0.052875973 -0.050449017 0.053602695
0000f0 18 70 46 3b 60 8f 8f bb 36 d6 f2 bc 9f 3e 41 3d
       0.0030279215 -0.0043811053 -0.02964316 0.04717886
000100 e8 ec aa 3d 90 80 99 3d c3 e6 f6 bb 69 08 49 bd
       0.083459675 0.074952245 -0.007534833 -0.049080286
000110 2c 34 d6 ba 32 34 b0 bb 4e 1c 32 bd ee 1c 78 3c
       -0.0016342453 -0.005377316 -0.043484025 0.015143616
000120 21 41 b9 3d 9e e2 20 3e 44 7f 44 3d 66 ae 91 3c
       0.090456255 0.15711448 0.047972932 0.017783355
000130 2a 5b 8d bd 6f bd ed 3c 90 b9 fc 3c 8d 31 6e 3d
       -0.06902154 0.029020993 0.030850202 0.058152724
000140 2a ba 6b 3b 0e 5d 85 3d c2 a9 d7 bc d7 80 d3 3c
       0.0035969117 0.065118894 -0.026326064 0.025818272
000150 2f b3 54 bd 0d 8d 42 bd aa 94 ee bc 3b 93 18 bd
       -0.051928695 -0.047497798 -0.029123623 -0.037249785
000160 98 b2 6e bd d9 3a dd 3c fe 30 23 bd 2c 04 82 3c
       -0.05827579 0.0270056 -0.039841644 0.01587113
000170 0e c1 a6 3c af 44 b4 bd 4b 8b 16 bd 1d 33 84 bd
       0.020355728 -0.08802163 -0.036753934 -0.064550616
000180 59 5a 86 3e 54 83 63 3c 08 1f 90 3d be f8 3a bc
       0.26240805 0.0138862915 0.07037169 -0.011411844
000190 60 4c 03 3c 97 99 0a 3c 85 97 06 bc 11 c0 f3 3c
       0.008013815 0.00845947 -0.008214836 0.02975467
0001a0 b0 10 4b bd 69 a1 01 bd 44 28 41 3d b2 29 22 bd
       -0.04957646 -0.031648073 0.04715754 -0.039590545
0001b0 6e ec d9 bc c0 85 eb 3b 35 8b 60 bd 0e bd 98 bd
       -0.026601996 0.007187575 -0.05482026 -0.07457934
0001c0 12 02 1a bc bc 0f ae bc c8 38 85 3d 15 82 23 bd
       -0.009399908 -0.021247737 0.06504971 -0.039918978
0001d0 dd 97 fb 3d 25 98 17 bd 80 f0 37 bd 26 23 1a 3d
       0.12284825 -0.03701033 -0.044907093 0.037631176
0001e0 4a c4 3e bc 7d 18 7d 3c 0e e7 93 bb 30 fb 49 3c
       -0.011643479 0.015447733 -0.004513628 0.012327954
0001f0 d5 92 73 bd 0b 8d 6a 3d 16 b1 12 bd c3 30 7d bd
       -0.0594662 0.057263415 -0.035813414 -0.06181408
